output/river_level_predictor_ep70_lr0.0008_lu5_at_y/model.pth (torch, 94779 bytes, 6 tensors)

linear.weight f4 [1, 2]
000000 e1 db a4 be 77 2f 5e bf
       -0.32199004 -0.86791176

lstm.weight_ih_l0 f4 [256, 24]
000000 c8 7b 7b be 9f 94 19 3d e2 20 4d 3e 20 1c f4 3d
       -0.24558938 0.03749525 0.20032075 0.11919427
000010 08 6f 80 bc 33 1d 34 bd a4 07 a9 bd 2e a6 15 3d
       -0.015677944 -0.04397316 -0.082534105 0.036535434
000020 b4 c8 4a 3e 53 18 50 3c 57 d3 b5 3d c8 be 23 be
       0.19803125 0.012701112 0.088782005 -0.15990746
000030 4b 48 1b be 62 4f 4d 3e 89 87 c5 3d 53 a6 4b 3d
       -0.15164296 0.20049813 0.09644992 0.049719166
000040 e7 ff 65 bc db 5a a4 bd ce 75 99 be c8 c6 bb 3d
       -0.014038063 -0.08025142 -0.2997269 0.09168774
000050 e3 85 f7 3d 87 f0 1c bc b2 49 b1 3c 9a a9 8c 3d
       0.12086084 -0.009578831 0.021641586 0.068682864
000060 9e b1 03 be d7 91 ea bd 0d a2 de bc ec 97 f6 bc
       -0.12860724 -0.11453598 -0.027176881 -0.030101739
000070 6f fa 73 3d fb f5 cf 3d 22 86 0d bd de c6 00 be
       0.059565004 0.10154339 -0.034551747 -0.12575862
000080 d7 1b 7e bd 24 1c d3 bd 1c 0e 0d bd da 30 1f 3d
       -0.06203827 -0.10308102 -0.034437284 0.038864948
000090 9a df 0c be 3b 63 bb bd 0f 6b 51 bd b0 3f 9d 3d
       -0.13757172 -0.09149786 -0.05112749 0.07678163
0000a0 5d 54 15 bc bb 06 86 3c 1c e9 a6 be 48 78 43 be
       -0.009114352 0.016360631 -0.32599723 -0.19088852
0000b0 dd a4 fa bd 61 96 e4 bd d9 0f 56 3d 76 f1 e3 3d
       -0.122384764 -0.11161495 0.052261207 0.111300394
0000c0 e1 b1 ba 3c ce 9d c9 3d 12 3c 95 3d f9 82 2d bd
       0.022789897 0.09844552 0.07286848 -0.042361233
0000d0 38 a4 05 3e f4 ad 56 3b 13 d5 46 3d 9a 5d 36 3e
       0.13050926 0.0032757493 0.048543047 0.17809144
0000e0 70 76 9a 3c 97 23 32 3e 72 6e e2 3d 3f c1 d4 bd
       0.018855304 0.17396389 0.11056222 -0.10388421
0000f0 36 2c 50 3d 10 30 ab 3d 0a 6f 96 3d 6d bd cf 3d
       0.050823413 0.083587766 0.07345398 0.10143552
000100 16 32 f8 3d df 82 1f be 94 3f 82 3e 48 fb 4e 3d
       0.12118928 -0.15577267 0.2543913 0.05053261
000110 09 ca 87 3c 27 a9 28 3e 44 26 1e 3e f7 61 c0 bd
       0.01657583 0.16470776 0.15444285 -0.09393685
000120 da b9 94 bd ea 83 a2 bc 40 b0 b8 3d 02 ab 54 bd
       -0.07262011 -0.019838292 0.09017992 -0.0519209
000130 eb 52 9a bc 64 de 8d 3d c1 a6 58 be 42 cd 0d bd
       -0.018838366 0.06927183 -0.21157362 -0.034619577
000140 a0 1e da 3d 3a a2 ac 3d 4c 9c 97 3d 8c b3 e3 bd
       0.106503725 0.0842938 0.07402858 -0.1111823
000150 ca dc b1 3d 73 77 52 3d ec 22 9d bd d9 46 22 3e
       0.0868469 0.051383447 -0.076726764 0.15847339
000160 95 c2 a3 3d f5 d2 06 3c ef 22 ee 3b c8 26 ed 3b
       0.07996098 0.008229007 0.007267348 0.007237289
000170 38 78 b8 3d 2c c8 48 3d 35 7d 8c 3c c0 af b6 bd
       0.09007305 0.049019024 0.017149547 -0.089202404
000180 68 23 4e 3b db ad b3 bd 9a 01 15 3d e4 28 52 bc
       0.003145421 -0.08773395 0.03637848 -0.012827132
000190 fd c7 04 3e 1f c2 7b 3d ba db be bd d7 4e 91 be
       0.12966914 0.061464425 -0.09319253 -0.28380463
0001a0 26 a9 bb 3c 29 71 fd 3d 21 3b c1 3d eb 88 02 be
       0.022907805 0.12375099 0.09435106 -0.12747543
0001b0 9e 10 74 be f4 70 8f bd 11 47 97 3d 65 f1 8a bd
       -0.23834464 -0.07003966 0.07386602 -0.067843236
0001c0 af 9f 2f 3e fd 6a c9 bc 25 7a d8 be f2 6e 77 be
       0.17150758 -0.024587149 -0.4228069 -0.24163416
0001d0 66 6e 1c 3e 1f c9 19 3e b6 65 11 3e 54 a6 34 3e
       0.15276489 0.15018128 0.14198956 0.17641574
0001e0 8e 9f 23 bd 4c 45 fc 3b 05 62 ca 3d 7e ca 97 3b
       -0.039947085 0.0076986905 0.09881977 0.0046322932
0001f0 21 87 e6 3d 4f 8a 6c bc bb 84 10 be fd f6 d9 bc
       0.112562425 -0.014437272 -0.14113133 -0.026607031
000200 26 3b 19 3e a6 2e b7 bc 39 17 41 3e 15 6b 00 be
       0.1496397 -0.02236111 0.18856515 -0.12540849
000210 7b c1 8f 3c c0 c7 cb bd e4 22 14 3e d6 c1 44 bd
       0.017548313 -0.09950209 0.14466435 -0.04803642
000220 b2 13 2a 3d cc 1c a3 bd 0f 61 e5 3d 2f 04 4d 3d
       0.04152269 -0.07964477 0.11200153 0.050052818
000230 4b 8b 18 3e ea 06 87 3d 72 0e 80 3d f9 4a 95 bd
       0.14896886 0.06593116 0.06252755 -0.072896905
000240 37 33 c0 3e 5e b6 99 3e 18 0a 27 3e 5e 98 ce 3d
       0.37539074 0.30021948 0.16312444 0.100876555
000250 43 7a e7 3d 72 1a af be 4a f8 08 3e 1e 30 a2 3e
       0.113026164 -0.34199864 0.13375965 0.31677336
000260 52 09 a4 3e c8 68 7a 3e 72 69 6f 3e c1 88 9a be
       0.3203836 0.24454033 0.23380068 -0.3018246
000270 28 29 65 3e 36 6d bc 3d 3d 43 fd 3d dd 9f 82 3e
       0.22378981 0.09200518 0.1236634 0.2551259
000280 04 3e 8c 3e 43 56 af be 4d 17 93 3e 80 c7 a2 3e
       0.27391064 -0.342455 0.28728715 0.3179283
000290 93 54 09 3e 0f f6 28 3e 39 f4 99 3e 58 4a ab be
       0.13411169 0.16500114 0.3006914 -0.33455157
0002a0 86 e0 e7 3c 24 29 f2 3d 33 c1 54 bd 1e ee cb 3c
       0.028305303 0.11824253 -0.05194206 0.024893817
0002b0 da 7a c5 bd 24 55 13 bd dd 3e 97 3d 21 e3 29 3c
       -0.09642573 -0.03596987 0.07385037 0.010369093
0002c0 3d 31 5b bd 6a fa 16 bd c1 07 29 bd bb 45 c9 3d
       -0.053513754 -0.036859907 -0.04126716 0.09827753
0002d0 f8 89 01 3e ab bb 8f bc ca 8d c8 3d 7a 63 1c bd
       0.12650287 -0.017545542 0.09792669 -0.038180806
0002e0 b5 7f 6f 3d ab 77 63 3d 6e 8e 94 3e 3c 67 d9 bc
       0.0584714 0.055534046 0.29014915 -0.026538484
0002f0 0d 36 04 bc 42 de a7 3d 32 b7 d5 bd af dd 03 be
       -0.008069527 0.08196689 -0.10435332 -0.12877534
000300 08 f6 22 3e ed 0f c9 bc 6a d3 be bd a7 0e f7 bb
       0.15914166 -0.024543727 -0.09317668 -0.0075395885
000310 f2 cb 92 3c 82 0e 55 bd 31 7f 86 bd 34 e3 13 3e
       0.017919514 -0.05201579 -0.065672286 0.1444214
000320 74 6e e0 bd 9c e3 08 3e 99 25 b1 3d 3d 34 b1 3c
       -0.10958567 0.13368076 0.08649749 0.021631354
000330 62 26 dc 3d 77 6a 99 bc b0 e7 e5 bc cb 54 94 bd
       0.107495084 -0.018727524 -0.028064579 -0.072427355
000340 96 2c d1 3c 95 61 0a 3d 85 e3 0a 3e 5f cf 97 bc
       0.025533956 0.033784468 0.13563354 -0.0185315
000350 60 9b 43 3b 24 65 37 bd 35 9a c4 bd 8e 15 15 bc
       0.002984725 -0.04477419 -0.09599725 -0.009099377
000360 5e 8c 3c bd af e0 4a bd 5f 66 1b bd cf 28 45 3e
       -0.046032302 -0.04953068 -0.037939426 0.19253848
000370 3a 61 4f 3d bb ed a2 3c 30 70 86 3d 44 73 ea 3d
       0.05062983 0.01988875 0.06564367 0.114477664
000380 92 4f dc bc e5 d2 1d 3e dd 27 f0 3d 91 de cc bd
       -0.02689341 0.15412481 0.11726353 -0.10003389
000390 49 11 24 3e 7d 90 b8 3c 0f f0 14 3e 2e 85 43 3d
       0.16022219 0.022529835 0.145447 0.047734432
0003a0 f6 95 69 bd f3 7a bf bd 2e ea 68 3e 31 9b dc 3d
       -0.05702778 -0.093496226 0.22745582 0.10771788
0003b0 88 17 c1 3d 92 ad 73 3d b0 ef 27 bd 5e fe 7f bd
       0.09428316 0.0594917 -0.04100007 -0.062498443
0003c0 ea 16 4e 3d 5a e0 23 be de 8f 5e 3e 4f 27 59 3e
       0.05031482 -0.16003552 0.21734568 0.21206401
0003d0 fe 31 58 3e da a3 08 be a2 81 8e bd 0b d2 30 be
       0.2111282 -0.13343754 -0.06958319 -0.17267625
0003e0 d0 0b 15 3d 26 a6 69 3d 5a da 2c 3e fd 32 25 be
       0.03638822 0.057043217 0.1688017 -0.16132732
0003f0 27 e6 ac 3e 55 27 9b bc ec 95 b1 3c 25 e8 53 3e
       0.33769342 -0.018939653 0.021677934 0.20694025

lstm.weight_hh_l0 f4 [256, 64]
000000 96 79 91 bb e5 ba 72 3d ae 1c 7b be b0 04 ba bd
       -0.004439543 0.059260268 -0.24522659 -0.09082925
000010 5b 95 dc bd fd ec bc bd 39 b3 86 3d ed 92 4d 3c
       -0.10770675 -0.092248894 0.06577153 0.012547237
000020 20 04 9b 3c 45 c1 0d 3e d4 95 61 be 38 4a 05 bd
       0.018922865 0.13843258 -0.22029811 -0.032541484
000030 68 9e e1 bd 4f 88 88 be 64 1e 6e bd 33 a1 25 3c
       -0.11016542 -0.26666495 -0.05813445 0.010109234
000040 30 d9 0a 3e 94 35 97 3d d1 52 17 be a3 ee 2a be
       0.13559413 0.07383266 -0.14777686 -0.16692595
000050 f5 73 48 be 48 a1 d4 bd bf 76 20 bc 4c ca 4d be
       -0.19575484 -0.103823245 -0.009793936 -0.20096701
000060 7c ae 29 3e 43 47 0b be 5e 2a 40 be 91 ab 95 bd
       0.16570467 -0.13601403 -0.18766162 -0.07308114
000070 74 64 d5 bc 64 15 24 3e 72 7f 48 be 14 46 f7 bc
       -0.026048876 0.16023785 -0.19579867 -0.030184783
000080 1d d0 94 3d 3e 1f 73 3e ce fd 8f bd 5c d6 92 be
       0.07266257 0.23742387 -0.07030831 -0.28679168
000090 22 30 b9 bd d2 f9 84 3e d1 d4 2a 3e 73 fd 94 bd
       -0.09042384 0.25971848 0.16682746 -0.07274904
0000a0 55 eb c3 3d 4b 3f 41 3e 3b 27 47 be e7 1a e4 bd
       0.095663704 0.188718 -0.19448559 -0.11137944
0000b0 5e a1 16 3e ae b6 f2 3d 61 ce 7f be a0 5c 40 3e
       0.14709994 0.1185125 -0.24981071 0.18785334
0000c0 d3 8f 87 be 19 36 47 3e fa de 8f bd c9 a4 74 3e
       -0.26476917 0.1945423 -0.07024951 0.23890986
0000d0 57 8c 6e be 0c e3 e6 bd 53 11 11 3d 9a 9e 9f bc
       -0.23295723 -0.112737745 0.035416912 -0.019484807
0000e0 7f 66 6d 3e e3 fc 64 be 63 cf 7a 3e f0 15 de 3b
       0.2318363 -0.22362094 0.24493174 0.0067775175
0000f0 a5 04 88 bd f9 db 30 3b 18 e3 0d be 6e ab 50 3e
       -0.06641511 0.0026986583 -0.1385616 0.20377895
000100 4a e7 4b 3d ed 85 0a b9 2c e1 7f 3b 86 2f ee 3d
       0.04978112 -0.00013210597 0.0039044125 0.11630158
000110 37 10 e1 bd d2 13 db bd 6a 72 75 bd 62 58 2d 3d
       -0.10989421 -0.1069714 -0.059923567 0.042320617
000120 25 44 ff 3d 66 7f 24 3d c9 04 56 bd 2c 3c c7 3d
       0.124641694 0.04016056 -0.052250657 0.09728274
000130 a8 15 a9 bd 6c 0d d1 bd 6f 84 b7 bd ed c7 46 3d
       -0.08256084 -0.10207638 -0.089608066 0.048530508
000140 22 b1 da 3b 37 44 13 bd d4 35 9c bd 5e 15 53 3d
       0.006673948 -0.035953727 -0.076274544 0.05153405
000150 7c 80 7c bd bf d5 bd 3d 78 5b 61 bd d2 08 f6 bb
       -0.06164597 0.092692845 -0.055018872 -0.0075083757
000160 21 6f 05 3d cb 29 b0 bd 94 8a 3b bd 49 1f 00 be
       0.032576684 -0.086017214 -0.045786455 -0.12511934
000170 30 5e 66 3d 6f 48 12 3d 5c d8 c0 3d 32 77 b8 3d
       0.056242168 0.03571361 0.09416267 0.0900711
000180 69 0b c2 bd f7 bf 0b 3e 94 9e 0a be 92 8b 18 bd
       -0.094748326 0.13647448 -0.13537055 -0.03724248
000190 ef 71 d0 3d 7f 29 91 bd f2 6d 02 3e c4 90 fe bd
       0.10177981 -0.07087993 0.12737253 -0.124299556
0001a0 6a f3 7d bd 7c f2 ac 3d b4 38 c0 bd 38 88 d3 bd
       -0.061999716 0.08444688 -0.09385815 -0.10328716
0001b0 08 00 2f bb 90 de ba bc 62 98 98 3d 3d 01 19 3d
       -0.00267029 -0.022811204 0.0745094 0.037354697
0001c0 41 6d c3 bd 20 40 10 bd 4c 9d 6f 3c 55 85 fe 3d
       -0.09542323 -0.035217404 0.014624905 0.12427775
0001d0 9b 7f 08 be ef 4b 5b bd 78 9d af 3c 07 3b 87 3c
       -0.13329928 -0.053539213 0.021437392 0.016507639
0001e0 fd 2a 0d 3e c9 81 52 3d d2 58 30 3e 93 b6 e4 3d
       0.1378593 0.051393304 0.17221382 0.11167636
0001f0 ec 7d f5 bc aa bc bb 3d 64 1f 82 3c 29 1b b2 bd
       -0.02996727 0.09166844 0.015884109 -0.08696587
000200 fc 98 7e 3d e3 ec 3d bd 04 78 7d 3d e1 7a 3f bd
       0.062157616 -0.04636849 0.061882034 -0.046748046
000210 8a f2 de bc 87 f7 bd bd dc 4d 76 3d b5 91 87 bd
       -0.027215261 -0.09275728 0.060132846 -0.06619588
000220 92 bc 2c 3d 97 ec 1a 3e c6 23 3e bd 6f 19 ac bd
       0.042172022 0.15129314 -0.046420835 -0.084032886
000230 d5 27 16 bd 43 0a ea bc 5c f7 e6 bd 94 9b 33 3c
       -0.03665908 -0.028569346 -0.11277649 0.010962386
000240 3e 84 dc 3d 14 fe bb 3d e6 09 83 bc 41 27 27 bd
       0.10767411 0.09179321 -0.01599593 -0.04080892
000250 17 06 5d be d4 f4 88 bd 48 85 26 bd 60 0f 9d bc
       -0.21584354 -0.06687322 -0.04065445 -0.01917237
000260 8f 03 12 3e d1 ec a4 3c 98 82 e0 3c 3f 79 1d bc
       0.1425917 0.020132454 0.027406022 -0.009611427
000270 33 be 04 3d 17 a9 9c 3c 45 04 07 bd a5 29 5b bd
       0.03240795 0.019123597 -0.032963056 -0.053506512
000280 d6 37 f7 3d 27 b0 5f 3d 02 9f 22 3e 5f 24 4d 3d
       0.12071197 0.05461135 0.15880969 0.050083514
000290 fc 76 40 3d 55 c5 8d ba 85 3b 88 3d 69 8e 1b be
       0.046988472 -0.0010816256 0.066519774 -0.15191044
0002a0 d5 7e 43 bd 23 46 e9 3c 84 67 88 3d da 35 53 bd
       -0.04772838 0.028475827 0.06660369 -0.05156503
0002b0 d6 2f b8 ba b2 51 2e bd c4 d9 ec bd 6e aa 33 3d
       -0.0014052342 -0.04255838 -0.11564973 0.043863706
0002c0 fb 46 25 3d 2a 04 1d 3d c0 39 1b 3d 1f 8d 31 3d
       0.040350895 0.03833405 0.03789687 0.043347474
0002d0 e3 e7 e4 3d 67 c8 46 3b 97 4a 07 3e da 17 05 3e
       0.111770414 0.0030331851 0.13212048 0.1299738
0002e0 21 a4 c9 3d 2e 9e 8f bd 06 95 5d bd 42 0a 2c 3e
       0.09845758 -0.07012592 -0.054097198 0.16800788
0002f0 7c b6 ce bd ce 43 26 3e 5d 68 20 3d b8 76 ea 3d
       -0.100934 0.16236803 0.03916203 0.11448425
000300 dd cb 60 3e 86 93 69 3c 6b 80 1b bd 79 40 cb bb
       0.21952768 0.014256364 -0.037964266 -0.006202754
000310 7e 62 87 3c d2 7a 84 ba 9f 67 fb 3d f2 e4 a0 3d
       0.016526457 -0.0010107404 0.122756235 0.07856168
000320 8c 6b fd 3d a9 5b 81 3d 0d 83 3c bd ae b2 5f be
       0.123740286 0.06316311 -0.046023417 -0.21845505
000330 a6 32 ea 3d 41 f6 b1 bd 2e 53 90 bc 8e c6 01 be
       0.11435442 -0.08689547 -0.017617788 -0.12673399
000340 b6 40 8f bc e6 e2 8e bd 60 ec 46 bd e5 a0 82 be
       -0.017486911 -0.06976871 -0.04856527 -0.25513378
000350 98 32 d4 bc e5 4f 5c be c4 47 14 be ee 3f 88 bd
       -0.025903031 -0.21514852 -0.14480501 -0.066528186
000360 d6 8a ff 3d 64 62 0e be 3e 22 f6 3c 6a a4 9e bd
       0.12477653 -0.1390472 0.030045625 -0.07746203
000370 7c 9d 3b be 17 3d 31 be 25 f5 25 be 7c 74 02 3d
       -0.18321794 -0.1730846 -0.16206796 0.03184937
000380 ce 87 39 bd 93 d6 64 3d d7 6d 21 3e 9b bf cd bd
       -0.04529553 0.055868696 0.15764557 -0.100463115
000390 6b 06 99 bc 4a b1 95 3c bd ac b0 3c a7 d7 62 3d
       -0.018679818 0.018273015 0.021566743 0.055381443
0003a0 ff dd 01 bd 14 74 54 3e 57 fa 01 be 39 cc 4d be
       -0.031705853 0.20747405 -0.12693153 -0.20097436
0003b0 72 50 e4 3c 9a 79 ad 3d 6c 6f f9 bd cd 42 15 bd
       0.02787039 0.08470459 -0.12179455 -0.03644066
0003c0 7c 09 57 bd ee 09 4e 3e 39 39 90 bd 13 4f ee 3d
       -0.05249928 0.20120975 -0.07042164 0.11636176
0003d0 9c fc db bc 77 a1 86 bd 4d a5 99 bd f2 ca 04 3e
       -0.026853852 -0.06573766 -0.07502232 0.12968042
0003e0 b7 09 99 3d 17 93 5c bd 02 38 ac 3d ea fe 20 3a
       0.07472556 -0.053851213 0.0840912 0.0006141501
0003f0 43 83 35 be c4 c5 89 3d 27 af e1 bd d5 2b 79 3e
       -0.17725854 0.06727174 -0.11019736 0.24333127

lstm.bias_ih_l0 f4 [256]
000000 62 ca dc 3d fd a1 19 bd 5e f6 8f bd 94 6c a5 3c
       0.10780789 -0.037508 -0.07029413 0.020193376
000010 a3 66 ad 3d 11 a8 c9 3d 58 df 88 3e f2 5b f0 3d
       0.08466842 0.09846509 0.26732898 0.11736287
000020 d2 d1 1d 3c 50 7b 0e 3e a2 96 13 3e e6 da 43 bd
       0.009632545 0.13914227 0.1441293 -0.04781618
000030 7e 16 50 3e d2 70 11 3e ff 6e a3 bd 5a 60 3f bd
       0.2032108 0.14203194 -0.07980155 -0.046722747
000040 52 78 d9 3c c1 03 91 bc 6a 52 37 3d 5e ee c8 3d
       0.026546631 -0.017701985 0.04475633 0.0981109
000050 0d b1 4f bd 72 ac 00 3e 56 6e 65 3d ee 38 92 bc
       -0.05070596 0.12565783 0.056013428 -0.017849412
000060 c6 ae a0 3d af f3 a7 3d 7b a8 67 bd 57 3f ff bc
       0.078458354 0.08200776 -0.05655716 -0.031158132
000070 a7 82 49 bd a1 b3 2d 3e a3 4c e5 3d b7 df 36 3d
       -0.049196865 0.16963054 0.11196258 0.044646945
000080 f3 09 31 bc 0e 98 3e 3e 62 54 df 3d 5c 3e ac 3d
       -0.010805595 0.18612692 0.109047666 0.084103316
000090 00 d5 a7 bd 9e 8e 94 3d b6 17 67 3d 19 12 b9 3d
       -0.081949234 0.072537646 0.056419097 0.09036655
0000a0 2f 0d dd 3d ab b6 0b 3e 06 09 ec 3d 40 38 11 3d
       0.1079353 0.13643901 0.115251586 0.035454035
0000b0 45 8e 90 bd 3a 72 84 bd af 4c 96 3d 66 e4 c5 3d
       -0.07058386 -0.064670995 0.07338845 0.09662704
0000c0 5b 77 6b bc 92 ed 5c 3d 1d 3b b6 3c 49 86 12 3e
       -0.014371718 0.053937502 0.022244984 0.14309038
0000d0 cb 70 1d 3e 52 2c de 3d 2b 9c 43 bd f1 a9 3b bd
       0.15375058 0.10848297 -0.047756355 -0.045816366
0000e0 36 f7 21 bc 43 4e 2d 3e 45 aa dd 3d 41 e2 0e 3e
       -0.0098856 0.16924386 0.10823492 0.13953497
0000f0 ea 71 f1 3d 85 9a b9 bd 64 54 7f 3e de 42 2e bc
       0.117893055 -0.090626754 0.24934536 -0.01063606
000100 e7 33 a8 bd 57 ce 92 ba 6c 4e 25 bd 98 fd 03 3e
       -0.082130246 -0.001120041 -0.040357992 0.12889707
000110 d0 11 2f bd a2 a4 83 bd 2c de 9f 3c cb 4b cd 3c
       -0.042741597 -0.064278856 0.01951512 0.025060555
000120 5a ea 04 3d 89 d0 85 bd a6 d3 ca 3d eb 6e d8 3d
       0.032450058 -0.065339155 0.0990365 0.10568031
000130 dd d3 47 3c 9d 58 8a bb b3 53 b0 bd 4d 8c 95 bd
       0.012196508 -0.0042219893 -0.08609714 -0.07302151
000140 0e 48 8c bd 4d ac 0c bc 29 6b cd bd 0b d2 23 3e
       -0.06849681 -0.008586002 -0.10030205 0.15998094
000150 10 f1 85 bd 28 6a 87 3d 71 3f c5 bc 9d a6 e0 38
       -0.0654012 0.066120446 -0.024078103 0.000107121865
000160 f1 8b 06 be ab 5d 2a 3d 5f f6 7f bd c6 4b 5f 3d
       -0.13139321 0.041593235 -0.062490817 0.054515623
000170 19 8e 7e bd 8c ae ac bd 41 88 97 3c ba 8a 9d bc
       -0.062147234 -0.0843173 0.018497588 -0.019231189
000180 73 a9 84 bd 49 a3 86 3d 86 7a 33 bc ff de 1a 3e
       -0.064776324 0.06574113 -0.010954505 0.15124129
000190 74 10 08 3b 54 2c f5 3d a9 30 04 3e 96 a3 29 3c
       0.002076176 0.119713455 0.12909187 0.010353943
0001a0 e1 4c 99 bd 90 73 4f 3d 11 90 bf 3c fc 0d b2 bc
       -0.074853666 0.05064732 0.023384126 -0.021735184
0001b0 fc f5 0c 3c 6a b4 df 3d 5c 42 f5 bb 05 ad b8 bd
       0.008603569 0.10923083 -0.0074847173 -0.09017376
0001c0 a5 6f ba bc 14 2b 5a bb 96 b1 da bd b7 a0 b1 bd
       -0.022758314 -0.0033289837 -0.10678403 -0.08673232
0001d0 dc 42 80 3d 45 bd 8d 3d 01 4e 31 bd 01 72 c9 3d
       0.062627524 0.06920866 -0.04328728 0.09836198
0001e0 37 5e f1 3c 46 02 98 bd eb 55 97 bd 15 d9 06 3e
       0.02946387 -0.074223086 -0.073894344 0.13168748
0001f0 9a 22 91 bc f8 c8 d6 bd 3c 9f 8a 3d 3c 4f 91 bc
       -0.017716695 -0.104875505 0.06768653 -0.017737977
000200 11 5c 1e bd 67 a4 23 bd d3 3a c5 3c 15 87 e1 3c
       -0.03866202 -0.03995171 0.024075901 0.027530232
000210 3e fc d7 bd bc b8 a8 ba c9 0c 62 3b 6c 22 da 3d
       -0.10546158 -0.0012872438 0.0034492484 0.10651097
000220 0a 81 c5 3d 40 9f 2d 3c 93 e8 53 3d 35 43 ee bd
       0.09643753 0.01059705 0.051735472 -0.116339125
000230 17 6a dd 3d 0f e7 c9 bb 10 20 6a bd 3a b4 b4 3d
       0.10811251 -0.0061615775 -0.057159483 0.08823438
000240 a8 3d f0 3d 41 2d d4 bb 72 c2 9c bc 11 e3 e8 bc
       0.1173051 -0.0064751212 -0.019135688 -0.028428586
000250 5e bc 83 3d 73 2e 92 bd a5 dd 99 3b 71 1b 42 bd
       0.064324126 -0.07137766 0.0046956115 -0.04738945
000260 7c 6f 86 bd 80 1d e4 bc 47 a0 92 bd f4 67 b9 bd
       -0.06564233 -0.027846098 -0.07159477 -0.090530306
000270 45 7e d1 bd 8d 87 96 3d a4 9b 54 bd d9 07 41 3d
       -0.10229162 0.07350073 -0.051906243 0.047126625
000280 8d 70 e5 3d eb a5 89 bd 24 81 a5 bd b6 27 2e bd
       0.11203108 -0.067210995 -0.08081272 -0.04251834
000290 48 bf 28 3b ac ee 40 3c c1 d2 45 3d d1 d8 da 3c
       0.0025748778 0.011775654 0.048296694 0.026714714
0002a0 fc 64 19 3d 5e 2c 90 3b 88 c8 14 3d 8d 66 dd bd
       0.03744982 0.00439982 0.036324054 -0.10810576
0002b0 48 60 56 3c 8a 17 aa 3d a9 fa fe bb c0 ec 50 3d
       0.013084479 0.08305271 -0.007781346 0.051007032
0002c0 01 11 25 bd 3a b5 83 bc e4 d6 f3 bc 66 a5 a8 3c
       -0.04029942 -0.016077626 -0.029765554 0.02058668
0002d0 de 02 98 bc 18 78 6a bd 97 c8 a9 3d 10 5c 74 3d
       -0.018556055 -0.057243437 0.082902126 0.05965811
0002e0 b6 2f c4 bc f7 dd 98 3d 41 2d 7c 3d 69 0f d7 bc
       -0.023948532 0.074642114 0.061566595 -0.026252465
0002f0 23 cd f9 bd 70 5f f5 3d 22 84 9c bd 8e f1 b6 3d
       -0.1219733 0.11981094 -0.0764239 0.08932792
000300 33 16 b5 3d 2e ba 19 bc 75 cd 93 3d e5 54 41 3d
       0.08842125 -0.009382768 0.07216922 0.047200102
000310 ef 55 69 3d 06 cc 96 3d c4 e9 51 3d 9d 9d c8 3d
       0.05696672 0.07363133 0.051248327 0.09795687
000320 cf 87 de bd d0 25 87 bc c8 e1 51 3e 24 a5 c5 bc
       -0.10865747 -0.016497523 0.20496285 -0.024126597
000330 a3 40 e1 3d 2a fa 22 3d 6a 9a b7 bd 99 99 db bd
       0.109986566 0.039789356 -0.08964999 -0.10722656
000340 e0 d8 d7 bc ea e7 a2 bb 42 89 94 3d 6a d4 76 3e
       -0.026348531 -0.004971494 0.07252742 0.24104467
000350 f2 d5 41 3e bd 31 80 bd c4 05 da 3d db 74 17 3e
       0.1892927 -0.06259487 0.10645631 0.1479067
000360 5c b1 6d 3d ea 61 5b bd d5 2d 2c bd 09 8f f4 3d
       0.05803047 -0.053560175 -0.042035896 0.11941344
000370 39 6e 14 bd a9 e3 42 3d b1 6f ac bd 03 87 dc 3d
       -0.03623793 0.047580395 -0.08419741 0.10767939
000380 c8 53 95 bd 91 a5 25 3e c7 e6 82 3d 27 ff 6a 3e
       -0.07291371 0.1617644 0.063916735 0.22948895
000390 52 d9 b9 bd cf 66 02 bd 73 20 62 3d 24 69 35 3d
       -0.09074654 -0.031836327 0.055206727 0.044289723
0003a0 dd 30 98 3c 5e 9f 7a 3d c8 2b ea 3d cd eb 7f bc
       0.018577987 0.06118714 0.11434132 -0.015620184
0003b0 6c ce 11 3d 3d 9d 1b 3e cd 70 bd 3d b8 b0 ad 3d
       0.03559725 0.151967 0.09250031 0.08480972
0003c0 c1 e3 4a 3e 46 60 a2 3d 7c 40 52 bb 5c f9 ea 3d
       0.19813444 0.07928519 -0.0032081893 0.11473343
0003d0 ce 35 83 bc a4 d8 37 3d 53 dd 9e 3d 7b 66 ed bd
       -0.016016867 0.04488434 0.07757058 -0.11591812
0003e0 a3 6a 5e 3c 36 ad 82 bb e5 1d 03 3e ee bf d6 3d
       0.013575229 -0.0039879335 0.12804373 0.104858264
0003f0 43 21 29 3d 91 41 ba bd 74 a9 33 3e 30 13 07 3e
       0.041291486 -0.09094537 0.1754511 0.13190913

lstm.bias_hh_l0 f4 [256]
000000 68 74 d6 3d 95 d1 4d bd 75 93 3c bd 6d cf 03 bc
       0.104714215 -0.0502487 -0.046039063 -0.00804506
000010 ea 92 4d bd ea 74 2d bd 94 29 8c 3d f0 61 00 3d
       -0.050188936 -0.042347826 0.06843868 0.0313434
000020 37 30 95 3d 2e 09 40 bd 55 d3 f9 3d 94 a8 cb bc
       0.07284587 -0.046883754 0.121985115 -0.024860658
000030 1e 49 eb 3d 7a 45 77 bd 25 0b 36 3d 51 61 ab bd
       0.11488555 -0.060368992 0.044444222 -0.08368171
000040 b0 ac 93 3c 17 ea b8 bd 48 fc b0 bd af 4c 93 3b
       0.01802668 -0.09029024 -0.08641869 0.0044952254
000050 21 a3 de bc 23 95 91 bd d6 e8 39 3d 53 58 f5 3d
       -0.027177395 -0.07108524 0.045388065 0.11979737
000060 9e 65 7a 3e 89 16 de 3d 18 ae 01 bd 51 d3 1e 3e
       0.24452826 0.10844142 -0.03166017 0.15510298
000070 08 00 ca bb 68 41 4e 3d 08 fe fa bc fe cd ab bd
       -0.0061645545 0.050355345 -0.03063871 -0.08388899
000080 92 df 35 bb 2a 74 0e 3e 39 a7 0f 3d 9c 3d 01 3e
       -0.0027751666 0.139115 0.035071585 0.12621158
000090 e6 ec ca bd 87 f9 12 3e 48 04 65 bd 08 c9 c6 bc
       -0.09908466 0.14353 -0.055912286 -0.024265781
0000a0 df 48 ae bd 02 c2 a1 bd fd 5d b0 bc 7a 25 bb 3d
       -0.08509993 -0.07898332 -0.021529192 0.091380075
0000b0 24 1b 17 3d ac 1b eb 3c 1f d9 43 3d 04 2f 97 bd
       0.036891118 0.028699718 0.047814485 -0.073820144
0000c0 c3 ba 1a 3e 22 10 19 3e b2 65 1a 3e 4b 84 32 3e
       0.15110306 0.1494756 0.15077856 0.17433278
0000d0 42 42 33 bd 7c 15 95 bd c2 5b c5 3d 1c 3e 02 3e
       -0.04376436 -0.072794884 0.09636642 0.12719005
0000e0 df e2 02 bd e0 53 c9 3d ec 8d b1 3b 52 24 00 3e
       -0.031954642 0.09830451 0.0054185297 0.12513855
0000f0 9c 21 0b bd 93 e0 8a bd cb c2 a8 3c ae 94 2d bc
       -0.0339676 -0.067811154 0.020600697 -0.01059453
000100 23 5a b2 bd 4b 31 d9 3d af 60 8e 3d 27 8b 03 bd
       -0.087085985 0.10605105 0.06952035 -0.032115128
000110 79 f3 db 3d 48 d8 64 bd dc c3 e1 3c 07 84 2a 3d
       0.10739798 -0.055870324 0.027559213 0.041629817
000120 ae f9 85 bc 30 da a3 bd ed 4d 86 3d a7 ff 1e 3d
       -0.016354408 -0.080006 0.06557832 0.038818028
000130 59 3d 12 bc 81 bb 04 3c 88 70 b5 bb d6 12 56 3b
       -0.008925759 0.008101345 -0.0055370964 0.0032665036
000140 d3 60 02 3d c3 19 49 3c f5 8f ee 3d 8e 3b 6a 3d
       0.03183062 0.0122742085 0.116485514 0.057185702
000150 be 40 09 bd 8c 37 7c bd 36 03 91 3d a5 fa 85 ba
       -0.03350901 -0.06157641 0.070806906 -0.0010221793
000160 c3 22 09 bd 4b 02 5d bd 70 2a c3 3d c5 c3 f3 3d
       -0.033480417 -0.053957265 0.09529579 0.119025744
000170 4f 65 97 bb bc 3e c0 3d a7 b9 e1 bd 2b 69 75 bd
       -0.004620231 0.09386966 -0.110217385 -0.05991475
000180 7c 41 49 bd d8 7b 28 bc c6 d3 e8 3a 92 d0 4c 3d
       -0.049134716 -0.010283433 0.0017763309 0.050003596
000190 5e 21 9f bc 04 59 5f 3d c2 8a 8e bd 4e 03 b4 3c
       -0.01942509 0.05452825 -0.0696006 0.021974232
0001a0 85 3d 62 3d 2b a2 02 3e 09 0a 1e bd a2 48 ce 3d
       0.05523445 0.12757175 -0.03858379 0.10072447
0001b0 8e 8d 25 3c 7f fa 43 bc 85 47 ad bd cf d7 42 3d
       0.01010455 -0.011961578 -0.08460907 0.047569092
0001c0 4f ad d4 3c 90 2c d9 3b fe 24 b1 bd 40 d2 2c bd
       0.025961546 0.0066276267 -0.08649634 -0.042192698
0001d0 69 b4 7d 3d 3e 91 1c 3d ff 32 ad 3d 06 e5 71 bd
       0.06193963 0.03822445 0.08456992 -0.059056304
0001e0 5a c1 fb 3d a5 d8 15 3e 81 72 8f 3c dc e1 25 bd
       0.12292738 0.14633425 0.017510654 -0.0404986
0001f0 f2 8d ea bd 88 bf 36 3d d5 0d cc 3d 50 63 af bb
       -0.11452855 0.044616252 0.09963576 -0.005352415
000200 c0 60 fb 3d df 37 05 3e bb 76 05 3d 57 aa db ba
       0.12274313 0.13009594 0.032583933 -0.0016759139
000210 c9 0a f1 bd 35 82 a4 bd 40 0a a7 bd 6c a7 22 3d
       -0.11769635 -0.080326475 -0.08156252 0.039710447
000220 f0 37 ea 3d 6d a0 85 bc c6 32 82 bd 2c 15 41 bc
       0.114364505 -0.016311849 -0.063573405 -0.011784833
000230 46 a2 6f bd 6a c1 c9 bc db 96 75 bd 76 fa a6 bd
       -0.058504365 -0.02462836 -0.05995832 -0.081532404
000240 52 cc 3d bd e5 e3 f2 3d b6 87 bb bd b4 2b a2 bd
       -0.046337433 0.11859874 -0.09156744 -0.07918492
000250 22 ad aa bd e6 ac 87 bd 8b ac cd bd c0 e5 90 bd
       -0.08333804 -0.06624775 -0.100426756 -0.07075071
000260 f9 1c 54 3d ca c9 dc bd 5b cb ab bd f4 88 9f 3b
       0.051785443 -0.10780676 -0.08388396 0.004868621
000270 64 6d 8b bc 07 68 0c bd c1 6b 00 be 0a 4f a9 3d
       -0.017019935 -0.034278896 -0.12541105 0.08267029
000280 db bb d9 3d 77 80 ed 3d 9b 77 8d 3c 4a 28 41 3d
       0.10631534 0.11596768 0.017268946 0.047157563
000290 c8 75 eb bd cc 3c 2b 3d 25 51 79 3c c1 b3 24 bd
       -0.11497074 0.041806027 0.0152171 -0.04021049
0002a0 50 dd 13 3d b6 d7 e9 3d d2 33 ca bd d1 fc d1 bd
       0.036099732 0.11418097 -0.09873165 -0.10253299
0002b0 c1 87 fb 39 4e e1 f1 3c bc e1 54 3a 88 a3 84 3d
       0.00047975595 0.029526379 0.0008120795 0.064765036
0002c0 87 c8 52 3d 2e fd 63 3d 87 bb ba 3c 65 62 a9 3d
       0.05146077 0.055661373 0.022794498 0.082707204
0002d0 8f 95 8c bd 6e 4c e4 bd 1b 44 2b 3d a0 a2 41 3d
       -0.068644635 -0.1114739 0.041812997 0.047274232
0002e0 7d 7c bc 3d 95 40 92 bd b8 09 4c bc c3 56 fb 3d
       0.09203432 -0.07141224 -0.012453489 0.12272408
0002f0 3e 06 01 be 56 01 b7 bc d1 c7 87 3d c2 26 c0 3c
       -0.12600037 -0.022339504 0.06629909 0.023455981
000300 62 e8 11 3d a3 7f 00 3e 81 e6 2e 3d 6c 97 37 3e
       0.03562201 0.1254869 0.042700294 0.17928857
000310 97 ca 44 bd a7 a0 42 3e 50 d3 e7 3d 79 c6 2a 3d
       -0.048044767 0.19006597 0.113196015 0.041693185
000320 03 5d f3 3d 18 5d 08 3e 5b 70 88 3e f6 76 1c bd
       0.11882975 0.13316762 0.2664822 -0.038199387
000330 d3 31 39 3e ba 84 53 3d 58 af cd bc f6 38 aa 3c
       0.18085413 0.05164025 -0.025108024 0.020779114
000340 22 b7 e2 3c 88 73 6a 3b 04 10 aa 3c 7d 8a 2f 3e
       0.027675215 0.0035774428 0.02075959 0.17142673
000350 dd 8d 17 bc ad 19 f1 3d 1a 1c 93 bd 08 ab 02 3e
       -0.009250131 0.117724754 -0.07183094 0.12760556
000360 1b a0 93 3e 28 16 32 3b 38 74 da bc af e0 1c bc
       0.28833088 0.002717385 -0.026666746 -0.009575053
000370 d8 8f 2b bc a7 9b 11 3e 9c 0e 00 3d 3d 8c 8d bd
       -0.010471307 0.14219533 0.031263933 -0.06911514
000380 06 dc e6 3d 30 2d f2 bc 05 eb 71 bd 6e 75 bf 3d
       0.11272435 -0.029562563 -0.059062023 0.0934857
000390 42 89 c1 bd a8 e8 8a bd e6 76 f2 3d 34 dc 46 3e
       -0.09450008 -0.06782657 0.11839084 0.19419938
0003a0 40 4f 71 bc 46 e0 37 bd 74 bf ca 3d 96 86 42 3d
       -0.014728367 -0.04489162 0.09899798 0.047491632
0003b0 87 a7 a7 bd 9e 7e c7 bc 1d 83 10 3e 7b cb 6b bd
       -0.0818625 -0.024352368 0.14112516 -0.0575671
0003c0 bf 13 22 3e b1 93 26 3d 10 30 59 bb 7a f6 ff 3d
       0.15827845 0.040668193 -0.003314022 0.124981835
0003d0 d6 62 02 3d 79 83 bc 3d 14 0f 0a 3e 42 55 53 3d
       0.03183254 0.09204764 0.13482314 0.05159498
0003e0 fa 16 b1 3d e1 3c 28 3e 4b ff aa 3d 13 fd db 3b
       0.086469606 0.16429473 0.083494745 0.0067135184
0003f0 57 31 16 bd 03 b7 95 3d 20 c2 3c 3c 50 21 31 bd
       -0.036668148 0.07310297 0.011520892 -0.04324466

fc.weight f4 [1, 64]
000000 42 79 58 be e2 d9 f8 bd cb a5 c6 bd 32 b6 9b bd
       -0.21140006 -0.12150933 -0.09699591 -0.076031104
000010 58 1a 44 3d 57 4d 1e be 10 e7 15 be b4 9a ff 3d
       0.047876686 -0.1545919 -0.14638925 0.12480679
000020 99 ad eb 3d 92 d4 4d 3e c6 1e 77 be 55 3a 06 3e
       0.115077205 0.2010062 -0.24132833 0.1310819
000030 dd 04 19 be 95 9e 0d 3e 89 0f 05 be 7d e1 34 3d
       -0.14943261 0.13830025 -0.12994207 0.044160355
000040 44 b7 dd 3d a2 9c d8 3d 08 7e e4 bd d5 44 74 3d
       0.10825971 0.1057675 -0.11156851 0.059635956
000050 ce bc 32 3e fd 66 9a 3d fc 1a ca bb 5f 29 50 3d
       0.17454836 0.07539175 -0.0061677676 0.050820705
000060 12 6a 51 be ad e0 54 3d 77 c6 2e bb 7a ef a6 3d
       -0.20450619 0.05197208 -0.0026668587 0.08151145
000070 86 e2 87 3d ee 49 a4 3d 67 d6 8c ba 94 0a 00 3e
       0.06635003 0.080219135 -0.0010745049 0.12504035
000080 9d bf e2 3d 25 25 ae 3d 43 ae ec bd be 9d 10 be
       0.110717036 0.085031785 -0.11556675 -0.14122674
000090 c6 1f 8f bd c5 b9 39 3c 81 c8 26 3e 5d 8f c6 bd
       -0.06988482 0.011335795 0.16287424 -0.09695313
0000a0 8e ab 92 bd d4 ea e1 bc e3 37 1c be 8d fd d7 3d
       -0.07161628 -0.027577795 -0.15255694 0.10546408
0000b0 5d 66 38 3c de 77 93 bd b5 c5 0c be eb 69 c9 3d
       0.011254874 -0.07200597 -0.13747294 0.098346554
0000c0 d1 23 fe bd 23 aa 12 be 4c 5b 09 be b5 bb 63 bd
       -0.12409175 -0.14322715 -0.13413733 -0.055598933
0000d0 21 da 85 bd 52 f2 a4 3d a6 c9 5a 3d 16 54 d8 3d
       -0.065357454 0.080540314 0.053414963 0.10562913
0000e0 0e ce dd 3d 34 35 1b be b5 28 29 be 8a 6c 79 3d
       0.108303174 -0.15157014 -0.16519435 0.060894527
0000f0 0d 3c 40 3d 64 44 e4 3d d8 c8 33 be 6f 17 ff bd
       0.04693227 0.11145857 -0.17557085 -0.124556415
