output/river_level_predictor_ep70_lr0.008_lu4/model.pth (torch, 94779 bytes, 6 tensors)

linear.weight f4 [1, 2]
000000 6c 4b d0 bf 6d ec 84 bf
       -1.6273017 -1.0384651

lstm.weight_ih_l0 f4 [256, 24]
000000 a6 01 9e be 2f cc cc 3e c3 b9 85 bb 40 0d f9 3c
       -0.30860633 0.3999953 -0.0040809824 0.030401826
000010 ac 7f 20 3d 67 f0 a7 3d 66 47 d8 be 99 8d a3 3e
       0.039184257 0.0820015 -0.42241973 0.31943968
000020 06 d2 8b bc ae b8 dc 3d a7 5b 2a 3e 7a f3 b4 3d
       -0.01706792 0.10777412 0.16636525 0.08835502
000030 54 34 8a be 5a ff 48 3e 6e 70 0b 3e bd 5e 2e 3d
       -0.26993048 0.19628659 0.13617107 0.04257082
000040 48 70 f5 3d 2c 27 17 3e 91 34 16 be dd 4e 4f 3e
       0.119843066 0.14761037 -0.1466849 0.20244928
000050 20 d9 07 3e c4 ea f1 3d eb ee 5b 3e 8f 4f 03 3e
       0.1326642 0.11812356 0.21477859 0.12823318
000060 9f e7 dd bc a9 93 47 be 73 9a 8f bc c4 17 d1 3c
       -0.027087985 -0.19489922 -0.017529702 0.025524028
000070 f6 b4 e5 3d 1e a9 cb 3c b0 c9 16 bd e3 87 c0 3c
       0.11216156 0.024860915 -0.036813438 0.023502296
000080 6e af c0 bd 6d 7b 11 3d ea ad f3 3d 59 65 cb 3d
       -0.094084606 0.0355181 0.11898406 0.0993144
000090 08 0b 53 be f7 15 52 be 84 53 9c 3d f6 1d 7c 3d
       -0.20609677 -0.20516191 0.07633117 0.06155201
0000a0 51 16 1b 3c cb 67 8d bd e4 d9 78 be 2b 99 16 be
       0.00946577 -0.069045626 -0.24301869 -0.14706866
0000b0 92 9e bf 3c 44 6c 52 bc 71 66 50 3d 5a e6 35 3e
       0.023391042 -0.012843195 0.050878946 0.17763653
0000c0 1a 28 07 be 37 8a 12 be 55 4b 0c be af 15 18 be
       -0.13198891 -0.14310537 -0.13700612 -0.14852022
0000d0 5a 42 95 bd 16 00 88 bd 2d af 00 be bb c4 31 bc
       -0.07288046 -0.066406414 -0.12566824 -0.010850127
0000e0 03 be a3 bc d3 1d c9 bd aa 23 84 bd e0 e2 a4 bd
       -0.019988066 -0.09820142 -0.06452115 -0.080510855
0000f0 36 55 0a bd bc 9a 49 be f0 a2 31 3d fe b2 a2 3d
       -0.03377267 -0.19687933 0.04336828 0.07944296
000100 54 75 5b bd ad a6 ac 3d 0a f2 a5 bd 21 a1 42 be
       -0.05357869 0.084302284 -0.08102806 -0.19006778
000110 d8 bb 6e bd 7b 9e 19 be e6 07 cc 3d 15 9d b5 3d
       -0.05828461 -0.15001862 0.09962444 0.08867852
000120 e4 d1 95 3c 69 42 ba bd c9 94 ef 3c 5c 8b 82 3d
       0.01828856 -0.09094698 0.029245751 0.06374237
000130 48 99 b3 bd 39 2d e1 bd 53 82 05 3c f7 9c af bd
       -0.087694705 -0.10994954 0.0081487475 -0.085748605
000140 bf 33 8c bd e3 da 39 bd e4 82 c3 bd 7c f7 24 bc
       -0.06845807 -0.045374762 -0.0954645 -0.0100687705
000150 98 ce e4 3c b8 64 41 be 43 0a 1d be b6 62 a5 bc
       0.027930543 -0.18886077 -0.15335946 -0.02018867
000160 cc d7 82 3d c3 50 0d 3e 67 2a 38 be 2f 52 b9 bd
       0.06388816 0.1380034 -0.17984925 -0.090488784
000170 b4 51 d8 bd 0f bf 64 3d f6 0a 51 3d b8 20 41 3d
       -0.10562459 0.05584627 0.051035844 0.047150344
000180 b2 59 97 bc d0 dd 94 be 42 92 11 3d 24 f3 d8 bd
       -0.018475387 -0.2907548 0.035539873 -0.105932504
000190 c4 2c cb 3c 9a 16 f6 bd 25 e0 ce bd b0 bf 5b be
       0.02480162 -0.1201603 -0.10101346 -0.21459842
0001a0 44 38 db bd e0 7a ff bb c2 28 90 3c 3b e3 ca 3d
       -0.10704091 -0.0077966303 0.01759756 0.09906622
0001b0 b4 cc f8 3d f1 d2 3a be 8c 7d 27 be 39 b7 b5 bd
       0.12148419 -0.1824453 -0.16356486 -0.088728376
0001c0 d0 e4 31 3d 60 ea 1c be 72 12 00 3e 02 4f 45 be
       0.043431103 -0.15323782 0.12507036 -0.1926842
0001d0 d0 5e e2 bd da b4 f1 bd 0c bd 5a 3c 82 4c 25 bd
       -0.1105324 -0.11802073 0.013350736 -0.040356167
0001e0 5a 32 15 be 29 fc a5 be a6 23 a2 3a 18 32 0b be
       -0.14569989 -0.32418945 0.0012370243 -0.13593328
0001f0 fb d8 0c be a8 60 be bd 4c 5f e0 bb 72 d0 6f be
       -0.13754646 -0.092957795 -0.006847298 -0.2341936
000200 fa bf e5 3c 2c bc f9 bd fd bb a8 bd 5a 76 15 3d
       0.028045643 -0.12194094 -0.08238981 0.036489822
000210 15 b6 12 be de 37 56 be 11 f7 1d be 5c c1 3d bd
       -0.14327271 -0.20919749 -0.1542628 -0.04632698
000220 11 96 8c 3d a7 6c cc 3d fd 20 07 be 47 71 cb be
       0.068645604 0.09981661 -0.13196178 -0.3973486
000230 40 77 b1 bc c9 22 86 3c d5 fc 8d 3d 27 15 3b 3d
       -0.021663308 0.016374009 0.069329895 0.04567447
000240 80 dd 92 3e 78 22 df 3d 19 7e e9 bc eb de 8e 3d
       0.28684616 0.10895246 -0.02850251 0.06976112
000250 cc 76 a9 bc 1b e9 0d be 39 ad 2a 3e c6 2e 80 bd
       -0.02068653 -0.13858454 0.16667642 -0.06258921
000260 2f 51 24 3d 26 93 1a be f5 8b f0 3d 91 81 56 bd
       0.040116485 -0.15095195 0.11745445 -0.052369658
000270 0b 08 87 3e 81 28 3f bd 45 47 57 bd 2f b1 8a bd
       0.26373324 -0.046669487 -0.052558202 -0.06772076
000280 d1 27 15 3e 0e 46 06 be f7 8f 25 3d 05 45 05 3e
       0.1456597 -0.13112661 0.0404205 0.1301461
000290 6e 97 c3 3d 52 2b 80 bd 52 5f 2e bd 8e 8b 3c be
       0.09550367 -0.06258263 -0.042571373 -0.18412611
0002a0 27 9e bc 3c c0 c6 a9 bd ee 43 a3 bd cb 43 83 bd
       0.023024632 -0.08289862 -0.07971941 -0.06409415
0002b0 2c 54 c9 bc 91 ed c9 bd c1 04 55 bc 27 8e 5e be
       -0.02457627 -0.09859765 -0.013001622 -0.21733914
0002c0 96 ea b8 bd 52 41 03 bd 43 20 3f bd a7 06 4c bd
       -0.09029119 -0.032044716 -0.046661627 -0.04981103
0002d0 2d 69 4c bc 9e 85 43 be 24 0d 69 bd d1 00 14 bd
       -0.012476248 -0.1909394 -0.056897298 -0.03613359
0002e0 c4 34 b0 bd 1e b1 a3 bd 9c f2 1d 3d fb 35 82 bd
       -0.08603814 -0.07992767 0.03856145 -0.06357952
0002f0 3b 7d c5 bd 90 6a fb 3c 41 b1 0d be 5c e1 fe 3c
       -0.096430264 0.030690461 -0.13837148 0.03111332
000300 b8 5f 09 bd 66 d6 0d be c2 44 16 be 6d a3 6c be
       -0.03353855 -0.13851318 -0.14674667 -0.23109217
000310 d7 9e 4a be 50 57 a5 bd f6 fc 96 be 25 e2 80 bd
       -0.19787155 -0.08073294 -0.2948987 -0.06293134
000320 c7 0e 80 be 17 32 2c be eb 4f 9d bd 00 43 d3 bc
       -0.25011274 -0.16815983 -0.07681259 -0.025788784
000330 bf e8 16 be a0 43 bc b8 b0 26 15 be 16 66 90 be
       -0.14737223 -8.977135e-05 -0.1456554 -0.28202885
000340 f3 b0 24 be 31 15 86 3d e2 ff 2f be 80 37 03 be
       -0.16083126 0.06547011 -0.17187455 -0.1281414
000350 ff 07 77 bd e2 23 ed bd 0f 1c 4e be bb 53 73 bd
       -0.06031036 -0.1157911 -0.20127891 -0.059406023
000360 25 81 da 3e 1f a4 27 3e b6 8c 12 3e 6c 84 83 bd
       0.42676654 0.16371201 0.1431149 -0.06421742
000370 2b c9 98 3d 8f 08 6e be da 4c bb 3e 34 c8 76 3d
       0.07460245 -0.23245452 0.3658207 0.060249522
000380 36 20 02 3c 3d a5 b0 bd 44 04 94 bd 01 4d 21 bd
       0.00794225 -0.08625267 -0.07227376 -0.039380077
000390 31 dc a7 3e e1 96 67 3e a8 21 23 bd 0a 84 14 be
       0.3278518 0.2261615 -0.03982702 -0.14503494
0003a0 d8 55 08 3e 3f 84 97 be 9d 8c 6d 3e 47 c2 5e 3e
       0.13313997 -0.29593083 0.23198171 0.21753798
0003b0 92 c1 8b bb c1 c2 9d 3a bf 24 84 3d 7b 6e c2 bd
       -0.0042650187 0.0012036191 0.06452321 -0.09493729
0003c0 cd a7 76 be a4 b8 d1 be ac 83 eb bd da c8 5e be
       -0.24087448 -0.40961182 -0.11499724 -0.21756306
0003d0 4e 1c 23 be f4 79 81 3b 9a f7 2c be e8 7a a2 be
       -0.15928766 0.0039513055 -0.16891328 -0.31734395
0003e0 b0 0e cc bd 26 05 db bd bf db 19 be 9f 81 0f 3c
       -0.09963739 -0.10694341 -0.15025233 0.008758931
0003f0 e5 02 3b be 29 99 fc be c8 c1 4f b9 ae 51 06 be
       -0.18262823 -0.49335602 -0.00019813247 -0.13117096

lstm.weight_hh_l0 f4 [256, 64]
000000 bf 40 60 be c9 78 df bd 16 55 0d 3e ca 17 b7 bd
       -0.21899699 -0.1091171 0.13801989 -0.08940084
000010 58 78 92 bc 0c 06 9b 3b 69 b2 a2 3e 65 06 f3 bd
       -0.01787965 0.0047309455 0.3177674 -0.11866454
000020 ba f5 05 3e 7e 68 14 be 1e 00 0c bd 76 50 79 3d
       0.13082018 -0.14492986 -0.0341798 0.06086775
000030 98 9f e2 bd 06 cb 47 be 2f eb e3 3e 49 33 7b be
       -0.11065596 -0.19511041 0.44515368 -0.24531282
000040 c6 d9 e0 bd 93 60 cd 3e b7 5f 54 3d 02 1e 46 3e
       -0.10979037 0.40112743 0.051849093 0.19347385
000050 ea 5d 72 bd 3b 2e e8 3d 90 23 78 3c ab 89 61 be
       -0.059171595 0.11336943 0.0151451975 -0.22025172
000060 17 54 f4 bd 93 f8 d4 bd b4 e7 ca 3e 52 6f a1 3d
       -0.11930101 -0.10398974 0.396299 0.07882561
000070 72 17 82 be dc 97 03 3e 62 9f 33 3f d2 49 c9 bd
       -0.25408512 0.12850899 0.70165074 -0.09828533
000080 12 37 0a 3f a2 0e 91 be e4 f8 9b bd 87 de a6 3e
       0.5399028 -0.28331476 -0.076158315 0.3259165
000090 b1 40 98 be 1e 8b 0c be 6c ad 62 3e db 39 0e 3f
       -0.29736856 -0.13724944 0.22136468 0.5555703
0000a0 97 48 89 3e f5 c2 a5 3e 05 c2 11 bd 62 11 75 3d
       0.26813194 0.32375303 -0.035585422 0.05983103
0000b0 cf 25 f8 be 99 a3 bf bd 0d 69 9b 3c 99 80 cb be
       -0.48466346 -0.09357376 0.01897099 -0.3974655
0000c0 4c 2c 28 3f 6c 10 84 bd 5e 27 af bb 48 03 12 3e
       0.6569259 -0.06448445 -0.005345269 0.14259064
0000d0 a1 58 ea 3d 43 0a 35 bd 10 66 81 bd 1c 51 ae 3d
       0.11442686 -0.04419924 -0.06318295 0.08511564
0000e0 7c 04 93 3e 31 60 26 bd f7 56 a8 bc a6 c3 34 be
       0.2871436 -0.04061908 -0.02054928 -0.17652759
0000f0 3b 32 90 be 95 5e 31 3e 51 75 53 bd 0c 76 43 bd
       -0.28163323 0.17321236 -0.051625554 -0.04772
000100 f0 d7 49 3d 5f f2 50 bd e9 08 ad 3b da 35 83 3d
       0.0492782 -0.051012393 0.005280603 0.06406756
000110 78 3c 38 be a2 5c a3 bd e5 2e 36 be 81 c0 9e bd
       -0.17991817 -0.07976653 -0.17791326 -0.07751561
000120 61 a7 4a 3e 10 d4 03 3e f2 05 08 3d 9a f5 b4 be
       0.19790412 0.12873864 0.033208795 -0.3534363
000130 e6 3d 18 be 2c 92 10 3d 42 f0 d3 3b df 46 3a 3e
       -0.14867362 0.03529565 0.00646785 0.18191098
000140 be 2d af 3d 7b 4e 7e 3d 6f 1a 6a bd 76 cc 48 be
       0.085536465 0.062086564 -0.057154115 -0.19609246
000150 1b 9e fb bd 76 b6 1a 3b 58 9e d2 bd f5 bb f6 bc
       -0.122860156 0.002360729 -0.10284108 -0.030118922
000160 50 f9 8d 3e 31 60 2e be a3 d8 5f bd 15 a4 8a 3d
       0.27729273 -0.17028882 -0.05464996 0.067695774
000170 a5 c3 0d bd fd b2 5f 3d 94 77 9c bf 41 cc 9e 3d
       -0.03461041 0.054614056 -1.2223992 0.07753802
000180 d6 fc 12 bd 9f eb d5 3d a6 25 3c 3f f0 24 db be
       -0.035885654 0.10445332 0.73494947 -0.4280162
000190 39 f7 a5 3b a7 92 95 bd ce c9 65 3d c5 bc a8 be
       0.0050648716 -0.07303362 0.05610066 -0.3295652
0001a0 19 73 c5 bd 36 f9 33 3d d9 14 3a be 04 00 f1 3c
       -0.09641094 0.043938838 -0.18172015 0.029418953
0001b0 59 d4 fc 3d c2 6a 96 bd d0 e1 c7 3c f8 8c ed 3d
       0.123451896 -0.07344581 0.024399668 0.11599153
0001c0 79 27 d0 3d f1 14 8c bc 85 f8 af 3d 31 7a 17 3e
       0.10163779 -0.01709983 0.08592323 0.14792706
0001d0 7d 4d 53 bc 1e 4d 36 bb ae a3 50 bd a7 41 e1 3c
       -0.012896893 -0.0027816962 -0.050937347 0.027497126
0001e0 4d 52 91 3f 69 01 a2 3c e2 3e 8d 3d ff 36 5b ba
       1.1353241 0.019776063 0.068967596 -0.0008362382
0001f0 2b 6f 1a 3e ea 36 cd 3c 26 2b c1 bd b8 e2 7a bd
       0.1508147 0.0250506 -0.09432058 -0.061251372
000200 36 a7 f7 3b 97 a9 57 3d 25 44 42 bc f8 66 cd bc
       0.007557775 0.052651968 -0.011857067 -0.025073513
000210 b3 7f f4 3d 53 02 61 3d 9f 9c 88 3e 94 e4 af bd
       0.11938419 0.054933857 0.26681992 -0.0858852
000220 7e 2e 12 3e b7 d6 08 be 4d 2b 8f be ec 21 51 be
       0.14275548 -0.13363157 -0.27962723 -0.20423096
000230 87 c4 48 bd a7 da b2 3d 0e f7 55 3e 55 9c 42 be
       -0.049015548 0.08733111 0.20895025 -0.19004948
000240 eb 0d bf bd 95 10 14 3e 28 b8 be bd b1 71 2a 3e
       -0.093288265 0.1445945 -0.09312469 0.16644932
000250 60 4e 95 3d 17 90 0a be a7 5d 41 be c7 c0 08 be
       0.072903395 -0.13531528 -0.18883382 -0.13354789
000260 3a 73 9a be 97 e1 76 bd 43 fc a3 3e 59 15 09 3b
       -0.30166036 -0.060273733 0.32028398 0.0020917265
000270 b7 9f f6 3c ad 82 9f bc 78 9d e1 3e cb 7b 40 be
       0.030105455 -0.01947149 0.44065452 -0.18797223
000280 6b cc 07 3f 43 11 be bd 53 63 89 be 93 d2 40 3e
       0.5304629 -0.09280636 -0.2683359 0.18830328
000290 c7 6f e2 bd da 55 0f bd 08 0c 95 3e 90 f9 d2 3e
       -0.11056476 -0.034993984 0.29110742 0.41206026
0002a0 44 7c 46 3e 6a 21 d9 bd 7e 41 2d 3d c9 92 ac 3c
       0.19383341 -0.10602076 0.042298786 0.021066086
0002b0 8b fc c2 bd 67 d4 b7 bc 93 8e b0 3d ab 91 7c be
       -0.09520825 -0.022440149 0.08620944 -0.24664943
0002c0 c8 1c a4 be 69 4c b6 bd a2 d3 02 3e 8c 3d 2c 3e
       -0.32053208 -0.08901293 0.12776044 0.16820353
0002d0 47 53 83 bc 8c c6 15 3d af 56 9f bc ca 2d ab bd
       -0.01603092 0.036566302 -0.019450514 -0.08358343
0002e0 21 dc e8 3e b8 25 0d be 2d 3a 88 3c 02 65 8b 3d
       0.45480445 -0.1378392 0.016629303 0.06806375
0002f0 5e d0 96 3d 76 63 ee 3d f2 1e df 3c 10 cd 24 bd
       0.07363962 0.116400644 0.027236436 -0.040234625
000300 63 e5 18 be 6b 3a 60 3d c7 9f 83 bd 58 89 1f be
       -0.14931254 0.05474321 -0.064269595 -0.15579736
000310 43 52 03 be 0f 8a ee 3d 94 14 1a bd e2 e1 13 3e
       -0.12824349 0.11647426 -0.03761728 0.14441636
000320 28 01 2b 3d 16 ad bc bc 19 53 1a 3a 55 66 37 3c
       0.04174915 -0.023031753 0.00058870163 0.011193831
000330 0d 2d 53 3d 80 42 0c be 7c 75 a4 3c db cd c4 3d
       0.051556636 -0.13697243 0.020075552 0.09609576
000340 94 9b d2 bc 85 e0 a8 bd de 9b 0f be 3a 6b 3d 3e
       -0.025708951 -0.08245949 -0.14024302 0.18497935
000350 6b 52 a5 3d cc 20 69 bb 48 b3 0f 3e d8 55 c3 bd
       0.080723606 -0.0035572527 0.14033234 -0.09537858
000360 68 c7 8c be d4 ad 09 be 9e c7 99 3d d9 85 d6 3d
       -0.27495885 -0.13445216 0.07508777 0.10474748
000370 43 a5 bf bd a2 d6 d6 bb 12 e3 07 be 92 9a 06 be
       -0.09357693 -0.006556348 -0.13270214 -0.13144901
000380 ed 63 ab bd 27 9c 4d bd b1 66 e0 3a 59 98 e8 bd
       -0.08368669 -0.050197747 0.0017120448 -0.11357183
000390 13 a9 03 3c 3d 9e 12 3d 59 f1 fc 3b 14 61 b7 bd
       0.008035916 0.03579544 0.0077192006 -0.08954063
0003a0 b0 47 1f 3e 10 75 46 bd 53 74 ff bd 0b 71 6c bd
       0.1555469 -0.048451483 -0.12473359 -0.057724994
0003b0 33 89 0b be d0 3d 99 3c 54 0d b2 bd af 0a d9 bd
       -0.13626556 0.018706232 -0.086939484 -0.10597741
0003c0 b5 31 c4 bc 07 ce 0d 3e e8 a4 99 bc 99 0d f6 bd
       -0.023949483 0.13848124 -0.018755391 -0.12014312
0003d0 c4 b3 cf bd c6 6f 09 3e 5f 39 95 bc c5 ca 86 bd
       -0.101417094 0.13421544 -0.018215833 -0.06581644
0003e0 cc e9 67 3e be 09 12 be 0f cb 08 3e e4 2b 99 bd
       0.2264778 -0.14261529 0.1335871 -0.074790746
0003f0 37 3b b8 bc ee 9b 49 bd 32 7f 61 bd 29 25 ba 3d
       -0.022489173 -0.04922097 -0.055052944 0.09089119

lstm.bias_ih_l0 f4 [256]
000000 42 17 63 3d ee 99 00 3d 3f 85 23 3d 84 dd a7 bd
       0.055442102 0.0313968 0.039921995 -0.081965476
000010 6e d0 af bd c1 5d 43 3d 92 5e 77 bc 17 bd 17 bc
       -0.08584677 0.047696833 -0.015098231 -0.009261391
000020 0a 49 98 be b0 1e b4 bc f0 10 d3 bd 12 ec 33 3e
       -0.29743224 -0.02198729 -0.10305965 0.17570522
000030 79 0b 1e be 98 77 06 3d 1b 88 3d 3d 4c 52 a1 bd
       -0.15434064 0.032828897 0.04627238 -0.07877025
000040 44 66 f9 bd 5b 5e 80 3c 8e 09 77 bd 45 b9 32 be
       -0.12177709 0.015669992 -0.060311846 -0.17453487
000050 5f 88 96 3d 80 02 9e be a0 b5 43 be cd 32 a8 3c
       0.073502295 -0.30861282 -0.19112253 0.020532036
000060 78 cd cc 3d a1 35 34 be 18 88 63 be f6 49 16 be
       0.100001276 -0.17598583 -0.22219884 -0.14676651
000070 0c e8 24 3c f4 a7 da bb 20 00 2f 3d fd 19 45 be
       0.01006509 -0.0066728536 0.04272473 -0.19248195
000080 15 88 51 be 56 d5 bc 3c a8 ee fe 3d 2a 60 6d 3e
       -0.20462067 0.023050945 0.12447864 0.23181215
000090 8c 47 82 bd a6 81 5f 3d 5f 4f 6c bd 60 89 c4 bd
       -0.06361303 0.054567 -0.05769288 -0.09596515
0000a0 fa cc 0b be 31 4f d5 3c 52 4f 4f 3d 0e b9 cd bd
       -0.13652411 0.026038738 0.050612755 -0.10045062
0000b0 5c a7 3a be 21 be 4d bd 59 6c f0 3c 9b ef b6 bc
       -0.18227905 -0.05023015 0.02934854 -0.02233105
0000c0 13 e9 58 3e 01 7a 7e bc 46 67 1b 3c 94 c8 20 be
       0.21182661 -0.015532018 0.0094850715 -0.15701514
0000d0 d6 c1 97 3c 7d 17 4e bd 07 2f 28 3d c6 d9 6c 3d
       0.018525045 -0.05031537 0.041060474 0.057824872
0000e0 66 6a 5d 3f 94 84 28 3d 36 88 24 be 1c 8f 7e 3c
       0.86490476 0.04114206 -0.16067585 0.01553705
0000f0 22 f0 a1 3c 8c 1e 18 be ee 48 2c 3c 7e c3 82 bd
       0.019767825 -0.14855403 0.010515435 -0.063849434
000100 dd 48 c7 3d 0b 80 0c be 0f ad 7c 3d 15 c1 de bc
       0.097306944 -0.1372072 0.06168848 -0.027191678
000110 1e 72 f4 bd 47 e3 20 be d9 81 ee bd 79 b7 ff bd
       -0.119358286 -0.157117 -0.1164586 -0.124861665
000120 29 5e 08 be 5a 67 2e be 07 c2 b6 bc 3d a6 dc bd
       -0.13317169 -0.17031613 -0.022309316 -0.10773895
000130 d6 9a f7 bc 24 22 a8 bd c1 d4 44 3d 84 cf b6 bd
       -0.030225199 -0.08209637 0.04805446 -0.08926299
000140 77 c3 a4 bc 0c 66 8c bb 26 9a 08 bd aa 06 8f be
       -0.020112736 -0.004284626 -0.033350132 -0.27934772
000150 09 b4 07 3c 88 f8 87 be 98 7e 78 bd ba a3 48 bd
       0.00828267 -0.26556802 -0.060667604 -0.048984267
000160 f0 46 8d be 9d 09 9c bd 2b 92 0a be 43 ce 02 bb
       -0.27593184 -0.07619021 -0.13532321 -0.0019959367
000170 27 77 28 3d 1a 22 84 bd 34 f6 4b 3d 09 34 d0 bd
       0.041129258 -0.06451817 0.049795344 -0.10166175
000180 b7 d2 f9 bd ff 8a 96 3c 15 b8 a0 be 6b 50 ed bc
       -0.12198394 0.018376825 -0.31390443 -0.02896901
000190 f1 93 9e bd da 03 81 3d 7b ae b9 bc 3f f3 22 3e
       -0.07743061 0.06299563 -0.022666207 0.15913104
0001a0 3a 21 7a bd 78 a0 64 bd 94 df 26 3b 54 7f d2 bd
       -0.061066844 -0.055817097 0.0025462853 -0.10278192
0001b0 e3 d9 b8 3c 14 1c a6 bd 2c a4 e6 bd 43 82 79 3c
       0.022564834 -0.08110824 -0.11261782 0.015228811
0001c0 b4 f2 04 be 11 2e a8 bd b5 49 b5 3c 6c c3 1c be
       -0.12983209 -0.082119115 0.022129873 -0.15308923
0001d0 60 02 b7 bd 50 b9 1b 3d f9 a5 f6 bd 61 73 fb bc
       -0.08936 0.038018525 -0.120433755 -0.030694665
0001e0 af e9 87 3d d8 40 cc bd d7 50 5c bd 18 91 50 3d
       0.066363685 -0.099733055 -0.053788032 0.050919622
0001f0 70 8e fe bc f4 16 81 bc f3 c8 ad bc 15 cb dc bc
       -0.031073779 -0.015758015 -0.021213984 -0.026952306
000200 c6 6c cf 3d e6 b4 4d 3d b7 e1 5a bd 06 d6 ae 3d
       0.10128169 0.050221346 -0.053437915 0.085369155
000210 a2 60 58 bd 24 4f 7c 3c ed 2b 2d bb d5 3f c7 3d
       -0.05282653 0.015399728 -0.0026423887 0.09728972
000220 5d 95 d8 bd 04 92 99 3c ce 12 9a bd f1 7c 14 bd
       -0.10575364 0.018746383 -0.07523118 -0.036251966
000230 df 7b f3 3c b7 57 72 3d ef cc 5d bc d9 03 80 3d
       0.029722152 0.059165683 -0.0135376295 0.06250734
000240 ab b9 df 3c 56 5e 64 bd af b7 ac b9 e9 14 bd 3c
       0.027310213 -0.05575403 -0.0003294325 0.02308126
000250 1e 1d 1c 3d c2 08 71 3d ec 6c 49 bc 86 af ba 3d
       0.038113706 0.058846243 -0.012294035 0.0911551
000260 5e 52 6e 3d 00 32 62 bd 5e c7 1b bd 00 6f 36 bd
       0.05818402 -0.055223465 -0.03803193 -0.04453945
000270 1a 6a 2a bd 32 e8 5c bd 3b bd da 3c 95 f7 9d bd
       -0.041605093 -0.053932376 0.02670156 -0.07713238
000280 80 ee 9d bd fc fc 24 3d c3 8d 78 3d 91 f8 96 bd
       -0.07711506 0.040280327 0.06068207 -0.07371629
000290 40 33 89 3d 77 9a f8 bc ff 25 4c 3b f5 c1 84 3c
       0.06699228 -0.030347092 0.0031150577 0.016205767
0002a0 1b bf 9f bd ea 88 c2 bd 7f 05 bc 3a 0c c2 ea bd
       -0.07800122 -0.094987705 0.00143449 -0.11462793
0002b0 4c 24 8b 3d d8 9e 22 bd 7c 70 cf 3d f5 38 ab 3d
       0.067940325 -0.039702266 0.101288766 0.08360473
0002c0 92 2a b3 3d a0 ec 7e 3d 16 b2 2b 3d e8 59 02 bd
       0.08748354 0.062237382 0.041917883 -0.031824023
0002d0 81 e6 35 bd 31 3f e2 bc ae 92 22 bc c4 70 7f bd
       -0.04440928 -0.027618023 -0.0099226665 -0.0623634
0002e0 7c 48 02 bd 50 73 03 3d 6a cb bc bb 89 d1 9f 3d
       -0.031807408 0.032092392 -0.0057615535 0.078036375
0002f0 06 cf de bc 3b d6 c9 3c 94 13 89 3d c9 d3 82 bd
       -0.027198326 0.024638286 0.06693187 -0.06388051
000300 94 83 08 3e 77 c1 b5 bd d3 a6 ad bb f6 d3 1a be
       0.13331443 -0.08874791 -0.005299428 -0.15119919
000310 c2 e4 50 be 48 e8 86 3d b2 05 3e be 82 60 4e be
       -0.20399764 0.06587273 -0.1855686 -0.20154002
000320 39 79 6a be ef d6 58 bd 88 c2 5d bd d9 50 d0 3d
       -0.22897805 -0.05293935 -0.054140598 0.101716705
000330 80 bc 0b 3d 4a 45 e4 bd 6c b0 c7 bc 24 aa 88 bb
       0.034115314 -0.11146028 -0.024376117 -0.004170673
000340 9f a7 77 3c ac a4 3b be 5e ed 89 3d da f5 4c be
       0.015115648 -0.18324536 0.06734727 -0.2001566
000350 68 71 9b bd 3c 52 5b be d0 b1 1c 3d fb 50 54 bd
       -0.0758999 -0.21418089 0.038255513 -0.05183504
000360 26 96 ed 3d 74 ae 71 be d3 86 18 be 34 3c ae bd
       0.11600904 -0.23601705 -0.14895181 -0.085075766
000370 88 b6 4b be 9b 5a 9a bd bb 85 de bd 3f 87 0c be
       -0.19893849 -0.07536813 -0.10865351 -0.13723467
000380 c3 25 86 be bf fa c7 3d 64 cd 80 be 1e 0f 04 3e
       -0.26200685 0.09764623 -0.251567 0.12896392
000390 4c bd 5c bd b4 13 9b 3d 4d 3a 3f be c0 87 b2 3d
       -0.053891465 0.075721174 -0.18674584 0.087172985
0003a0 68 ba f8 bd 0a 82 f7 bd 50 e3 bd 3c c9 64 aa bd
       -0.12144929 -0.1208535 0.02317968 -0.083200045
0003b0 60 c7 61 be 7a 63 da 3c 9b e7 d6 3c 15 ff bb 3d
       -0.22048712 0.026658762 0.026233485 0.091795124
0003c0 91 af 68 be 05 3f a1 bd ed f0 3e 3d 5b 97 70 bd
       -0.22723223 -0.07873348 0.046616483 -0.058738094
0003d0 76 b0 fa bd 37 6b 7d bc 72 9c 1c be 2b c2 25 be
       -0.122406885 -0.015467457 -0.15294054 -0.1618735
0003e0 2f b3 3c 3f 95 2d fc 3c e5 97 07 3d 8b 52 21 bc
       0.7371091 0.030783454 0.033103842 -0.00984634
0003f0 d4 35 3c be 2e 90 6f 3d b2 a3 e6 bd 76 8d fe bb
       -0.18379909 0.05848711 -0.11261691 -0.0077683283

lstm.bias_hh_l0 f4 [256]
000000 a3 d2 38 3e 23 cf d8 bd d6 30 5f bd 21 f5 f2 bd
       0.18049102 -0.10586383 -0.054489933 -0.11863161
000010 90 95 ae bd cf 04 d8 3a f3 ef 05 be 13 5f cb bd
       -0.085246205 0.0016480925 -0.13079815 -0.09930243
000020 4e c1 17 be 91 db bd bd 71 cc e7 bd 3d 09 56 3e
       -0.14819834 -0.092703946 -0.11318291 0.20901962
000030 15 26 a0 3d 71 64 ca bd fe 4e a0 bd ad 50 a0 bd
       0.078197636 -0.09882439 -0.078275666 -0.07827888
000040 d0 1d 57 3c de 8c 1c 3c 98 9f b4 3d 5c 74 ce bb
       0.013129666 0.00955507 0.088195026 -0.006300492
000050 08 bc 68 3b d1 31 9b be 76 ea 14 3d c4 7e 91 3d
       0.0035512466 -0.30311444 0.036356412 0.07104257
000060 d5 f8 58 3e c6 01 4f be 79 31 3c be 5f f2 cb bd
       0.21188672 -0.2021552 -0.18378247 -0.09958338
000070 9e bb 02 bd d9 08 e7 bd cd c7 7a 3c 42 e5 36 be
       -0.031917207 -0.112809844 0.015306425 -0.17860892
000080 73 ca 6d be 4f 71 ed 3b 19 70 f3 3c 2a c8 a5 3e
       -0.2322176 0.0072461735 0.029716538 0.32379276
000090 85 d9 0f bb 4a 95 58 bd dd 7b 34 be 06 de fa 3d
       -0.002194972 -0.05287675 -0.17625375 0.12249379
0000a0 35 cc 50 be b7 81 b5 3d 08 b4 6d bc 9e 9f 45 be
       -0.20390399 0.08862632 -0.014508255 -0.1929917
0000b0 5d 4e ee bd f6 60 13 be e3 a7 8e 3d 93 4e 64 bd
       -0.1163604 -0.14392456 0.069656156 -0.055738997
0000c0 da f5 22 3d 8b 15 7c 3d a3 e6 c7 bd 5a ef 2f 3c
       0.039785244 0.061543982 -0.09760787 0.010738218
0000d0 01 aa aa 3c 93 25 34 be 7e 68 f8 bd 08 ae b1 bd
       0.020833017 -0.17592458 -0.12129305 -0.08675772
0000e0 50 8f 3f 3f bd 08 78 bd 4c 61 2d 3d 73 af 58 3d
       0.7482805 -0.06055521 0.042329118 0.052901696
0000f0 97 04 f8 bc 36 c1 26 bd 73 1d be 3d ba 08 d6 bb
       -0.030275626 -0.040711604 0.09282961 -0.006531802
000100 d4 92 81 3d 3b 24 c7 bd 3f 68 c5 bd 76 97 8d 3d
       0.06326833 -0.09723707 -0.09639024 0.069136545
000110 9b 7a 2c bd c3 b8 2a 3d 1a c8 8b 3c 56 6f 02 bd
       -0.042109113 0.04168011 0.01706319 -0.03184446
000120 27 f1 2b be 27 c2 68 bc 5f f1 b0 bd e7 88 14 be
       -0.16791211 -0.014206446 -0.08639788 -0.14505349
000130 83 09 1a ba 2c c8 5b bd c3 56 38 3d a2 a1 aa bd
       -0.0005876051 -0.053657696 0.045004617 -0.0833161
000140 81 65 8b bd 04 11 1f be 31 92 01 be 44 ae eb bd
       -0.0680647 -0.15533835 -0.12653424 -0.11507848
000150 18 eb e3 bd 8c 0a d8 be ae cc ae bd d2 d9 40 3d
       -0.11128825 -0.42195547 -0.08535133 0.04708273
000160 25 03 76 be e9 f6 52 be 4d 9a 0d be 42 23 23 bb
       -0.24024637 -0.20602001 -0.13828392 -0.0024892841
000170 06 ce 8e bd 7d bb 60 bd 8b 4f a2 3d 14 99 59 3d
       -0.069728896 -0.054866303 0.07925328 0.053124502
000180 97 93 8f bd 89 40 69 3b 28 db 88 be 59 ea f6 bd
       -0.070105724 0.0035591444 -0.26729703 -0.12056417
000190 f2 e3 88 3b a7 c9 32 bd be c6 21 bd 31 e6 23 bc
       0.004177564 -0.043649342 -0.039496176 -0.010003612
0001a0 3e 03 32 3d 83 97 49 be 92 d3 f9 bd 88 9a 2b 3d
       0.043460123 -0.19686703 -0.12198557 0.04189542
0001b0 8b bc bd 3c 67 85 b4 3d ad 9b 84 3c e5 ab 08 be
       0.023161193 0.08814507 0.016187513 -0.13346823
0001c0 a6 d9 09 be a3 51 cc bc 6e 96 18 bd c0 48 4c be
       -0.13461933 -0.024941271 -0.037252836 -0.19949627
0001d0 c6 1d b4 bb 3c 41 82 bd a1 78 85 3d 92 79 a2 3d
       -0.0054967133 -0.06360099 0.06517149 0.07933344
0001e0 3e 73 04 3e 00 8c 18 be 4a 14 28 bd d7 20 c8 bd
       0.12934586 -0.14897156 -0.041034974 -0.09771889
0001f0 cb 51 f0 3d 43 12 cf bd 35 8e 87 bd ed 4b d8 bc
       0.11734351 -0.10110905 -0.06618921 -0.026403392
000200 84 0e 9a 3d 3b 9d 13 bd 8e bd e2 3c 18 d5 65 bd
       0.075223 -0.03603862 0.027678277 -0.056111425
000210 27 90 b7 3d e9 f7 ea 3c c4 c0 4a bd 41 e2 ae bd
       0.08963042 0.028682666 -0.049500242 -0.08539248
000220 f3 1a 74 3d b7 3f f2 bc 01 cb 34 3d a9 f2 1c 3d
       0.059596013 -0.029571397 0.044138912 0.038317356
000230 b9 4b 8b 3d c6 a9 78 3d 1a d7 de bd c2 ae 2f 3d
       0.06801552 0.060708784 -0.10880871 0.04289127
000240 39 80 16 3d 69 8e b5 bd 83 8b a3 3c fc 8b 29 bd
       0.036743376 -0.08865053 0.019963985 -0.041393265
000250 95 35 f4 3c 98 c8 cd bc 70 ad c5 bc b7 f4 5b bc
       0.029810706 -0.025120065 -0.024130553 -0.013425044
000260 9c 8d 4c 3d 3f 8b 92 3d 82 79 b4 bb 22 dd b0 3c
       0.049939737 0.07155465 -0.005507649 0.02158982
000270 a4 02 92 3d 02 89 4a bd 14 1c b7 3d c6 f5 cb 3d
       0.0712941 -0.049447067 0.08940902 0.09958987
000280 10 ab 8b 3d ac bd 80 3d 1e a4 fc bd 24 d4 8f bd
       0.06819737 0.06286177 -0.1233599 -0.070228845
000290 c5 56 13 3c 61 f9 18 3e bf 5f 14 bd ba 81 5a bd
       0.008992855 0.1493888 -0.036224123 -0.053346373
0002a0 e2 6e 36 bd 37 5f 16 3d 94 1b 11 3b 8a 66 a0 3d
       -0.04453934 0.036711898 0.0022141682 0.07832058
0002b0 d3 30 33 3b 20 94 c8 3c 6e 90 91 bd 6e 40 9e bc
       0.0027342334 0.024484694 -0.07107626 -0.019317832
0002c0 9a 50 e4 bc 13 bd 1b 3d 39 d3 9a bd 2a 7c 0b 3d
       -0.027870465 0.038022112 -0.07559819 0.03405396
0002d0 1d aa d9 3c fc cc bb ba 6d 5f ae 3d a8 c7 b9 bb
       0.026570374 -0.0014328058 0.08514295 -0.005669553
0002e0 54 a5 01 3d c5 60 ae 3d 50 b7 a5 bd a2 27 52 bd
       0.03165181 0.08514551 -0.08091605 -0.051307328
0002f0 f7 27 64 3d 6e a6 4a bd 9c a5 49 3d 57 40 be 3d
       0.055702176 -0.049475126 0.049230203 0.092896156
000300 e1 b7 8b 3d fc b1 ed bd cc 2b 55 bd f4 36 1d be
       0.068221815 -0.116062135 -0.05204372 -0.15352994
000310 13 52 3c be aa 7c 5d bd be 5e 76 bc ee f3 9f bd
       -0.18390684 -0.054073967 -0.015037237 -0.07810198
000320 67 01 13 be 93 4b 36 be 21 8d 66 bd 37 43 4e 3e
       -0.14356004 -0.17802267 -0.056286935 0.20142828
000330 78 32 1a 3d e6 22 d0 bd 40 b5 54 3d 83 d8 3c be
       0.037645787 -0.10162906 0.051930666 -0.18441968
000340 98 dd 9d 3d 1c c4 07 bc d1 ea ca bc 99 35 33 bd
       0.07708281 -0.008286502 -0.024770172 -0.043752287
000350 de 60 49 bd b5 28 9b be 24 98 2a 3b 74 66 8b 39
       -0.049164645 -0.30304495 0.0026030624 0.0002658848
000360 79 e4 53 3e 36 f0 32 be 31 c4 43 be 86 d1 42 3d
       0.20692624 -0.17474446 -0.1911781 0.0475631
000370 db 38 f0 bd 8f 8f ab 3d 14 f1 a3 bc ea f3 20 be
       -0.11729594 0.08376991 -0.020012416 -0.15718046
000380 f7 f0 d3 bd 52 c3 89 bb 18 4f 1d be 8e 24 8a 3e
       -0.10348695 -0.004204192 -0.15362203 0.26981014
000390 8f 49 cf bc ba 7f 71 3d 9f 03 25 be a2 09 69 bc
       -0.02530363 0.0589597 -0.16114663 -0.014223488
0003a0 d4 61 43 be 00 21 ad bc 27 52 b0 bd 66 7a 5a be
       -0.19080287 -0.0211339 -0.08609419 -0.21335754
0003b0 cf 49 1b bd 5e ea 51 bd c6 e8 be 3d 0f 1c bc 3c
       -0.037912186 -0.0512489 0.09321742 0.022962598
0003c0 07 e2 c1 be 5d 21 b6 bb ea 29 1d be 0e e8 c1 3c
       -0.37867758 -0.0055581764 -0.1534802 0.023670223
0003d0 64 67 86 bd c0 ff 4c be 31 42 00 be c8 03 ad bd
       -0.06562689 -0.20019436 -0.1252525 -0.08447987
0003e0 a3 25 4c 3f 55 a0 e3 bd b7 66 34 3d 0e ac 9c 3c
       0.7974493 -0.11114565 0.04404327 0.01912501
0003f0 78 59 8f bc f4 9e cb bd ac 7e 11 be 4c 92 bb bc
       -0.017498717 -0.09942427 -0.14208478 -0.022896908

fc.weight f4 [1, 64]
000000 15 64 3b 3c f0 a5 d7 3d 46 b6 98 bb f0 a9 a0 bd
       0.011437436 0.10529697 -0.0046604006 -0.07844913
000010 aa 80 16 bd af c6 a4 3d f8 db 89 bd 5f 79 e1 bc
       -0.036743797 0.080457084 -0.06731409 -0.027523695
000020 d6 7b 19 bd 42 e3 9f 3d bb 0c 89 3c 5b f8 87 3e
       -0.037471615 0.07807018 0.016729703 0.26556668
000030 fd f5 aa bd 2d 7d 4d bd cd b6 2f bd f4 f7 8c 3d
       -0.083477 -0.050168205 -0.04289894 0.06883231
000040 c1 7d e4 3d ca d8 38 bd 93 ba d5 bd 41 e7 3a bd
       0.11156798 -0.04512862 -0.10435977 -0.045630697
000050 fb fa 4b bc 7e 20 53 bb 17 d6 33 3d 55 a9 8b bd
       -0.012449975 -0.0032215412 0.043905344 -0.06819407
000060 4e 2e a4 3e 28 57 1c 3c 0c 22 81 bd ba 5a b4 3d
       0.32066578 0.009542264 -0.06305322 0.08806367
000070 c4 44 b1 3d b1 39 4a 3c 86 6e 66 be b6 5c 06 bb
       0.08655694 0.012342856 -0.22503099 -0.0020502037
000080 b2 3d 1b bd f6 c0 80 bd 35 55 37 3e f8 15 81 be
       -0.037900634 -0.062868044 0.17903598 -0.25212073
000090 ca 53 0a 3c 64 ad 15 bb 78 b0 8c bd f6 15 b0 bd
       0.008442828 -0.0022838945 -0.06869596 -0.08597939
0000a0 90 65 c3 bd 67 27 8e 3d 64 6d 02 bd 99 2d 77 bd
       -0.09540856 0.06941109 -0.031842604 -0.06034622
0000b0 e3 94 7b 3d b7 b3 46 3d ad 79 bf 3d 50 a6 b9 3d
       0.061421286 0.048511233 0.0934938 0.09064925
0000c0 04 92 72 3e f9 df d8 3c 9b c4 f1 3c 62 42 ef bd
       0.23688513 0.026473986 0.029512694 -0.116825834
0000d0 12 27 bc 3b 79 34 5f 3d 07 35 df bd 5a e1 0a 3c
       0.005741962 0.0544934 -0.10898786 0.00847658
0000e0 bc 02 dd be 8b 63 bd 3d b5 35 7c 3d 20 66 86 3d
       -0.4316615 0.09247502 0.061574657 0.065624475
0000f0 18 42 a2 3d 1b df d5 bd 73 c4 65 bd 56 40 c7 bd
       0.07922763 -0.104429446 -0.05609555 -0.09729068
