output/river_level_predictor_ep70_lr0.008_lu2/model.pth (torch, 94779 bytes, 6 tensors)

linear.weight f4 [1, 2]
1.6323806 0.74957454
00000000: d9f1 d03f 1ee4 3f3f

lstm.weight_ih_l0 f4 [256, 24]
-0.085002474 -0.24896275 -0.6048652 -0.55362815 -0.48488507 0.15861043 -0.2306348 -0.43362415
-0.47226748 -0.37711525 -0.44343945 0.31197643 0.06520834 -0.4827335 -0.5224013 -0.32486185
-0.60232556 0.44610173 -0.16499193 -0.38678282 -0.6043767 -0.40700477 -0.6037996 0.3701516
-0.23263015 -1.0484525 0.3859019 0.45281723 0.4177228 -0.8368444 0.22248593 -1.0032753
0.41287294 0.39921108 0.25014773 -0.7698182 -0.5461332 -0.86849797 0.3509265 0.43885443
0.3149825 -1.0933462 -0.94166404 -0.9671955 0.39847246 0.5313037 0.2422807 -1.4106842
0.43120623 0.96344763 -0.40102217 0.08824267 -0.958239 0.31909573 0.22544767 0.96215147
-0.5343128 0.21254861 -1.007372 -0.03788881 0.25212523 0.8521524 -0.5688369 0.026062686
-0.9600064 0.12846696 0.24969417 0.8180321 -0.4179025 0.17697242 -0.9327448 -0.06564728
0.12213832 -0.015365426 -0.1141415 -0.11574335 -0.05101143 0.1179783 0.18564579 -0.05868511
-0.14874676 -0.0022083938 -0.04367877 0.24661252 0.056667663 -0.10461426 -0.116021276 -0.10428735
0.0268647 0.19601916 0.2075767 0.021083232 0.081071 -0.07969579 -0.095143 0.028504474
0.28175613 0.2572536 0.11971154 0.19629152 0.12347744 0.28543407 0.11192874 0.2670433
-0.0036032083 0.081601724 -0.035028335 0.13676338 0.25107884 0.20318542 0.14022121 0.070417196
-0.068395644 0.04093386 0.08608956 0.36929572 0.13795269 0.018718712 0.06319248 0.12816128
-0.028174227 -0.44008696 0.010035956 -0.039748054 -0.10637132 0.16389512 0.012011173 -0.22983743
-0.015264848 -0.021087514 -0.049846675 0.24062756 0.13016286 -0.47228906 0.005564836 0.038212374
-0.09227989 -0.0059537794 0.14167503 -0.44891453 0.007677286 0.0016162728 0.03940772 -0.038761478
0.14779751 -0.3156067 -0.10762151 -0.010048287 -0.03313008 0.3482539 0.16764855 -0.12462047
0.09888031 0.043549266 -0.01889698 0.30393028 0.35923582 -0.32476193 0.019931441 0.09493356
-0.16958205 0.14250128 0.4675867 -0.20175697 -0.10935099 0.045696456 -0.028457368 0.1014517
0.020857662 0.2657271 0.028874535 0.12047493 -0.08515228 0.021319823 0.13013776 0.12779483
-0.13402776 0.17871846 -0.12327456 0.09130875 -0.051985804 0.30347696 0.0049143275 0.07533506
0.06707904 0.19714884 0.029240184 0.25295466 -0.17431194 -0.043446317 -0.07617975 0.07730046
0.059503395 -0.06516789 -0.13921067 -0.0769984 -0.21106789 -0.049334213 0.07265678 -0.059687655
-0.15894268 -0.06835579 -0.172796 0.12706795 -0.023714632 -0.0076604555 0.028733768 -0.067774765
-0.0013094497 -0.122875005 0.024454497 -0.15535568 -0.17277187 -0.07606873 -0.040053673 0.002847186
-0.0041296966 0.11133779 -0.19252007 -0.22721109 -0.23296556 0.0059355907 -0.30398002 0.054907028
-0.20874701 -0.21257308 -0.08245393 0.019759795 -0.13591893 0.045631874 -0.13990194 -0.17166665
-0.15470338 0.008544115 -0.3051062 0.17735542 -0.16388886 -0.20101142 -0.19028738 0.011395814
-0.11437112 -0.2960347 0.028394751 -0.106800035 -0.12797382 0.17478637 -0.07162725 -0.40991822
-0.008207651 -0.058294285 -0.14951314 0.14492558 -0.13058873 -0.27530217 0.0019165867 -0.0962801
00000000: c715 aebd 17f0 7ebe 72d8 1abf 93ba 0dbf
00000010: db42 f8be c66a 223e 872b 6cbe fc03 debe
00000020: 0bcd f1be 4015 c1be 7f0a e3be 60bb 9f3e
00000030: f38b 853d d828 f7be 17bc 05bf 4b54 a6be
00000040: 0232 1abf 7267 e43e a5f3 28be 6608 c6be
00000050: 6eb8 1abf ee62 d0be 9c92 1abf 8384 bd3e
00000060: 9936 6ebe b133 86bf ef94 c53e a9d7 e73e
00000070: c3df d53e 6f3b 56bf 5ad3 633e 536b 80bf
00000080: 1564 d33e 6565 cc3e 5d13 803e ce12 45bf
00000090: 63cf 0bbf e255 5ebf a3ac b33e 87b1 e03e
000000a0: 6345 a13e c5f2 8bbf e510 71bf 209a 77bf
000000b0: 9504 cc3e 8503 083f 6f18 783e 4d91 b4bf
000000c0: 10c7 dc3e 81a4 763f c752 cdbe 93b8 b43d
000000d0: 274f 75bf 8460 a33e c1db 663e 8f4f 763f
000000e0: b9c8 08bf 58a6 593e 91f1 80bf 4c31 1bbd
000000f0: 8f16 813e a926 5a3f 4c9f 11bf 6a81 d53c
00000100: fbc2 75bf d88c 033e d4af 7f3e 8d6a 513f
00000110: 51f7 d5be 4238 353e 5dc8 6ebf 1572 86bd
00000120: a823 fa3d 45bf 7bbc 05c3 e9bd d90a edbd
00000130: 5cf1 50bd 9b9e f13d ee19 3e3e cc5f 70bd
00000140: 1251 18be b3ba 10bb 83e8 32bd fe87 7c3e
00000150: 5a1c 683d 0040 d6bd 909c edbd 9b94 d5bd
00000160: 5c13 dc3c 3fb9 483e fd8e 543e beb6 ac3c
00000170: 8d08 a63d 8c37 a3bd 55da c2bd 3782 e93c
00000180: 5742 903e beb6 833e 532b f53d a500 493e
00000190: bde1 fc3d 6a24 923e e53a e53d e6b9 883e
000001a0: ce23 6cbb ce1e a73d df79 0fbd b30b 0c3e
000001b0: 688d 803e d70f 503e 2696 0f3e e436 903d
000001c0: 0413 8cbd 43aa 273d b94f b03d 5414 bd3e
000001d0: 7843 0d3e fc57 993c 0f6b 813d b63c 033e
000001e0: a3cd e6bc 1453 e1be da6d 243c dbce 22bd
000001f0: 35d9 d9bd 1fd4 273e 83ca 443c 815a 6bbe
00000200: 6a19 7abc b9bf acbc 072c 4cbd 1267 763e
00000210: 6a49 053e dfcf f1be 3a59 b63b 9484 1c3d
00000220: 3dfd bcbd ec17 c3bb 4213 113e 20d8 e5be
00000230: be91 fb3b 1ed9 d33a fd69 213d 5bc4 1ebd
00000240: 3b58 173e 3497 a1be ab68 dcbd 92a1 24bc
00000250: 68b3 07bd 564e b23e 10ac 2b3e 0439 ffbd
00000260: c381 ca3d b760 323d d7cd 9abc c09c 9b3e
00000270: c2ed b73e 3247 a6be 4347 a33c 876c c23d
00000280: eba6 2dbe dbeb 113e 8667 ef3e 6199 4ebe
00000290: 69f3 dfbd 352c 3b3d 6d1f e9bc e9c5 cf3d
000002a0: b0dd aa3c 620d 883e 4a8a ec3c 8fbb f63d
000002b0: 5264 aebd e9a6 ae3c d542 053e a6dc 023e
000002c0: 933e 09be f901 373e 5f77 fcbd 1500 bb3d
000002d0: 11ef 54bd 5561 9b3e 5e08 a13b 4549 9a3d
000002e0: bc60 893d 63e1 493e 1c89 ef3c 4683 813e
000002f0: d47e 32be c4f4 31bd 2104 9cbd b44f 9e3d
00000300: d5b9 733d be76 85bd 3e8d 0ebe 56b1 9dbd
00000310: 2e22 58be ac12 4abd 14cd 943d 0b7b 74bd
00000320: dfc1 22be 1ffe 8bbd 6ff1 30be 1a1e 023e
00000330: 3045 c2bc 8f04 fbbb 1463 eb3c 7fcd 8abd
00000340: d7a1 abba e4a5 fbbd cc54 c83c 8f15 1fbe
00000350: 1ceb 30be ecc9 9bbd 520f 24bd db97 3a3b
00000360: 6852 87bb 1105 e43d fb23 45be 06aa 68be
00000370: 868e 6ebe 587f c23b 45a3 9bbe 31e6 603d
00000380: c7c1 55be c2ac 59be 9bdd a8bd 4bdf a13c
00000390: 552e 0bbe 7de8 3a3d 7442 0fbe 62c9 2fbe
000003a0: 906a 1ebe 9efc 0b3c e136 9cbe a99c 353e
000003b0: 7bd2 27be f0d5 4dbe b2da 42be 82b5 3a3c
000003c0: 683b eabd dc91 97be 1c9c e83c fab9 dabd
000003d0: 920b 03be 33fb 323e 4fb1 92bd cde0 d1be
000003e0: 6279 06bc fdc5 6ebd f919 19be 5f67 143e
000003f0: 0db9 05be 68f4 8cbe fa35 fb3a 802e c5bd

lstm.weight_hh_l0 f4 [256, 64]
0.16376442 0.14015776 -0.18330649 -0.020423757 0.19425201 0.115578 0.20792203 0.27062586
-0.0048759184 0.03095391 -0.13025577 0.042594407 -0.1793346 0.1862213 -0.13985565 0.10605447
-0.056764398 -0.008360124 -0.08430388 -0.10702125 -0.062507056 0.038495876 0.40654725 0.1388784
-0.1166098 -0.0094487425 -0.006087872 0.04016791 -0.115476444 -0.08501011 0.06856701 0.1737541
0.040358197 -0.16156818 0.24012977 0.15773886 -0.21989986 0.22429568 -0.048152495 -0.10603595
-0.21225983 -0.055105973 -0.038336094 -0.016318634 0.25168875 -0.122731805 -0.04648621 -0.12276316
-0.57311875 -0.16334897 -0.018702384 -0.16149646 0.09178425 -0.2061526 0.1061526 -0.06432367
-0.05707624 0.021739038 -0.18901566 -0.08093988 0.11972446 0.06615853 -0.18452045 0.0116526475
0.28792387 -0.3251801 0.6213365 0.60529083 0.1292362 -0.74912006 -1.0251447 -1.0513718
-0.19185565 -0.11512076 0.19072439 1.1479499 0.47389412 -0.9019705 0.12420922 0.7192084
0.17624147 0.8628147 -1.0042517 -0.80279666 -0.0280538 -1.6878614 -1.8917847 -1.5138305
0.11766273 0.48051873 -0.6890661 0.3395313 -0.055625178 0.07699634 -1.276714 0.7225854
0.3683675 0.0740565 -0.7861984 0.33480003 0.41817304 -0.6286037 -0.087662876 0.72066474
-0.26065016 0.63244474 0.81493163 2.4887476 0.016790917 -0.42193013 0.27630284 -0.5970354
1.307624 0.21432395 0.41383845 -0.1022819 0.29741126 -0.417311 0.8168984 0.009028059
0.18294916 0.75596106 0.3578907 -0.6859628 -1.0932775 0.09078233 0.31237245 -0.51670015
-0.037864015 -0.0073240018 0.19810349 -0.2048786 -0.28982952 0.09599282 0.1946513 0.11044771
-0.39232126 -0.0557474 -0.12483819 0.07714398 -0.28432342 0.12419353 -0.29436216 0.40313092
-0.10000894 0.41480523 -0.45612067 0.042957917 -0.14382628 0.33696705 -0.3423248 -0.5467096
0.1523108 0.110796735 0.2544516 0.18194589 0.030479454 0.009558946 0.16574836 0.07500097
0.081654266 0.12860684 0.099913724 0.170538 0.05273762 -0.090769134 -0.033362858 -0.1449916
-0.14065203 0.4397932 -0.24454768 -0.2172607 0.14359562 0.1022916 -0.04648737 -0.47519377
0.075878784 -0.054103084 0.01324253 0.032349344 0.26142326 -0.06202689 0.20928475 -0.05103034
-0.045516998 -0.2695203 -0.025266685 0.10213019 -0.39828703 -0.15025775 -0.25069132 -0.10924298
-0.12503833 0.10278991 0.43311754 0.0014989455 -0.107132494 0.14683087 0.29670146 0.13443337
-0.07239544 -0.17019315 -0.082595594 0.20777008 -0.16939828 0.065752886 -0.077424936 0.10372887
0.050770085 0.07887118 -0.13559167 0.1058274 -0.12177069 -0.074262284 0.057926044 0.03267885
0.081458606 -0.019827353 0.12417137 0.0017264296 0.1926029 0.13114074 0.101747595 0.053585716
0.12688492 0.17228776 -0.027058642 -0.12236548 0.08100656 0.023908062 0.07495953 0.036398634
-0.10937617 0.111053534 -0.14045604 0.070111066 -0.13482456 0.055873934 -0.026186058 0.0029287054
-0.020103248 0.060180184 0.13090718 -0.20255585 0.082139716 0.23497866 -0.013239538 0.043606296
-0.06134337 -0.1712937 -0.053758368 0.17842995 -0.14504875 -0.038780306 -0.015243887 -0.089219645
00000000: dcb1 273e 8485 0f3e b2b4 3bbe b94f a7bc
00000010: 00ea 463e 29b4 ec3d 83e9 543e 798f 8a3e
00000020: 2bc6 9fbb 0e93 fd3c c561 05be 7977 2e3d
00000030: 7da3 37be ccb0 3e3e 5236 0fbe 1633 d93d
00000040: c981 68bd e7f8 08bc 83a7 acbd f52d dbbd
00000050: b303 80bd daad 1d3d f626 d03e 2436 0e3e
00000060: 1ed1 eebd e6ce 1abc c67c c7bb 1b87 243d
00000070: ea7e ecbd c819 aebd dc6c 8c3d 98ec 313e
00000080: a34e 253d 2172 25be 94e4 753e 4c86 213e
00000090: 6e2d 61be c4ad 653e 8d3b 45bd 6029 d9bd
000000a0: a45a 59be cdb6 61bd 4f06 1dbd a8ae 85bc
000000b0: 59dd 803e d05a fbbd 5368 3ebd 406b fbbd
000000c0: e9b7 12bf f444 27be be35 99bc 545f 25be
000000d0: 62f9 bb3d ab19 53be 8966 d93d 21bc 83bd
000000e0: c7c8 69bd 1116 b23c 528d 41be cfc3 a5bd
000000f0: 1932 f53d 207e 873d eef2 3cbe bfea 3e3c
00000100: c26a 933e 027e a6be e90f 1f3f 57f4 1a3f
00000110: 7f56 043e 55c6 3fbf f137 83bf 5a93 86bf
00000120: cf75 44be 6fc4 ebbd 414d 433e 06f0 923f
00000130: 40a2 f23e 8ae7 66bf 6761 fe3d 0b1e 383f
00000140: a578 343e 6de1 5c3f 528b 80bf 1584 4dbf
00000150: 15d1 e5bc d80b d8bf 0026 f2bf 33c5 c1bf
00000160: 28f9 f03d 8d06 f63e a366 30bf 0cd7 ad3e
00000170: 3ad7 63bd 42b0 9d3d 5d6b a3bf 5bfb 383f
00000180: aa9a bc3e efaa 973d 4c44 49bf e96a ab3e
00000190: c71a d63e 2cec 20bf 9888 b3bd 7c7d 383f
000001a0: f073 85be e6e7 213f 5c9f 503f a447 1f40
000001b0: 1b8d 893c 3a07 d8be 9177 8d3e 50d7 18bf
000001c0: 3960 a73f bd77 5b3e a2e2 d33e 2c79 d1bd
000001d0: 4a46 983e caa9 d5be 4120 513f 6dea 133c
000001e0: 0657 3b3e aa86 413f 733d b73e 429b 2fbf
000001f0: 84f0 8bbf 16ec b93d 48ef 9f3e 7646 04bf
00000200: 4c17 1bbd 2efe efbb a4db 4a3e b2cb 51be
00000210: 8964 94be e297 c43d ac52 473e 6932 e23d
00000220: 55de c8be 6357 64bd 2aab ffbd aafd 9d3d
00000230: d792 91be 2d59 fe3d a3b6 96be 2d67 ce3e
00000240: 7dd1 ccbd 5a61 d43e a688 e9be a4f4 2f3d
00000250: 3247 13be f286 ac3e 3245 afbe 29f5 0bbf
00000260: 5df7 1b3e 66e9 e23d 7b47 823e 0650 3a3e
00000270: 0cb0 f93c 209d 1c3c f0b9 293e 1c9a 993d
00000280: 5a3a a73d 83b1 033e 919f cc3d 83a1 2e3e
00000290: 6703 583d 2be5 b9bd 7ea7 08bd ae78 14be
000002a0: 1607 10be 932c e13e b56a 7abe 9779 5ebe
000002b0: bb0a 133e 427e d13d 8a69 3ebd 994c f3be
000002c0: 5666 9b3d 329b 5dbd 32f7 583c bf80 043d
000002d0: 45d9 853e e90f 7ebd be4e 563e 3105 51bd
000002e0: 0870 3abd 91fe 89be 14fc cebc a229 d13d
000002f0: 47ec cbbe 2bdd 19be 9d5a 80be c9ba dfbd
00000300: 0c0a 00be 8483 d23d 95c1 dd3e 4478 c43a
00000310: 4868 dbbd d55a 163e 41e9 973e e7a8 093e
00000320: 0f44 94bd 1d47 2ebe e127 a9bd aec1 543e
00000330: be76 2dbe 73a9 863d f790 9ebd cd6f d43d
00000340: 4bf4 4f3d 3787 a13d 8bd8 0abe 09bc d83d
00000350: e962 f9bd d316 98bd dc43 6d3d 42da 053d
00000360: c5d3 a63d f96c a2bc 8f4d fe3d 5d49 e23a
00000370: b239 453e c249 063e 0b61 d03d b27c 5b3d
00000380: 1fee 013e 346c 303e 16aa ddbc c19a fabd
00000390: c4e6 a53d d7da c33c 6284 993d bc16 153d
000003a0: 9d00 e0bd 0970 e33d b5d3 0fbe 6496 8f3d
000003b0: 730f 0abe 11dc 643d 2584 d6bc 86ef 3f3b
000003c0: 91af a4bc 7f7f 763d 880c 063e cd6a 4fbe
000003d0: de38 a83d 3f9e 703e a6ea 58bc 849c 323d
000003e0: 2f43 7bbd 9e67 2fbe bc31 5cbd 57b6 363e
000003f0: a987 14be 19d8 1ebd 7fc1 79bc cab8 b6bd

lstm.bias_ih_l0 f4 [256]
-0.15460756 0.46863744 -0.19632566 -0.09125211 -0.015277037 -0.19635169 -0.20293367 -0.01523147
-0.09325655 -0.33729553 -0.02188728 -0.11188374 -0.17238167 -0.22376065 -0.13584991 -0.3020721
-0.18351287 -0.06521636 -0.058880933 -0.09674888 -0.03625067 0.5262138 0.14328472 -0.3255713
-0.1431646 -0.16634282 -0.016599951 0.015498807 -0.23445646 -0.11620476 -0.20908627 -0.070988856
-0.16257326 -0.09941306 -0.05875983 -0.41417816 -0.15145352 -0.23536988 -0.12035283 -0.20965475
0.025190515 -0.18620212 -0.04054649 0.23190418 -0.32758936 -0.16076937 -0.15653431 -0.5780485
-0.16529301 0.039946545 -0.009068243 -0.16702802 -0.18043596 -0.2111249 -0.18190727 -0.21843871
-0.05731342 0.03354199 -0.01912567 -0.21116047 0.056951594 -0.2882583 0.051200833 -0.13957396
-0.32791093 -0.44827977 0.058141336 -0.025375146 -0.08191574 0.057066713 -0.047385015 0.06317916
0.10313118 -0.095096335 -0.10195221 -0.2886308 0.05921728 0.034341402 -0.08505935 -0.11353704
-0.07138138 -0.034860544 0.042400006 0.058253612 0.02206471 -0.43774182 0.060545515 -0.06316755
-0.07619548 0.03657887 0.031203955 -0.11568221 -0.3176902 0.069177926 -0.08377742 -0.054255877
0.015223498 -0.5070102 -0.10295899 -0.30036837 -0.016000485 -0.21263616 0.071643025 0.046215028
-0.11906241 -0.43218386 0.07056345 -0.38317633 -0.045538753 0.04008461 -0.032964464 -0.4151974
-0.19189297 -0.021437217 -0.0076980833 -0.24418493 -0.061551787 -0.08648295 -0.15829 -0.21237761
-0.12684532 -0.031843092 0.03531994 -0.044373214 -0.013566545 -0.1796306 -0.100808814 -0.069190346
-0.054033324 0.023034662 -0.03411409 -0.040524982 -0.0051887436 -0.06222226 -0.050206397 0.117070675
-0.025482692 -0.0376225 0.021603776 0.027900571 0.04036216 -0.06619009 -0.087351516 -0.08510553
0.029073026 3.653232e-05 -0.075270966 0.062367864 0.092305936 0.035598006 -0.0737359 0.13497262
0.02966991 0.026843356 -0.067520134 0.014295923 -0.07051621 -0.083094366 0.033178415 -0.11770492
-0.01968359 -0.121133566 0.0612865 0.04529538 0.0675245 0.02317691 0.0026632505 0.119853824
0.03876906 -0.007723556 -0.007574498 0.013341102 0.03327031 0.0009890023 0.056315515 0.15020175
-0.09273798 0.059125073 0.018939832 -0.032658443 0.075366564 0.047708023 -0.055942908 -0.14463077
0.0023412644 -0.035616934 0.07108793 -0.035356525 0.16828784 0.12546408 -0.0597829 0.0136838
-0.32416794 0.43298197 -0.1851299 -0.1167426 -0.05336539 -0.21230225 -0.03200237 0.01834682
-0.14554423 -0.39195037 0.041157722 -0.04013347 -0.14630233 -0.14042254 -0.3086804 -0.36182252
-0.11819845 -0.026315648 -0.1844176 -0.17216155 -0.0027564599 0.58367425 0.12121254 -0.1408933
0.028822657 -0.0008473464 0.0099917855 0.033433564 -0.05941618 -0.09690058 0.030600209 -0.040878017
-0.19366415 -0.2260813 -0.059260003 -0.28021356 -0.044166364 -0.39322641 -0.11010488 -0.03021504
-0.14692888 -0.11440254 -0.1775405 0.35338864 -0.37047473 -0.037196457 -0.0948679 -0.36956134
-0.19575538 0.028933521 -0.09104516 -0.25773796 -0.25766262 -0.21418135 -0.29337844 -0.31702676
0.06960665 -0.060135428 -0.06486727 -0.047451776 0.11484234 -0.17790677 0.015369864 -0.11669655
00000000: 7251 1ebe 3ff1 ef3e 9809 49be 63e2 babd
00000010: 8a4c 7abc 6b10 49be d8cd 4fbe 6a8d 79bc
00000020: 4afd bebd 00b2 acbe f44c b3bc 4d23 e5bd
00000030: d284 30be 8321 65be 3d1c 0bbe 32a9 9abe
00000040: ccea 3bbe 2890 85bd 222d 71bd 4724 c6bd
00000050: 957b 14bd f3b5 063f 3bb9 123e 48b1 a6be
00000060: be99 12be c655 2abe 9ffc 87bc b5ee 7d3c
00000070: 5b15 70be c3fc edbd b61a 56be 9b62 91bd
00000080: 9b79 26be 1399 cbbd 26ae 70bd 290f d4be
00000090: a216 1bbe cd04 71be 8b7b f6bd bcaf 56be
000000a0: 575c ce3c c5ab 3ebe 1414 26bd 4a78 6d3e
000000b0: cbb9 a7be baa0 24be 884a 20be fdfa 13bf
000000c0: 9242 29be fd9e 233d f892 14bc 6509 2bbe
000000d0: 34c4 38be 2031 58be e645 3abe 66ae 5fbe
000000e0: 7ac1 6abd 5363 093d 70ad 9cbc 733a 58be
000000f0: 1346 693d 9896 93be f7b7 513d 7aec 0ebe
00000100: f1e3 a7be ed84 e5be 9c25 6e3d 8adf cfbc
00000110: 71c3 a7bd c9be 693d ca16 42bd 1364 813d
00000120: 7136 d33d dec1 c2bd 52cc d0bd 6bc7 93be
00000130: d28d 723d 92a9 0c3d 9933 aebd 1c86 e8bd
00000140: 6730 92bd eec9 0ebd a1ab 2d3d 579b 6e3d
00000150: 0dc1 b43c b21f e0be 93fe 773d fd5d 81bd
00000160: 600c 9cbd bad3 153d 709f ff3c cbea ecbd
00000170: 4aa8 a2be 28ad 8d3d 7f93 abbd 693b 5ebd
00000180: fb6b 793c 6ccb 01bf 2adc d2bd e2c9 99be
00000190: 7313 83bc 4bbd 59be 94b9 923d f84b 3d3d
000001a0: fed6 f3bd 3447 ddbe 9283 903d b02f c4be
000001b0: d886 3abd c32f 243d bf05 07bd c194 d4be
000001c0: 977f 44be 1a9d afbc 3440 fcbb 9d0b 7abe
000001d0: ba1d 7cbd f91d b1bd c616 22be 8479 59be
000001e0: bde3 01be e76d 02bd a4ab 103d b0c0 35bd
000001f0: 3746 5ebc 16f1 37be da74 cebd abb3 8dbd
00000200: 0c52 5dbd 30b3 bc3c 37bb 0bbd 86fd 25bd
00000210: 5606 aabb c5dc 7ebd 39a5 4dbd c0c2 ef3d
00000220: 14c1 d0bc 0d1a 1abd 67fa b03c bd8f e43c
00000230: cb52 253d ab8e 87bd 5ae5 b2bd cf4b aebd
00000240: 8e2a ee3c 483a 1938 aa27 9abd 7275 7f3d
00000250: e50a bd3d 37cf 113d d902 97bd 4336 0a3e
00000260: 500e f33c 99e6 db3c ff47 8abd 7239 6a3c
00000270: cd6a 90bd 612d aabd 17e6 073d 470f f1bd
00000280: 7b3f a1bc e014 f8bd 8e07 7b3d a687 393d
00000290: 494a 8a3d 81dd bd3c ee89 2e3b ec75 f53d
000002a0: 4ecc 1e3d e215 fdbb 7f33 f8bb a394 5a3c
000002b0: 7346 083d 69a1 813a 19ab 663d 7dce 193e
000002c0: 69ed bdbd 222d 723d b527 9b3c dcc4 05bd
000002d0: c959 9a3d 7d69 433d 6424 65bd 171a 14be
000002e0: e66f 193b 10e3 11bd 8c96 913d 01d2 10bd
000002f0: a653 2c3e a879 003e eade 74bd 0432 603c
00000300: 57f9 a5be d0af dd3e b192 3dbe bf16 efbd
00000310: ab95 5abd c365 59be eb14 03bd 124c 963c
00000320: 8c09 15be b8ad c8be 0095 283d fe62 24bd
00000330: 47d0 15be edca 0fbe 5b0b 9ebe cd40 b9be
00000340: 0712 f2bd ea93 d7bc f8d7 3cbe 1e4b 30be
00000350: b9a5 34bb ad6b 153f 483e f83d 5546 10be
00000360: 7e1d ec3c 7420 5eba 96b4 233c a2f1 083d
00000370: 615e 73bd d073 c6bd 4aad fa3c b56f 27bd
00000380: e54f 46be db81 67be 9eba 72bd 2778 8fbe
00000390: cae7 34bd f954 c9be ab7e e1bd 8885 f7bc
000003a0: 8674 16be e14b eabd 2dcd 35be 5bef b43e
000003b0: ddae bdbe 505b 18bd 1a4a c2bd 2537 bdbe
000003c0: 1974 48be fe05 ed3c e375 babd 3bf6 83be
000003d0: 5bec 83be 5b52 5bbe b335 96be 5551 a2be
000003e0: ee8d 8e3d 9150 76bd 22d9 84bd cb5c 42bd
000003f0: 7632 eb3d 312d 36be e2d1 7b3c 9afe eebd

lstm.bias_hh_l0 f4 [256]
-0.28337818 0.65184337 -0.32846302 -0.12423732 0.0033572789 -0.22131671 -0.15637559 -0.12330927
-0.20224439 -0.23153539 -0.116983175 -0.12700869 -0.15335406 -0.20715111 -0.2778311 -0.2825877
-0.10750518 -0.063950375 0.039941467 -0.17252013 -0.17932197 0.33884728 0.16521262 -0.2171734
0.03392513 -0.07837093 -0.16132909 -0.07474819 -0.12408495 -0.16924533 -0.1020037 -0.031811725
-0.350236 -0.23254329 -0.16257015 -0.32112688 -0.15651667 -0.3817524 -0.08953888 -0.11566018
0.012067278 -0.22352968 -0.06580794 0.2564498 -0.24162039 -0.101412505 -0.13228048 -0.51729095
-0.08238673 0.0076685976 -0.068581834 -0.24836208 -0.09703314 -0.17069656 -0.117642716 -0.1634195
-0.15768994 0.03418725 -0.019611856 -0.187281 0.071930334 -0.25860855 -0.08937715 -0.0027347454
-0.24763046 -0.35318437 0.014937792 0.033448614 0.047709554 -0.10290049 -0.021778636 0.06147527
-0.01875963 -0.11577797 0.03499357 -0.2571453 -0.018535644 -0.042795956 0.022388568 -0.10942802
-0.04623569 0.038655926 0.06414143 -0.09032409 0.112578675 -0.39846274 0.057223227 -0.2207209
-0.07081029 -0.031569753 0.012599147 0.12051217 -0.1526798 0.10250606 0.030530388 0.12193731
0.03862561 -0.40267068 0.008414283 -0.3184259 -0.090132676 -0.15626624 0.08422011 -0.042913593
0.044013727 -0.39367086 0.00042905175 -0.15645857 -0.12433624 -0.04534044 -0.02795431 -0.26857746
-0.39320096 -0.049754504 -0.03353885 -0.25344047 0.01144309 -0.076238886 -0.045081664 -0.13817024
0.026817057 0.02833334 0.04615155 -0.08381073 0.0012004209 -0.074471354 -0.114484206 0.11370131
0.069368176 -0.091577254 -0.047325615 0.06690212 -0.04206853 -0.0031258236 0.022047099 -0.014709437
0.09013683 -0.000837945 0.071702965 -0.03770594 -0.05730291 -0.043372974 -0.015758617 0.10586509
-0.025283858 0.010101887 0.089741975 -0.13766757 0.084663086 -0.0023455808 0.00992331 0.17915523
0.008662269 -0.024197197 -0.0076947 -0.0612839 0.061626192 0.043182846 0.0044428604 0.03259776
-0.07756805 0.039824314 0.022579063 -0.011808025 -0.044078544 0.07365387 0.023949478 -0.11349176
-0.039446793 -0.01645887 0.04278679 -0.02340414 -0.010938 0.10077876 -0.002779312 -0.024644637
-0.03542408 0.040805466 -0.0024382686 0.08070281 0.009002873 -0.06316536 -0.020508116 0.06414921
-0.0066818027 0.056502648 -0.053497568 0.007853131 -0.018969458 -0.10166605 0.09577409 -0.062251016
-0.2501127 0.55696553 -0.2513492 -0.012312376 -0.13973173 -0.118384324 -0.079984665 0.09238312
-0.13057984 -0.376163 -0.06839917 -0.08350578 -0.13098 -0.087846264 -0.23548602 -0.43247637
-0.18568636 -0.17316274 -0.018445408 -0.103593856 -0.13836549 0.459668 0.20127553 -0.14893089
-0.020064851 -0.015102916 -0.104059085 -0.20750527 -0.2348166 -0.0723788 -0.18466294 -0.076913975
-0.21496914 -0.3372234 -0.12137736 -0.45258477 0.06369591 -0.23019177 -0.099091 -0.011762316
-0.02109937 -0.22093779 0.021963816 0.20317125 -0.21727344 -0.06123244 0.006395266 -0.5592224
-0.20615105 0.031168154 -0.123789944 -0.13404475 -0.20460166 -0.3203599 -0.12624054 -0.19184765
0.0011515986 0.0048052007 -0.02009034 -0.110109955 0.14340238 -0.10748718 -0.015551364 0.023886532
00000000: f216 91be 35df 263f 4e2c a8be 2370 febd
00000010: cb05 5c3b d9a0 62be ec20 20be 9289 fcbd
00000020: 2719 4fbe 9d17 6dbe e094 efbd 910e 02be
00000030: d908 1dbe 6c1f 54be e13f 8ebe 56af 90be
00000040: ad2b dcbd 6af8 82bd aa99 233d 1ea9 30be
00000050: 2ea0 37be 647d ad3e 7f2d 293e b462 5ebe
00000060: 14f5 0a3d f080 a0bd 7433 25be 9415 99bd
00000070: 4020 febd a64e 2dbe 51e7 d0bd 034d 02bd
00000080: 2252 b3be d41f 6ebe ca78 26be be6a a4be
00000090: e845 20be 0d75 c3be 2960 b7bd 3fdf ecbd
000000a0: d5b5 453c f7e4 64be 50c6 86bd 634d 833e
000000b0: 566b 77be 5cb1 cfbd 8974 07be 2e6d 04bf
000000c0: 60ba a8bd dc48 fb3b a274 8cbd a152 7ebe
000000d0: 50b9 c6bd 14cb 2ebe aaee f0bd 7157 27be
000000e0: 7979 21be ee07 0c3d 0ba9 a0bc 97c6 3fbe
000000f0: 3650 933d 5768 84be 5e0b b7bd 6a39 33bb
00000100: d792 7dbe 95d4 b4be a4bd 743c 6a01 093d
00000110: 186b 433d 7ebd d2bd 1c69 b2bc 7ecd 7b3d
00000120: ccad 99bc 001d edbd 6b55 0f3d 8ca8 83be
00000130: 10d8 97bc d04a 2fbd 3b68 b73c cc1b e0bd
00000140: a361 3dbd ad55 1e3d 955c 833d d6fb b8bd
00000150: a68f e63d 4f03 ccbe e762 6a3d a904 62be
00000160: fc04 91bd 494f 01bd a76c 4e3c 16cf f63d
00000170: 1858 1cbe b2ee d13d dd1a fa3c 45ba f93d
00000180: e335 1e3d da2a cebe 10dc 093c b808 a3be
00000190: 7b97 b8bd 4204 20be 987b ac3d 2ac6 2fbd
000001a0: bd47 343d 3a8f c9be 5af2 e039 ad36 20be
000001b0: 00a4 febd e6b6 39bd 7000 e5bc fc82 89be
000001c0: a351 c9be 61cb 4bbd 0860 09bd f3c2 81be
000001d0: cc7b 3b3c 2223 9cbd 8da7 38bd 807c 0dbe
000001e0: 72af db3c 521b e83c 6809 3d3d f6a4 abbd
000001f0: 7157 9d3a 7084 98bd b276 eabd 3bdc e83d
00000200: e710 8e3d db8c bbbd 81d8 41bd fb03 893d
00000210: 0d50 2cbd 9eda 4cbb 1e9c b43c daff 70bc
00000220: a999 b83d 89a9 5bba 01d9 923d 8b71 1abd
00000230: 75b6 6abd dca7 31bd 3718 81bc cccf d83d
00000240: 1820 cfbc 6382 253c a4ca b73d baf8 0cbe
00000250: d763 ad3d 51b8 19bb 6195 223c 7874 373e
00000260: 31ec 0d3c 3339 c6bc d223 fcbb d404 7bbd
00000270: bf6b 7c3d 7fe0 303d 6a95 913b 3b85 053d
00000280: ffdb 9ebd d21e 233d baf7 b83c 7276 41bc
00000290: b48b 34bd d7d7 963d b231 c43c 5e6e e8bd
000002a0: f692 21bd c1d4 86bc 3341 2f3d 0aba bfbc
000002b0: 4c35 33bc 1865 ce3d 1e25 36bb 8de3 c9bc
000002c0: d718 11bd a223 273d 5ccb 1fbb 8447 a53d
000002d0: c980 133c d75c 81bd a300 a8bc a960 833d
000002e0: 06f3 dabb 526f 673d 4420 5bbd 6baa 003c
000002f0: d665 9bbc 4a36 d0bd 3525 c43d ecfa 7ebd
00000300: c60e 80be 4b95 0e3f d8b0 80be d9b9 49bc
00000310: d615 0fbe 7b73 f2bd 00cf a3bd 5c33 bd3d
00000320: b9b6 05be 7098 c0be dd14 8cbd 1405 abbd
00000330: 9f1f 06be bee8 b3bd 3f23 71be 8b6d ddbe
00000340: 9124 3ebe 9351 31be d31a 97bc 0429 d4bd
00000350: afaf 0dbe 9b59 eb3e 2c1b 4e3e 5781 18be
00000360: 0b5f a4bc 3972 77bc ee1c d5bd 437c 54be
00000370: c373 70be 563b 94bd 4818 3dbe 1385 9dbd
00000380: df20 5cbe 8ca8 acbe b194 f8bd 31b9 e7be
00000390: 0073 823d 64b7 6bbe 39f0 cabd bbb6 40bc
000003a0: 96d8 acbc 843d 62be 76ed b33c 200c 503e
000003b0: ee7c 5ebe dece 7abd 618f d13b 3329 0fbf
000003c0: 4319 53be 5b54 ff3c 9585 fdbd 0743 09be
000003d0: 1983 51be 3606 a4be 3345 01be b673 44be
000003e0: 3df1 963a f274 9d3b 7f94 a4bc 5481 e1bd
000003f0: 13d8 123e 3d22 dcbd 26cb 7ebc b0ad c33c

fc.weight f4 [1, 64]
0.08152305 0.30310827 0.0063227024 0.06849922 0.17360419 -0.04965319 -0.10827897 0.0057913335
0.0541285 0.033377685 -0.102612264 0.1194789 0.05157086 -0.05973965 0.06481074 -0.02375041
0.06564642 -0.0493122 0.08653042 -0.02810349 0.03150082 0.5436009 -0.15111244 0.035771504
-0.09715529 -0.06471832 -0.06748663 -0.10373737 0.08443057 -0.07705047 -0.14033289 -0.056707323
-0.026986662 0.014974634 0.010843754 0.006160177 -0.07749559 -0.043360956 -0.08698917 0.067220174
0.10963087 0.008458217 0.08399926 -0.3378198 -0.053824965 -0.26486903 -0.023826586 0.017500944
0.16756463 -0.058612105 -0.057174437 -0.06259148 -0.09112573 -0.115346976 0.012030188 -0.022598512
0.11324948 0.12876855 -0.04030287 -0.14207894 0.11769813 0.040159155 -0.032613337 0.09058253
00000000: 8ff5 a63d 0231 9b3e ac2e cf3b 5249 8c3d
00000010: 4cc5 313e 2561 4bbd 5dc1 ddbd 3ac5 bd3b
00000020: d9b5 5d3d 0ab7 083d 6126 d2bd 5bb1 f43d
00000030: f73b 533d 90b1 74bd 7ebb 843d 3890 c2bc
00000040: a171 863d 97fb 49bd dc36 b13d 4a39 e6bc
00000050: 0107 013d 6e29 0b3f 38bd 1abe 2485 123d
00000060: 5af9 c6bd 0a8b 84bd 6e36 8abd 4274 d4bd
00000070: efe9 ac3d a3cc 9dbd 6db3 0fbe f045 68bd
00000080: 2213 ddbc 2b58 753c 00aa 313c 4fdb c93b
00000090: 02b6 9ebd 429b 31bd 6127 b2bd bbaa 893d
000000a0: 2686 e03d 5594 0a3c ce07 ac3d b8f6 acbe
000000b0: 9177 5cbd ea9c 87be f92f c3bc 245e 8f3c
000000c0: 1096 2b3e 3f13 70bd be2f 6abd f62f 80bd
000000d0: 20a0 babd 093b ecbd 441a 453c 8420 b9bc
000000e0: 58ef e73d e7db 033e 9f14 25bd 247d 11be
000000f0: b80b f13d ed7d 243d 9095 05bd 5583 b93d
