trained_model.pt (torch, 8971 bytes, 8 tensors)

weight_ih_l0 f4 [40, 6]
00000000: 3636 f33e 739b af3e 86be 403f 37e4 9e3e
00000010: c9fe c5bd 41cc 943e 1732 513e 5f18 9f3e
00000020: e6f6 213f 9a61 093e bde2 7f3e a60a 60be
00000030: 1bd3 313f f114 c73e 06a7 1c3f 0ea6 22bc
00000040: 89e9 583e 3ec5 f03e 0c57 5d3e b75a 883d
00000050: aa96 d13e e40c 6abe e631 18be 69fe 2abe
00000060: e47a 883e a443 2bbd b020 1a3f 2a14 ee3d
00000070: 16cd ba3e 173d 943e 0d49 79be c871 ab3d
00000080: 0641 b0be 7b94 29bc eaf5 6f3e 9de0 77be
00000090: d9b6 643f 4ddc 893e 58d9 2f3f ade9 1b3f
000000a0: d99f 453f d0ab 283f b710 903e 4fbb b03e
000000b0: 2a64 103f 364f 3c3e 5443 00bd 5575 993a
000000c0: 0974 743e 532f 533c 645e b43d 8d0a 243e
000000d0: 61f7 693e 5425 65be 81eb 183f 0575 653f
000000e0: d6d9 173f 46de 1bbe 59c7 453e 8a38 a0bd
000000f0: e34a 703f e4ea 0c3f 0aa5 643f d378 a3bd
00000100: 47ec b73d 195e cfbd ac36 2d3f 855a 013d
00000110: d8fb 043f 1aff 22be d965 4e3d 1772 e0be
00000120: b553 3a3e 90db db3e 37f0 813f 4e34 b83d
00000130: 6e43 aa3e be67 a5be 74b5 f63e 13e2 a33e
00000140: 67b4 a5be 8495 183e d696 9b3e a1fc 20bd
00000150: 6e9c d33b 7408 6e3e 7b13 21be 44f6 293e
00000160: 2b1e 16bd ac3e 543e ed26 a7be c58a 9c3d
00000170: 6175 c3be c819 03be 3373 b43d bae7 ca3c
00000180: 25bd 6c3e 4da1 013f 866e 743e 7ef5 acbe
00000190: 6841 06be 97fd 90be b178 013f 8dbb 6b3e
000001a0: 3009 283e db30 1a3e 0c40 58be bca1 da3c
000001b0: 83db 043f 359b 353e 2259 303e dd46 f93d
000001c0: 5dd2 1c3e 3f4d acbe dfa3 323f a705 0e3f
000001d0: 21e4 e83e aecb 9bbe 99d8 b53e aa21 7abe
000001e0: 5685 123f 34cd bd3e 1ac5 623e 7ff0 f83d
000001f0: 13cb 1dbd f44c 9b3c bbc3 6ebe eb69 18be
00000200: 4810 f7be 8437 31be 5c07 9d3d 60dc d23c
00000210: 872c 35bf 157d 41bf ee92 22bf 8cda d03d
00000220: 96b1 4d3d 7923 c8bd aba8 983d 2097 b73d
00000230: 62a8 94bc 6f4c ac3e 7aef 5e3e f1bc 1bbd
00000240: 6fd0 50bf 2c82 a0be cb7b e4bc ef0c 113e
00000250: b6c3 79be 6269 56be 420e 303e 1d84 3b3d
00000260: bd43 cdbe 2c8b 883e b170 e63d 28cd 9639
00000270: a4bc c0bf a8f9 91bf 77e6 01bd f6e6 6ebe
00000280: b80e 823e f390 953e 063a 433f 4750 4b3e
00000290: 1eca e63e 9a37 11be 3298 293e 8c52 4abe
000002a0: 2ab8 95bd 055b 15bd eb49 b9be bb7e 60be
000002b0: b861 80bd 1233 34be a3aa 44bf 5953 adbe
000002c0: dea2 7fbe 1021 4cbe 9e33 8dbd ed08 9a3d
000002d0: a1b1 cb3e f763 993e 9137 893f 1b2c a0be
000002e0: 122e ef3d 91fb 09be 6840 0c3f 4706 b33e
000002f0: 0f03 863f f108 ccbd b17a a83c 17f6 a0be
00000300: 6598 003f cd9f 783e 1a3a 8a3f b39b a83e
00000310: 5f5b 6b3d ba89 d83e 992f d13e b082 f13e
00000320: 2135 65be 6609 89be 0520 27be 5c73 52be
00000330: 911f 5d3e 8ca0 283e a01e 583f a53c 003f
00000340: e565 1f3f 4bf4 043f 076b 863e 68f6 b3be
00000350: 36e9 37be 4c3c 2d3d 174b 64bd a941 103e
00000360: 04ae 153f b3bf 413f a859 ec3e e21c ea3e
00000370: eca6 643f 3ffa de3e 1316 4c3f c238 253f
00000380: 224c 0b3f 6f6a 713e 7e15 dabd 61e8 d0bd
00000390: 92d1 0e3e 5996 bd3d deb2 c3bd d363 883d
000003a0: 6ba2 353e e131 b7bd 6bef 963f 3234 113f
000003b0: c0e3 253f a3c5 743e e4d1 9e3c 2021 bb3e
0.47502297 0.34298286 0.75290716 0.3103349 -0.09667737 0.29062083 0.20429264 0.3107328
0.6326736 0.13416138 0.24988838 -0.21879062 0.69462746 0.38883165 0.6119236 -0.009927286
0.21182837 0.47025484 0.21615237 0.066579275 0.4093526 -0.2285648 -0.14862785 -0.16698612
0.26656258 -0.041812554 0.6020613 0.1162494 0.36484593 0.28952858 -0.24344273 0.083713114
-0.3442461 -0.010350342 0.23433653 -0.24206777 0.89341503 0.2692589 0.68691015 0.60903436
0.77197033 0.65887165 0.28137752 0.34517905 0.5640284 0.18389592 -0.03131421 0.0011707941
0.23872389 0.012889701 0.08807066 0.1601965 0.22848274 -0.22377521 0.5973435 0.8963168
0.59316766 -0.1522151 0.19314326 -0.07823284 0.9386427 0.55045915 0.8931433 -0.0798203
0.08980613 -0.101253696 0.6766155 0.031580467 0.51946783 -0.15917626 0.0503901 -0.43837044
0.18195994 0.4294095 1.0151433 0.08994351 0.3325457 -0.32305712 0.48185313 0.32008418
-0.323642 0.14900786 0.30388516 -0.039303426 0.006457857 0.23245412 -0.15730087 0.16597849
-0.036649864 0.20727032 -0.32646886 0.07643656 -0.3817549 -0.12802804 0.08811035 0.024768699
0.23119028 0.5063675 0.23870286 -0.33781046 -0.13110888 -0.28318474 0.50574785 0.23020764
0.16409755 0.150577 -0.21118182 0.02668845 0.5189745 0.17734988 0.17221501 0.12171719
0.15314622 -0.33652684 0.697813 0.55477375 0.4548655 -0.30428833 0.35516813 -0.24426904
0.57234704 0.3707062 0.22145501 0.12155246 -0.038523745 0.018957593 -0.23316853 -0.14884154
-0.4825461 -0.17306334 0.07667419 0.025739849 -0.7077107 -0.75581485 -0.63505447 0.101979345
0.050218187 -0.09772391 0.07454046 0.08964372 -0.018146697 0.33652064 0.2177104 -0.038021985
-0.81568044 -0.31349313 -0.02789106 0.1416509 -0.24391064 -0.20938638 0.17192939 0.04578029
-0.40090743 0.2666868 0.11251963 0.00028763083 -1.5057569 -1.1404314 -0.03171393 -0.23330292
0.25401855 0.2921215 0.7626041 0.19854842 0.45076078 -0.14181367 0.16561964 -0.19758052
-0.07310517 -0.036463756 -0.36189207 -0.21923344 -0.06268638 -0.17597607 -0.7682287 -0.33852652
-0.24964473 -0.19934487 -0.06894611 0.07521234 0.39783958 0.2995908 1.0720083 -0.3128365
0.11678709 -0.13474871 0.54785776 0.34965727 1.0469683 -0.09962643 0.020566316 -0.31437752
0.50232536 0.24279709 1.0798981 0.3293129 0.057460185 0.42292577 0.40856627 0.4717002
-0.22383548 -0.26764983 -0.16320808 -0.20551819 0.21594073 0.16467494 0.8442173 0.50092536
0.62264854 0.5193526 0.2625353 -0.3514893 -0.17960057 0.04229383 -0.055735674 0.14087547
0.5846865 0.75683135 0.46162152 0.4572516 0.893172 0.43550298 0.7972118 0.6453973
0.54413044 0.23575757 -0.106486306 -0.10200573 0.13947132 0.09257192 -0.095556006 0.06659665
0.17737739 -0.089450605 1.1791815 0.5672027 0.64800644 0.23903517 0.019387193 0.3654871

weight_hh_l0 f4 [40, 10]
00000000: 91ea a1bc 260f aa3d 116d 1fbe d7e8 bd3d
00000010: ac13 bbbd 075e a83e 0691 3abf 8154 013e
00000020: 15c3 1c3e 26ac c53d fc14 b63d f146 aebd
00000030: d01a 4fbe 5304 c8bd c404 9bbd aacf 0c3e
00000040: bb40 83be 4ea1 7abb 9ed5 043e 1549 89be
00000050: 1bac 843d 8c9a 093b 7d7d 8dbe cf18 bf3e
00000060: e0e4 173e 76a0 453e b447 b4b8 8a54 5dbd
00000070: 1415 ddbe e815 9dba fe64 f33d c499 e5bd
00000080: 8624 8a3d 5181 f83d 6f71 9cbb 31be 38be
00000090: f559 0c3a fd82 853d e344 56be a3da ff3d
000000a0: 008b 3b3f b70e 42be 1fc2 2dbf 175c ed3e
000000b0: 7464 7ebe d1b5 c83e 5397 87be 1790 403f
000000c0: deec 15bf 6eb6 21bf d99c bb3d b529 5ebd
000000d0: 14cc 993e c600 b83b f91f 2d3e b61c 8c3e
000000e0: 4c14 613e 6960 4fbd 0319 50bd 317a 453e
000000f0: c13e 593f 61fe 29be 4b8f 25be 0155 133f
00000100: a803 ce3d 530f 653f 857e 44bd 543d 683f
00000110: ecf5 6ebe dcb3 42bf 46be 16be 9409 2cbe
00000120: 1ac8 89bd 51fa 463e 2bc4 7bbd 61ba 373e
00000130: 6d29 bf3b 564a 923e 0db6 abbe 5805 dbbe
00000140: 6f61 203d 1e0e 10bd e98a 13be 72e1 8e3e
00000150: 64a7 90bd 718b d1bc 24e6 a6bd 8c42 77be
00000160: 17bc 983e 8008 83bd 4113 46bd c268 2cbd
00000170: a1fa 1dbc 542f 5b3d a8e8 4abe d8c1 f0bb
00000180: cf44 c2be 6d98 963d c195 f3bd d546 04bf
00000190: c98b 603e 511d 9c3e 4b4d 793d 4950 56be
000001a0: c9f9 20be af43 c13e de7e 20be d03b 453d
000001b0: 2629 f03d a877 963d 03a7 c03d 368f 8f3e
000001c0: 0b40 e6bd f876 383e da43 833d e1d1 123e
000001d0: d279 82be b65d 2bbe 1dc3 9ebd 249b 943d
000001e0: b6e5 dfbe edcd 223e d88e e53e 08c7 1b3e
000001f0: 62e8 0e3d b13b a43e e4c3 043f b9d0 c9be
00000200: 64d4 4d3d a780 f53e 3cd7 123e e85e b9bd
00000210: b37b 723e 45a3 51bc d824 7e3e 9967 393d
00000220: f556 79be 7e04 4b3e 5e03 833b 40a7 07be
00000230: 15c9 76bd 713e 63be 914b 3fbe fea4 853e
00000240: cdb6 9d3b 2488 9ebe b905 f53d ec59 26be
00000250: 3055 9fbe e623 febd fa20 703e 8c41 20be
00000260: c26d be3e 6076 a43d 476d 4e3d beb3 58be
00000270: 8454 0dbd 0eb7 913e 1559 3fbe 7fe9 4b3e
00000280: 026c 99be b5ae 4f3d cf02 f93e dd03 5cbd
00000290: ef36 f4bd 8617 c03e c991 51bd 487b 393e
000002a0: 7a3b e53d 09d5 82bd c6e8 5a3e 7784 98bd
000002b0: d952 8e3e e60f 8abe 2fd7 e4be ebbe e23d
000002c0: 4339 113a 16ce 50be 4cd0 bcbd dadd f6bd
000002d0: 0b58 adbe 217d 96be 292c 0fbe fcbd acbe
000002e0: 2054 99be ad84 3e3e 4f7f 403d ee7b b63d
000002f0: 612c ad3e 3f1f 09be 35b9 09bf 6bff dd3e
00000300: 2581 d63e b628 a63e 5378 8bbe be13 ec3d
00000310: 8b2f 99be 9ede afbd c178 103e 5f8d 223e
00000320: 8a40 8cbd fe3a 58be b234 2bbe 3f7d a83d
00000330: 9dfb 2dbf fbce 833d d2e1 5ebe 2df6 febd
00000340: 04a8 6d3d ba7f ecbe e420 72be 9e80 2dbe
00000350: 6136 29be 4d8c 9fbd ed87 bc3e e553 88bb
00000360: 9230 f33e 722f 28bd 6f93 fdbd 01a7 0abe
00000370: 48ad a7bd a5d3 2e3d bb79 a9be f66b 503e
00000380: 64fa a93e e579 6dbe ff2e 233e 0471 0b3e
00000390: f88c e4bc ec08 593d 61b4 46be c200 0bbd
000003a0: 4f9d 52be 031f 1bbe 7ba5 4f3e 09ca 323e
000003b0: 951b ac3e a809 4abe 976d c8bd 9116 1c3e
000003c0: b8f5 b33e 532c 5bbe 2b70 17be 2fdc 78be
000003d0: c2e9 063c 274c 733e 0aa8 8fbe 6ad5 55bc
000003e0: ebbc 5d3e 9b51 acbe b38e bcbe 7ae0 903e
000003f0: 4647 aa3e eaa3 183e fb64 f03d 81e6 963e
-0.01976517 0.083036706 -0.1556895 0.09272926 -0.091346115 0.32884237 -0.7287754 0.12629892
0.15308793 0.09651975 0.08890721 -0.08509625 -0.20225072 -0.0976645 -0.07569268 0.13751093
-0.25635323 -0.0038243118 0.12972113 -0.2681357 0.06478139 0.0020996658 -0.27634802 0.37323615
0.14833403 0.19299492 -8.5964246e-05 -0.0540357 -0.43180144 -0.0011984678 0.11884497 -0.11210969
0.067452475 0.1213404 -0.0047742645 -0.18041302 0.0005353981 0.06519125 -0.20924716 0.124928735
0.7325897 -0.18950926 -0.6787433 0.4635932 -0.24843007 0.39201215 -0.2648264 0.75219864
-0.58564556 -0.6316899 0.09160776 -0.054238994 0.30038512 0.0056153266 0.16906728 0.27365655
0.21980399 -0.050629053 -0.050805103 0.19284894 0.8486138 -0.16600944 -0.16167943 0.5755158
0.10059291 0.8947651 -0.04797222 0.9071858 -0.23335999 -0.76055694 -0.14721021 -0.16800529
-0.067276195 0.19431426 -0.061466377 0.17942192 0.0058337958 0.2857234 -0.3353733 -0.42777514
0.03915542 -0.035169713 -0.14408459 0.27906376 -0.07063177 -0.025579186 -0.081493646 -0.2414648
0.29831 -0.063981056 -0.048358206 -0.042092092 -0.009642274 0.053511932 -0.19815314 -0.0073473267
-0.37943122 0.07353292 -0.11893798 -0.5167058 0.21928324 0.30491117 0.060864728 -0.20929064
-0.15720285 0.3774695 -0.15673396 0.048152745 0.117265984 0.07347041 0.09406855 0.2803895
-0.11242684 0.18014133 0.06409426 0.14337875 -0.25483567 -0.16734967 -0.07752059 0.07256153
-0.43729943 0.15898867 0.44835544 0.15212643 0.034889586 0.3207679 0.51861405 -0.39417055
0.05025138 0.47949716 0.14339918 -0.09051305 0.2368 -0.012795274 0.24818742 0.045264814
-0.24349578 0.19825932 0.003998204 -0.13247395 -0.06025036 -0.22191788 -0.1868117 0.26102442
0.0048130513 -0.30963242 0.11963982 -0.1624524 -0.3111968 -0.12409191 0.2345008 -0.15650004
0.37193114 0.08030391 0.050397184 -0.21162316 -0.03450443 0.28459972 -0.18686326 0.1991329
-0.29965216 0.050703723 0.48634955 -0.05371462 -0.1192454 0.37517947 -0.051164422 0.18113434
0.11192985 -0.063882895 0.21377859 -0.07447141 0.27797583 -0.26965255 -0.44695422 0.11071571
0.00055398437 -0.20391116 -0.09219417 -0.120540336 -0.33856234 -0.2939234 -0.1398169 -0.33738697
-0.29946995 0.186053 0.04699641 0.089103565 0.3382292 -0.13390826 -0.5379823 0.4335893
0.41895404 0.32452935 -0.27240238 0.11527203 -0.29919085 -0.08587383 0.14108564 0.15874241
-0.06848247 -0.21116254 -0.1671932 0.08227014 -0.67962056 0.06435963 -0.21765831 -0.12449298
0.05802156 -0.46191198 -0.2364536 -0.16943595 -0.1652465 -0.07790432 0.36822453 -0.0041603916
0.47497994 -0.041060872 -0.12381636 -0.1354027 -0.08187348 0.04268231 -0.33100685 0.20353684
0.33198845 -0.2319103 0.15935896 0.13617331 -0.02789925 0.052987024 -0.19404747 -0.03393627
-0.20567821 -0.15148549 0.2027797 0.17459883 0.33614793 -0.19730246 -0.097865276 0.15242983
0.35148406 -0.21403627 -0.14788882 -0.24302743 0.008234443 0.23759519 -0.2805789 -0.01305137
0.21654098 -0.3365601 -0.3682762 0.28296262 0.33257502 0.14906278 0.117380105 0.29472736

bias_ih_l0 f4 [40]
00000000: fa3e e23d 68b7 36be 1643 d73e c9a8 823e
00000010: f1e8 003f b64d 903e f793 0a3f 586f 9ebd
00000020: 3507 253e f24d fc3d c761 4dbc 1deb 993e
00000030: 81ce 4ebe 353a b6bd 137a 10bc c162 69be
00000040: 1450 7a3d 7256 5fbd 5af3 3bbe 9b85 3abe
00000050: 38ce 553e b308 93be 73ad e8bd 4a17 cb3e
00000060: 751e 873d 168a 9f3e 6817 14bd 7edd 253e
00000070: 8e8b 94bd 986f 82be f76e 20be 8a57 95be
00000080: b620 a93d 5392 16bd 2154 413e 72e8 11be
00000090: 9538 4b3f 035f 593e f8b6 223e d6c3 a83e
0.11047168 -0.17843401 0.4204337 0.25519398 0.5035544 0.2818429 0.54132026 -0.07736081
0.1611603 0.123195544 -0.012535519 0.3006219 -0.20195962 -0.08897821 -0.008818167 -0.22791578
0.061111525 -0.0545258 -0.1835455 -0.18215029 0.20879447 -0.28717574 -0.11361208 0.39666206
0.06597606 0.3116004 -0.036155134 0.16197774 -0.072531804 -0.25475764 -0.1566733 -0.2916835
0.08258192 -0.03676064 0.18879749 -0.14248827 0.7938321 0.2122765 0.1589011 0.3296191

bias_hh_l0 f4 [40]
00000000: b305 bcbd e431 c43e d811 9c3e b1ad 4fbe
00000010: 2815 053f 51db 5c3e 9596 403f cb69 813e
00000020: 7ed8 ad3c 560d cf3d 1c56 57be 2ead 7c3e
00000030: 9ef5 7f3e ad55 623c 5205 c7bd bd77 7b3d
00000040: 0eff 6abd b223 ac3c 949b be3c dd32 02be
00000050: 0f3d 803e e1fe 8abd a8ee c13d ca3b d1bd
00000060: 9d8f 493d a464 9f3e 9922 5ebd fc60 a53e
00000070: 9d91 65be c55e e7bd e8eb 453d 0f26 8d3e
00000080: e8ce ae3e a3b4 153e e172 0b3e 417b 80be
00000090: bb70 643f e360 1e3d aee1 91bd 1ce0 063e
-0.091807745 0.38319314 0.30482364 -0.20281102 0.51985407 0.21568038 0.7522977 0.25276026
0.021221396 0.101099655 -0.21028942 0.24675438 0.2499604 0.013814372 -0.09717812 0.06139349
-0.057372145 0.021013115 0.023267545 -0.12714715 0.25046584 -0.067868955 0.09469348 -0.10216482
0.049209226 0.3113147 -0.054232214 0.32300556 -0.22418828 -0.11297373 0.04832068 0.275681
0.34142232 0.14619689 0.13618042 -0.25094035 0.89234513 0.038666617 -0.07123123 0.13171428

weight_ih_l1 f4 [40, 10]
00000000: bb7e b53e a805 5fbe fabc c5be 4832 cf3e
00000010: e6f2 3ebe 75e0 a13e 4451 2dbd 24a7 8b3d
00000020: 9212 b3be 2417 78be bb68 f63e d460 37be
00000030: 842a 0dbf 5231 5c3e 9978 a5be 2641 d43e
00000040: 7a9e 98be aac0 e13e e318 a7be c43b bcbe
00000050: e55f 5a3e 9006 fabe bd4c 49be d697 74bd
00000060: c39c 8fbe e312 8bbd d4df 1ebe e581 26bc
00000070: 2d3e f2bd 145b 60bd 8832 c03e d18d c03d
00000080: 1408 d7bc 51d4 49b9 270f d4be e2ff 783e
00000090: b038 02bf 1b7e df3e a3e7 bdbe 3874 20be
000000a0: 4a74 a0bd f779 55bd e1c9 913d d9af 9bbd
000000b0: cca5 a5be 9bf8 2abb b2a4 fd3c 5d1a ff3d
000000c0: 5437 1a3e 714b adbe f61e 533e 4da8 38be
000000d0: 7c0a cebe 1577 883d ec73 65be 9a7f d13e
000000e0: 7eef 893b c7f4 d33e 31c0 c33d 137a c8be
000000f0: be4c e43e 0dd8 72bd 1c9e 2bbe 1539 67bc
00000100: 293d 7bbe f80e 093e d353 5cbe ceeb 233e
00000110: cabb 0cbb fa01 bdbd 57c0 6a3c 3d18 9fbe
00000120: e8e6 5fbe 01db db3e 53e6 0cbe b2b0 943e
00000130: 1546 b3be 8ff2 d6bd ca5f 853d 2af7 d23d
00000140: edd3 7c3e 15dc 25be bc09 a8be 29d3 dc3e
00000150: 13af 0cbf d15f d53e b035 14bf f0fd e7bc
00000160: 2ae2 e0bd 16fa 01bf 55ef c93e 9a9d bbbe
00000170: 9523 66be f802 6c3d 2a9b f1be bb05 c13d
00000180: 37b9 2a3d dfaa d1bd 7a34 e33d 8a7f e4bc
00000190: ffb6 853e d9f2 093e 14b2 7bbe 5650 883e
000001a0: 5fbc 46bf a282 553e a4a5 2cbd 2fc4 23be
000001b0: 35c6 9a3e d985 82be 7c01 25be 2d2b 72bd
000001c0: 5ffa 8dbe 196b 5c3e 0b27 afbe f5e0 dd3c
000001d0: 0f78 863d c2e7 5bbe e612 bd3e b34f 763e
000001e0: cded 383e c4ee 4c3e b75b b1be b99e 60be
000001f0: 934a 94be 982c 9f3d 5532 1b3e b32f 05be
00000200: 832e 87be cd9c b03d 0f3c bebe 80e6 2fbd
00000210: d7ee 9bbe 5270 05bd 1ee6 37bf a730 1dbe
00000220: dce9 c2be 7f65 e63d 1383 02be de8f b2bc
00000230: a4f9 733b c561 3d3e 3305 4b3e b000 213e
00000240: a48b 4ebe cf04 c4be 9e22 323e 45e7 febc
00000250: b1f4 af3e 3bfa 29be f6be 983e e453 17be
00000260: e029 ca3c c123 3e39 6b82 56be 4007 88bd
00000270: f062 1a3c 2491 c1bd 6cdc a8bd 7c8c 54be
00000280: 3097 19be 9c31 783e fe83 193e 8e23 c23d
00000290: 39d8 54bf 001f 083d d642 8fbe 315c 193e
000002a0: 6a29 113d ad21 823c 50d0 393c 623b b73e
000002b0: 53c2 50be c08a 0e3e 1df5 56be 71b7 40be
000002c0: 35e6 a6be 2a8f 643e 38f7 edbd 0196 dd3c
000002d0: f1a4 89be 586c 7cba 1fed 48be 8c62 6b3e
000002e0: c397 1ebf 9dee a9bd 884b f2be c88a bd3d
000002f0: 035f 34be 644d c93d 0a3c 343d bae4 ba3e
00000300: 09a8 83be 7526 f63d d553 32bf 6db8 99be
00000310: 9328 79be 34e4 bf3d ac04 12be 612e d7bd
00000320: 996d bc3e b17b 2ebe d676 19be 5e7d 50bd
00000330: 4df7 1dbf e136 52be b537 19bf f514 313e
00000340: 9223 1a3e e8f9 a0be cac2 6b3e f6c1 2bbe
00000350: 228c 1fbe 7748 6cbe e386 10bf c05f de3d
00000360: 872d 06bf f218 113d e466 adbd 4ff6 68be
00000370: e8a4 ae3e 3290 723c eada 553d cf97 293d
00000380: d601 35bf e75d b7bd 9b27 28bf c2a7 0f3e
00000390: 9791 3a3d 55ea 09be a631 7c3e e3cc 5f3d
000003a0: 3b56 cebe c16c bdbc 4b58 dabe 1654 623d
000003b0: fe39 03bf 7ce5 c53e e761 90be 82fa e73b
000003c0: e39e 283e 0bc1 a4be dd5b dcbe fa9e c13e
000003d0: 8e90 efbe b6dd a33e 4da3 07bf a299 b93e
000003e0: e852 fc3d 5603 89be b1cc 09be 7951 c53c
000003f0: 915e e3be 76cf 2ebe c347 07bf b6c4 3b3e
0.3544825 -0.21779501 -0.3862074 0.4046805 -0.18647346 0.3161656 -0.04231383 0.06818989
-0.34975106 -0.24227577 0.48126778 -0.17908031 -0.55143 0.21503189 -0.3231857 0.41455954
-0.29808408 0.44092304 -0.32636175 -0.36764348 0.21325643 -0.48833132 -0.1965818 -0.059715115
-0.28049287 -0.06790712 -0.15515071 -0.010162805 -0.11828265 -0.05477436 0.37538552 0.09402049
-0.02624897 -0.00019247948 -0.4141781 0.24316362 -0.5086775 0.43650898 -0.37090787 -0.15669334
-0.078346804 -0.052118268 0.071185835 -0.076019 -0.32353055 -0.0026088122 0.030962322 0.124562
0.15060169 -0.3384662 0.2061728 -0.18032952 -0.40242374 0.06663338 -0.22407502 0.40917665
0.004209458 0.41397688 0.09558142 -0.39155635 0.445898 -0.059288073 -0.16759533 -0.0141127305
-0.2453505 0.13384616 -0.21516351 0.16007921 -0.0021474236 -0.092288926 0.014328084 -0.3107318
-0.21865427 0.42940524 -0.13759737 0.29041058 -0.35014406 -0.10495483 0.06512411 0.10301049
0.24690218 -0.16197236 -0.32819927 0.43129852 -0.5495464 0.41674665 -0.5789442 -0.028319329
-0.10980637 -0.50772226 0.39440408 -0.36643678 -0.22474511 0.05762002 -0.47188693 0.09424921
0.04168054 -0.10237669 0.110939935 -0.027892847 0.26116177 0.13471545 -0.2457965 0.2662379
-0.7763118 0.20850614 -0.042150155 -0.15992807 0.30229345 -0.25492743 -0.16113847 -0.059123207
-0.2773008 0.2152523 -0.34209475 0.027084807 0.06565868 -0.21475127 0.3692848 0.2405384
0.18059464 0.20012957 -0.34640285 -0.21935548 -0.28963146 0.077721775 0.15155919 -0.13006477
-0.26402673 0.086236574 -0.37155196 -0.04294443 -0.30455658 -0.03257782 -0.71835506 -0.1535059
-0.38069046 0.112498276 -0.12745313 -0.021797117 0.0037227655 0.18494327 0.19826202 0.15722919
-0.20170456 -0.3828492 0.17396018 -0.031116137 0.34366372 -0.16599362 0.29833192 -0.14778095
0.02467817 0.00018133131 -0.20948188 -0.06642008 0.009423003 -0.094515115 -0.08245167 -0.20756716
-0.1499908 0.24237674 0.14991757 0.09479438 -0.8314243 0.03323269 -0.2798068 0.14976574
0.035439886 0.015885198 0.0113411695 0.35787493 -0.20386629 0.13920116 -0.20991941 -0.18819977
-0.3259751 0.22320238 -0.11619419 0.027049066 -0.26883653 -0.00096291816 -0.19621705 0.22986811
-0.6195032 -0.08297465 -0.4732325 0.09254986 -0.17614369 0.09829214 0.04400257 0.3650263
-0.25714138 0.12019054 -0.6965917 -0.30023518 -0.24331884 0.09369698 -0.14259595 -0.10506893
0.36802366 -0.17039372 -0.14986739 -0.05090081 -0.61705476 -0.20528747 -0.5985063 0.1729315
0.15052631 -0.31440663 0.23023525 -0.16773209 -0.155808 -0.23074518 -0.5645582 0.108581066
-0.5241322 0.03542418 -0.084668905 -0.2275021 0.34110188 0.014804887 0.052210726 0.04140454
-0.70705926 -0.08953457 -0.65685433 0.14028838 0.045549 -0.13468297 0.24628314 0.054638755
-0.40300164 -0.023123147 -0.42645487 0.05525597 -0.51260364 0.38651645 -0.28199694 0.0070794234
0.1646686 -0.3217853 -0.43038836 0.37816602 -0.46789974 0.3200509 -0.5298355 0.36250025
0.123205006 -0.26760358 -0.1345699 0.0240867 -0.44408086 -0.17071328 -0.52843875 0.18336758

weight_hh_l1 f4 [40, 10]
00000000: 6ba6 9c3e 7981 26be 583c b93e 91b1 23be
00000010: 8f9d b73e b200 d8bd 0242 40be 4474 9b3d
00000020: bdf4 c83e 8a16 0d3e 070c 073e fc84 8a3e
00000030: e29e 93bd 1573 10bc 9d17 883e 7e21 d03e
00000040: e985 253d b568 8abd 18a6 cc3d 263a 163e
00000050: c211 0abe 28b7 273e d539 c0bc ab72 e83d
00000060: 82b6 f93e cc38 4d3e 8da2 563e b13d d03e
00000070: b0af f9bc 89ef bbbd 2741 a33a 790c 8a3e
00000080: 8925 1bbe a73f 25be 196f 98b9 3ef5 8f3e
00000090: d630 993e 48a8 f83d 82d3 903e d026 883e
000000a0: 8d79 fc3d c05d df3d af03 d13e 0e33 9e3d
000000b0: f1e9 92bd 2408 8f3d de30 52be 2da6 5ebd
000000c0: f36e c23e da5f 3c3d 2eed e93d fb0d b1bd
000000d0: e30b 323d 69b0 b43d fc2b 603d c271 a93d
000000e0: 83a2 c93e 8ee0 0dbe 945b ba3d cf86 873b
000000f0: ae0c 473e 543d eb3e bc37 ed3e 0ccf 633e
00000100: dacf c33e c953 7b3e 8bff 47be 97fb ba3e
00000110: ce59 2ebd 9ad2 cc3e 2813 103e 8428 01be
00000120: ed49 57bd 4755 733e e2a2 f73e c51f 953e
00000130: ed8f 79be d5a9 623d c73f be3e fb3f 35be
00000140: ee4e 45be d63f babd 3079 153e aaa0 753d
00000150: 7d8f 3c3e 71c2 a93d ac96 be3c 1bef d83d
00000160: 64c6 ad3e 0589 9f3e fa56 c13e 1760 cf3e
00000170: b16e 43bd 0e0d 9f3e 7ba2 ba3e dc34 f3bc
00000180: 4224 12be dc29 53be f96c 703e 153f 873e
00000190: ae1a 4ebe 0306 783c d3d9 e33d e77a e1be
000001a0: 0a51 1dbe 41ac 28be 1cee e4be fb88 26bd
000001b0: 7122 e7bd 84e7 0b3d c2a7 403e 9452 313e
000001c0: fd9a 97bc 4906 b2be 2359 cb3d e8bc 6dbe
000001d0: 3284 77bd c62a 6ebe 70a6 39be 03be f83d
000001e0: 6e3e 63be 63cc 323e facd a9be 4776 363e
000001f0: be45 633d a4b6 36be f635 a4be 231f 93be
00000200: b562 173e b141 49be 2c89 de3c cc5b 14bd
00000210: 8c4b 90bd 8fc2 09bf 709f a2be 025e acbe
00000220: bb87 75bd 6c4b 0e3e 1e19 4bbe bb1f 68be
00000230: 80db 503e 3351 b53d 082e 843e edfc 34be
00000240: bbcb b23d 6a2e 4dbe c147 12be 4d4d 293e
00000250: 6f6c 6dbd 445b 393e e95e 9fbb 5063 2cbd
00000260: 7180 2fbe a71b 183e ac2a f23b 6021 1a3e
00000270: 05a5 a3bd da35 a63d 4a9a 41be 972f f3bd
00000280: c459 89bd 0fc7 c73c febb b43c 6cfe 1bbb
00000290: 6fe1 3abd 16d8 21be f06d 9e3d 0401 32be
000002a0: 980f 47bc 331c 7bbe c4f9 bb3d 04ee 27be
000002b0: 92a4 16be c1b0 443e 45a3 0cbe 0642 14be
000002c0: 7eda 5a3c dc78 a3be 0503 c0bc 8594 47bc
000002d0: 7c04 a6be 3270 41be 81c4 e9bd ed89 46be
000002e0: fc24 acbd df39 c7bc d2d0 bcbe 4988 58bd
000002f0: 149a b03a 4325 a8be 997b eebd 0f52 63be
00000300: fd4b 66be 06ef d5bb d940 2dbe 6a06 b43d
00000310: 78fe d7bd ae2a d23c c781 81be dae4 8abe
00000320: 2f3b e1be 833b 843d 6501 bbbe 2952 06bd
00000330: 3b9f 89bd bb51 023e 5b2e a0bd 74ad 9dbc
00000340: 7dca 5bbc afbe 8b3d 3ab1 c2bd 5d5b 2c3d
00000350: 5b5d e2bd d740 a4be d876 df3d ef68 95be
00000360: 2edd b1be 4714 4cbc 0b0d 1e3e 46a6 db3d
00000370: 8217 60be d410 5d3e c29d c6be 911f aebe
00000380: cbb7 9d3d 35b7 383c 7925 adbe 83dc 193e
00000390: 599b 023e 1fa4 493e 6759 70be 818d 20be
000003a0: 44eb b73d 6874 d9bd 0fbb 57bd 91df 9fbc
000003b0: d94c 17be b296 933d 475a 87be 402b 65bc
000003c0: e8fa dfbd c0bd 3fbe 4cea 38be 04a5 febe
000003d0: e76e 64be d532 4fbd 0c8d 303e 0614 b73d
000003e0: 94f9 263e 8e5b e7bd 0faf 2ebe 5092 803e
000003f0: 309d 12bd 1d4c a9be 2a7b f13d 4a68 913d
0.30595717 -0.16260327 0.3617885 -0.15985705 0.35862395 -0.105470076 -0.1877518 0.07590535
0.3924922 0.13778129 0.13188182 0.27054584 -0.07208039 -0.0088165 0.26580516 0.40650553
0.04041091 -0.067582525 0.09992617 0.1467062 -0.13483337 0.16378462 -0.023465076 0.11349996
0.48772055 0.20041198 0.20960446 0.40672067 -0.030479282 -0.09176547 0.001245533 0.2696264
-0.15151037 -0.16137563 -0.00029074473 0.28116792 0.2992007 0.12141472 0.28286368 0.26592112
0.123278715 0.10906553 0.40823123 0.07724582 -0.07173527 0.069839746 -0.20526454 -0.054357696
0.37975273 0.04598985 0.114221916 -0.08645245 0.043468367 0.0882271 0.054729447 0.08273651
0.393818 -0.13855192 0.090994984 0.0041359435 0.1943843 0.45945227 0.46331584 0.22246951
0.38244516 0.2454368 -0.19531076 0.36520073 -0.042566113 0.40004426 0.14069808 -0.12613112
-0.052560735 0.23763 0.48366457 0.291258 -0.2437131 0.055337746 0.37158033 -0.17700188
-0.1926839 -0.09094207 0.1459701 0.059967674 0.18414111 0.0828904 0.023265205 0.10592481
0.33940423 0.31159225 0.3776167 0.40502998 -0.047712985 0.31064647 0.36452088 -0.029688291
-0.14271644 -0.20621437 0.2347907 0.26415315 -0.20127365 0.015138152 0.11125531 -0.4403908
-0.15362945 -0.1647196 -0.44712913 -0.04065798 -0.11285866 0.034156337 0.18813995 0.17316657
-0.018506521 -0.3477042 0.09929111 -0.23216593 -0.060428806 -0.23258504 -0.18129897 0.12145617
-0.22191784 0.1746078 -0.3316496 0.17818557 0.055486433 -0.1784311 -0.3207242 -0.28734693
0.14783747 -0.19653966 0.027165018 -0.036220357 -0.070456594 -0.538125 -0.31762266 -0.33665472
-0.059943896 0.13895959 -0.198338 -0.22668354 0.20396233 0.08853378 0.2581637 -0.17674609
0.08730265 -0.20037237 -0.14285184 0.16533394 -0.05796474 0.18101221 -0.004863609 -0.0420869
-0.1713884 0.14854299 0.007390341 0.15051794 -0.07990459 0.0811574 -0.18906513 -0.118743114
-0.067065746 0.02438691 0.022062298 -0.002380277 -0.045625146 -0.15805086 0.07735813 -0.173832
-0.012149714 -0.24522476 0.091784984 -0.1639939 -0.14711216 0.19208051 -0.13734157 -0.14478311
0.013357757 -0.31928146 -0.02343894 -0.012181406 -0.32425296 -0.18890455 -0.11414433 -0.19388552
-0.08405492 -0.024319587 -0.36878067 -0.052864347 0.0013473653 -0.32840928 -0.11644668 -0.22199272
-0.22489925 -0.006528738 -0.16919269 0.08790286 -0.10546583 0.025655117 -0.25294325 -0.27127725
-0.43990466 0.064566635 -0.365245 -0.032793198 -0.06719824 0.1272649 -0.078213416 -0.019247748
-0.013414976 0.068234794 -0.095064595 0.04207932 -0.110529624 -0.3208072 0.109113395 -0.2918162
-0.3473906 -0.012456006 0.15434663 0.107250735 -0.21883968 0.2158845 -0.38792235 -0.34008458
0.07701071 0.011274149 -0.33817652 0.15025525 0.12754573 0.19691513 -0.23471604 -0.1567898
0.0898042 -0.10617906 -0.052668627 -0.019515784 -0.14775409 0.07206477 -0.26436064 -0.013987362
-0.109365284 -0.18724728 -0.18058127 -0.49735272 -0.22307931 -0.050585587 0.17241305 0.08939366
0.16306144 -0.112967595 -0.17058967 0.25111628 -0.035794437 -0.33065882 0.1179107 0.0709997

bias_ih_l1 f4 [40]
00000000: 031a 90bd 1f67 d8bd cd4d 393d 9c81 84bd
00000010: eede dd3e 4129 703d f052 873e 4fa7 b03e
00000020: b567 f33d 05bd 8e3e dba6 02be 6eb7 333e
00000030: f4d0 7dbe e4f2 23be 9ff7 e0be 6174 aabe
00000040: 260d 20be 743a 8dbb a54e a63d df62 b83d
00000050: 51ea b5bd 304e d2bd 160d 1f3e 122c d83d
00000060: f492 f9bd 9376 3ebe 5610 c83d 8c5b 873e
00000070: 4697 4a3e d97d 4abe 39f3 a63d 1d04 ee3e
00000080: 1404 923d bb25 c33d bb9c a73e cfce e03e
00000090: 9c4f 533e fbfe cc3e 7cf4 9b3d 79a0 af3e
-0.07036211 -0.10566544 0.045240212 -0.064700335 0.43334144 0.058633093 0.26430464 0.34502646
0.11885015 0.27878585 -0.12758963 0.17550442 -0.2478674 -0.16010624 -0.4393892 -0.33291915
-0.15630016 -0.0043099467 0.08120469 0.09003233 -0.08882583 -0.10268819 0.15532336 0.10555281
-0.12186232 -0.1859992 0.09768741 0.26437032 0.19784269 -0.1977457 0.0815186 0.46487513
0.07129684 0.09528681 0.32736763 0.43907782 0.20635837 0.40038285 0.07614991 0.34302118

bias_hh_l1 f4 [40]
00000000: c8e3 dfbb e3ec 15be 4724 8a3e de2d 59bc
00000010: e0bd 9a3d 5b65 1c3e 0886 5dbd f747 bc3e
00000020: fb7f f83d 26e9 ae3e 5d03 323d 0a9a e53d
00000030: a6eb 98be eea2 99bc aa00 1e3e d421 22be
00000040: dce3 1abd ee02 32bc f10e 2c3d b3da 9bbe
00000050: 2333 e83d ba5e d03d 4f08 febd 54ea 67be
00000060: 28c6 0cbe e1f4 e33d 851d 96bd 0c05 85be
00000070: af50 8dbe dbb0 87bd 0806 4a3d 7f4f e7bd
00000080: 8cd0 c93e 92e8 c23e f18a b6bc 7aca ad3e
00000090: 3251 b13e 74cd b33d 9744 cfbd d80b 2a3e
-0.0068325736 -0.14641146 0.26980802 -0.0132555645 0.07555747 0.15273039 -0.0540829 0.36773655
0.12133785 0.34162253 0.04346024 0.11211021 -0.29867285 -0.018754449 0.15429941 -0.15833217
-0.03781496 -0.010864956 0.042006437 -0.30440292 0.113378786 0.10174318 -0.124039285 -0.22647983
-0.13747466 0.11130691 -0.07329849 -0.25980413 -0.2760062 -0.066255294 0.049322158 -0.112944596
0.3941692 0.38068062 -0.02228305 0.3394354 0.3463226 0.087794214 -0.10120504 0.1660608
