output/river_level_predictor_ep70_lr0.0008_lu6_at_y/model.pth (torch, 94779 bytes, 6 tensors)

linear.weight f4 [1, 2]
00000000: e0da 3abf 3c10 66bf
-0.72990227 -0.8986852

lstm.weight_ih_l0 f4 [256, 24]
00000000: bc11 643e db90 4dbd 89a0 1ebd 7bf6 293e
00000010: bf92 f83d 712f e8bd 9416 45bd 19bf 213e
00000020: 43cb a13c 0811 0f3e 2e85 0c3e 813a 80bc
00000030: c369 253e cff9 2b3d 0f4c 673d 6cff 163e
00000040: b69b 0e3e adbb 10be 9187 f93c 254a 323e
00000050: 0c5e 3dbd 7633 4cbd ccff 42bc addb dfbb
00000060: b9b9 de3c 1840 943e e043 c73d 2f9a 723d
00000070: cbc4 d4bc 7ae5 16be 7d9b c63c 54a0 033e
00000080: 0399 293e 4011 623d f766 1d3e 13f1 1abd
00000090: 8ed8 333d 753b 3c3e 93e0 293d afa4 063c
000000a0: b71d 1e3e 68ad 75bd 65e1 9f3d 0ecc 9b3e
000000b0: 8364 c4bc 4635 ea3d 7918 6e3d c308 fcbd
000000c0: 67f3 d13d ae88 5bbd d847 00be 6601 bb3d
000000d0: 644a e03d addf df3d 72fc 50ba e9bc 83bd
000000e0: 2dc0 ebbd 6a1d e5bc 9f6d 073d 9d18 debc
000000f0: 5fd1 2e3d a1f7 b53d a764 c3bd 1d4e 66bc
00000100: 9ae2 9c3d a1de 0fbc 5a40 283c 00c8 77bd
00000110: cb1c a83c 2ccd b93d b961 7b3d 1f84 473b
00000120: c502 a63d a6e1 efbc 3908 0f3d 4c07 81bb
00000130: d0b7 9c3c d26c e9bd 800c 8ebd 4d40 153e
00000140: bc47 e13d 640d be3c 0ce9 593d f49b 8ebd
00000150: f833 c4bd 6368 1e3e 11b8 1b3e 2889 c33d
00000160: f9ab f53d a9e3 3bbe 7281 40bd 40f8 663c
00000170: 46e2 913d ee96 c4bc 7967 07bd 6722 e33d
00000180: 2e55 fdbd 36bc 4a3c e74c 263d 85fe ff3d
00000190: b45f 3ebd 0efc 093e 14ff 0ebe eecf 323a
000001a0: 9f1d d2bd 503f 333d 49ce b03c 6841 713e
000001b0: c9d4 6dbd aba0 5abd 855a 4cbc 6dc2 4cba
000001c0: 0387 983d cc27 853e 6909 adbd 4d82 e3bd
000001d0: 07a5 9f3d 10a8 c6bd da17 48bd e8a8 ef3e
000001e0: d6d0 aebc 0b77 f6bd 8879 133e fa83 c0bc
000001f0: 4628 523e a566 263d 06bb 22be 3c42 e2ba
00000200: 1668 e73d 7f7d d1bb c116 9cbc 5923 b7bd
00000210: a5ed 28bd 63dc e0bd 0566 1f3e 6c31 2b3e
00000220: d34a 2b3e de2c 333d 2a76 b0bd abc0 e4bd
00000230: f9fd 9e3d 57c6 863d 9f23 9f3c c9b2 153d
00000240: 945d b03d 22d9 1c3c 0be7 0c3e afbf d83d
00000250: 126a 1e3d 7161 33be 5cf4 3e3e d4f0 583e
00000260: dc5e 373d c78f 013e ceb6 e83b b245 e8bd
00000270: 80f4 a63e cbfb 123d ec3a fb3d 38c7 4b3e
00000280: b26e 28bc 50b7 9dbe 7606 0b3e 4b23 cebc
00000290: 1fc5 6f3d c749 643e fe90 093e 9b46 bbbe
000002a0: d58e 4b3e ef41 f83c 5d50 a83d f17d 6dbd
000002b0: 24d9 bebd 9147 dbbd eb0e 743d c047 88bd
000002c0: d2d7 c73d bb0d babd 92c6 dabc d244 2bbe
000002d0: 55c8 adbb e969 013e 7039 ed3d 069f 98bd
000002e0: 9cf6 023e d118 a93d 49d4 cd3d 67c9 ed3d
000002f0: 3888 cc39 f6e2 fe3d 740d 17b9 f816 a4bd
00000300: 4b5d 02be fc5e 513c 9e1d c33d 2c31 4dbd
00000310: 8a1f b2bd 1d1d 353e b6e4 453d 43bd 71be
00000320: 141f 603d bc79 3c3d f542 063e 242a 7d3e
00000330: 4a88 3abe ca9c 57be d66a aebd d0a8 9ebd
00000340: 786b 35bd 3bc8 b73e 6a76 74be 8c05 05bd
00000350: 66f7 693d 1d70 f63d 4add c73d b34d cc3e
00000360: 0e98 bc3d ea55 083e f966 363d 9160 823e
00000370: ec49 343e 0bfd 4bbe e0ea f63d 7d7d 0e3e
00000380: bda9 a23d d347 f53d 0d27 183e d181 3fbe
00000390: 67d3 7f3e 91e5 973d 67ec 683e e56d fb3d
000003a0: 0481 013e 0fc6 f2be 903d a23e 79bb 2c3e
000003b0: af2c 423e 616b 863e 4519 0a3e 16b8 c7be
000003c0: 593b 703e bfd1 763e 85a1 923c 21ed df3d
000003d0: 2fd0 e7bc 3ffd 12be f9a9 d5bd 1cfa ce3d
000003e0: b3f4 023e 4e7a 723e 75d1 c83c 0d74 93bd
000003f0: ee33 1a3c d8f2 523e dad0 f6bc 6072 353e
0.2227239 -0.050186973 -0.038727317 0.16597931 0.121373646 -0.11337174 -0.048117235 0.15795554
0.019750243 0.1397134 0.13722679 -0.015652897 0.16153626 0.041986283 0.05646902 0.14745873
0.13926587 -0.14134093 0.03046015 0.17411096 -0.04623227 -0.049853764 -0.011901807 -0.0068316073
0.027188169 0.2895515 0.09729743 0.059229072 -0.025972744 -0.14735976 0.024244064 0.12854129
0.16562276 0.055192232 0.15371309 -0.037827563 0.043907695 0.18382056 0.041473936 0.008217975
0.15441023 -0.059979826 0.078066625 0.3042912 -0.023973709 0.11435942 0.058128808 -0.12306359
0.102515034 -0.053597145 -0.12527406 0.09131126 0.10951689 0.10931335 -0.00079721876 -0.06432516
-0.11511264 -0.027968127 0.033063527 -0.027111346 0.04268014 0.08885122 -0.09540682 -0.01405671
0.07660408 -0.008781106 0.010269249 -0.06049347 0.020521542 0.090723366 0.061372492 0.003044374
0.08105997 -0.029282402 0.03491995 -0.0039376374 0.019130617 -0.11397709 -0.06935978 0.1457531
0.1100001 0.023199745 0.053200766 -0.069633394 -0.09580225 0.15469508 0.15206935 0.09547645
0.11995692 -0.18348564 -0.04699845 0.014097273 0.07123236 -0.02399775 -0.033057664 0.11090546
-0.12369762 0.012373975 0.040600684 0.124997176 -0.04647799 0.13475057 -0.13964492 0.0006821145
-0.10259556 0.04376155 0.02158274 0.23560107 -0.058064256 -0.05337588 -0.012472753 -0.0007810954
0.074476264 0.26006925 -0.084490605 -0.11108837 0.07795148 -0.09700024 -0.04885087 0.46808553
-0.021339815 -0.120344244 0.14401829 -0.023500431 0.20523176 0.040625233 -0.15891656 -0.0017262171
0.1129915 -0.006393134 -0.019053819 -0.08942289 -0.04124226 -0.109795354 0.15566261 0.16718072
0.16727762 0.04374396 -0.08616288 -0.11169561 0.07763285 0.06580799 0.019426165 0.036547456
0.086115986 0.009573253 0.13760011 0.10583436 0.038675375 -0.1751764 0.18647903 0.21185619
0.0447682 0.12652503 0.00710187 -0.11341418 0.32608414 0.03588466 0.12267098 0.19900215
-0.010280298 -0.3080392 0.13576683 -0.025163313 0.0585376 0.22293769 0.13434216 -0.36577305
0.19878705 0.030304877 0.08218453 -0.057981435 -0.0931876 -0.107070096 0.05958454 -0.0665431
0.09757961 -0.0908465 -0.026706014 -0.16725472 -0.0053034225 0.12638058 0.11583221 -0.07452206
0.12789387 0.082566865 0.10050256 0.1161068 0.00039011403 0.12445633 -0.00014405494 -0.080121934
-0.12730901 0.012778994 0.095271334 -0.050095722 -0.08697422 0.17686887 0.04831382 -0.23607354
0.05471714 0.046014532 0.1311148 0.24723107 -0.18216053 -0.21055904 -0.08516471 -0.07747042
-0.044291943 0.3589495 -0.23873296 -0.032475993 0.057120703 0.12033103 0.097590044 0.3990303
0.0920869 0.13314024 0.044531796 0.254643 0.17606324 -0.19920747 0.120565176 0.13915057
0.07942531 0.1197659 0.14858647 -0.18701865 0.24982987 0.07416833 0.2274643 0.1227682
0.12646872 -0.47416732 0.31687593 0.1686839 0.18962358 0.262538 0.13486202 -0.39007634
0.2346014 0.2410345 0.017899284 0.109339006 -0.028297512 -0.14354418 -0.1043281 0.10106298
0.12788658 0.23679468 0.02451394 -0.07199869 0.009411795 0.2060045 -0.030128885 0.17719412

lstm.weight_hh_l0 f4 [256, 64]
00000000: 41e5 cabc c776 5dbd d6e6 dcbd 71a1 9a3d
00000010: 515e 87bc fef5 c93d 4b18 4b3d 381e 6bbc
00000020: 90a0 0ebd ee32 febc 09d2 1f3e 6bb6 bebd
00000030: a822 073d ee96 643d 3c0f 203e aa2e e2bd
00000040: b836 c13b 8afc 7cbd 37e8 e1bd 3460 26bd
00000050: a7cf 9abd 298c 90bd f692 403d 8489 823d
00000060: 9842 b23c 6bbc 88bd 63ce 9ebd 553a cf3d
00000070: 2386 273d 6858 74bd 7c47 c83d a125 b7bd
00000080: eac9 d1bd 6707 163d 0bfd a9bc a17d 233e
00000090: 0bf2 adbc 8b27 6bbd c69b 2e3d 7fb0 bcbb
000000a0: f4b7 593c ecba 11be 840b df3b a631 663d
000000b0: 5da3 adbd 3067 6e3d 035f e6bd 0464 5bbd
000000c0: c4b2 65bd 7bef f4bc cbce 90bc b0ad 0fbd
000000d0: c2c5 113d 65dd 8bbd 0a55 90bd 9c9b 51bd
000000e0: 439b 3abd 00d3 bc3d 7fce eebd 0d8a 8cbc
000000f0: 237d 4f3e c4e0 7abd 967e e3bd 3a34 ebba
00000100: c829 243c 02cf 103d bc58 0b3d 9c23 95bd
00000110: d16a c5bd b6aa 62bd ac84 813d ef5c f8bc
00000120: 9159 813d 2eaf 3a3e adcd e2bd d3a8 413d
00000130: c27f 073e 7edf 0ebe e1b2 6fbe 914e daba
00000140: ea8c 323d 8541 aabc 0aea b4bd 063c 4d3d
00000150: 9c35 623d 53ca b83d 1dda 25bd eff3 973d
00000160: af65 e6bc b0dd 2fbe 7a0b c73a 0c5d 77bb
00000170: 796b c5bd 9480 8f3d a0ae c0bc b542 45be
00000180: f8c8 ffbd 98e6 133d 5d00 b33d 3be4 c73b
00000190: eb45 00be b31d b23d 2a20 ae3d 591e 98bd
000001a0: f3c7 cf3a 25d4 14be c5d0 793d ba23 ed3c
000001b0: 8ec9 283d 5540 083e 26a5 a5bd a5bf 4bbc
000001c0: 9c0b 9ebc f586 99bd 94ca 2e3e fd52 40bd
000001d0: 1b1d acbd 71ff 923d 8f0b 1fbe 298d 253d
000001e0: ea2c 9a3d 25fb c6bd 0d4a cbbd f73d 723d
000001f0: ac88 263d ea8c 7b3d 9b7b ce3c 5983 973d
00000200: 399a 1a3d 88a3 a03d b9c8 5abc be56 813d
00000210: 98ae d93d 278a 0fbd 1daf 5b3d 8cbb babd
00000220: 214d c23d 9a2e 973d 8045 c1bd a490 093d
00000230: 1d8e a83d ecf5 d2bd e720 d7bc df05 ebbc
00000240: 3458 b6bd 2181 b6bd b799 e7bd 881d 3d3d
00000250: 506c 79bc 70be 873d a609 bfbd 8a4c b9bd
00000260: b359 da3c 2289 8f3d 521b bf3d 483d 9d3d
00000270: 9835 fd3d 8b45 6d3c 6750 b73c 6e25 66bd
00000280: 4039 863d 94b0 803d 3739 5ebd 52c9 b53d
00000290: 545b b43c a0f7 3f3d 9693 733c 4726 dcba
000002a0: 5fa7 a0bd 9c94 913d 8255 c0bd 597b bf3c
000002b0: 31cf 60bd 5a1b d1bc 7b45 543d 1ea8 453c
000002c0: 2310 b1bd d7ac b1bd fa4c e4bc 32b6 053e
000002d0: 3b42 aa3d 36e4 fcbd 7576 d23d 811b 3c3c
000002e0: 5753 b43d 24c4 7fbd aa0d cb3b 95df 303d
000002f0: f678 68bd cf10 9cbd 8a39 1abd d6e3 51bd
00000300: 3948 a33d 3f74 293b 31a8 003e c7df 633d
00000310: 0876 a6bd 19b1 cabd 0ab6 c73e 7f67 d2bc
00000320: 4914 7abc 93e4 593e d8af 003e e5b2 5e3d
00000330: 8ddf 75bd d9ab 87be 0d0d aabe beba 4cbe
00000340: ed9f 4e3c a8c8 36be 724a 21be d9ea aabd
00000350: 18af 533b 7f19 9f3e 8f34 45be 71d5 803d
00000360: 5a22 553d 76a6 c7be 6969 393e 6c3f 92bd
00000370: 4efe d8bd ea24 6d3e 6702 213b b86b 0bbe
00000380: bcf9 4ebd ce9e 363c 2ced bf3c b9e4 20bd
00000390: 02cf 7cbe 2c7b 6d3d 1d36 0fbd 3f9d 8ebd
000003a0: a514 49be cba1 3bbe 8179 933d b4cf c6bd
000003b0: 6f06 95be 6c5f 303e 2439 193c e9c4 d93d
000003c0: 97d1 73bc dd16 2dbe cc2c 673e 1e8e b7bd
000003d0: 59d3 80be 928f 013e 7d08 d4bd 8991 f1bb
000003e0: dff2 1b3e 2526 ca3d d686 8fbe 754b c43d
000003f0: 1bc2 513c 6d24 9abd fd6e 32be a823 843d
-0.02476752 -0.054068353 -0.10786216 0.07550324 -0.016524466 0.098613724 0.049583714 -0.014350466
-0.034821093 -0.031030145 0.15607466 -0.09312137 0.032992035 0.055808 0.15630811 -0.11044057
0.0058964156 -0.061764278 -0.110306196 -0.04061909 -0.07559138 -0.070579834 0.047015153 0.06373885
0.02176027 -0.06676563 -0.07754209 0.10118548 0.040899407 -0.059654623 0.097792596 -0.08942724
-0.1024359 0.036628153 -0.020750543 0.15965892 -0.02123358 -0.057410758 0.042629026 -0.0057583447
0.013288487 -0.14231461 0.0068067927 0.056199692 -0.08478425 0.058203876 -0.11248591 -0.05356218
-0.056078687 -0.02989935 -0.017676732 -0.03507775 0.035588987 -0.06829337 -0.0704747 -0.05117379
-0.045558225 0.092199326 -0.1166048 -0.017155671 0.2026258 -0.06124951 -0.11108129 -0.0017944642
0.010019727 0.035353668 0.03402017 -0.072821826 -0.09639514 -0.055338584 0.06324133 -0.030317752
0.063159116 0.18230888 -0.11074386 0.047280144 0.1323233 -0.13952443 -0.2340808 -0.0016655495
0.043591417 -0.020783195 -0.08833702 0.05010607 0.055226907 0.09022965 -0.040491212 0.074195735
-0.028124658 -0.17174411 0.0015185915 -0.003774467 -0.096396394 0.07006946 -0.023520768 -0.19263728
-0.124895036 0.036108583 0.08740304 0.0061002052 -0.12526672 0.08697071 0.085022286 -0.07427663
0.0015852436 -0.14534052 0.060990114 0.0289477 0.041207843 0.1330579 -0.0808814 -0.012435828
-0.019292645 -0.07496444 0.17069465 -0.046954144 -0.08403989 0.07177628 -0.15531753 0.040417824
0.07528098 -0.09715871 -0.099262334 0.059141126 0.040657684 0.061413683 0.025205424 0.073980995
0.037744734 0.07843691 -0.01335352 0.06315373 0.10629004 -0.03504386 0.053633798 -0.09117803
0.094873674 0.073819354 -0.09437084 0.033585206 0.08230231 -0.10300812 -0.026260806 -0.028689323
-0.08903542 -0.08911348 -0.11308616 0.04617074 -0.015223578 0.0662812 -0.09328012 -0.09047802
0.0266541 0.07008578 0.09331383 0.07677704 0.12363738 0.014481912 0.022377206 -0.05618804
0.06553888 0.062836796 -0.054253783 0.088762894 0.022016205 0.046867013 0.01486673 -0.0016796076
-0.078444235 0.07108423 -0.09391309 0.023374246 -0.054885093 -0.025525738 0.051824074 0.012064008
-0.08645656 -0.08675545 -0.027868737 0.13057783 0.08313414 -0.12348215 0.102765 0.011481167
0.08804958 -0.062442914 0.0061966972 0.043181974 -0.056755982 -0.076203935 -0.03765253 -0.051242672
0.0797276 0.0025856642 0.1256416 0.055633333 -0.081279814 -0.0989706 0.39006072 -0.025684116
-0.015263625 0.212786 0.12567079 0.054369826 -0.060027648 -0.26498297 -0.33213082 -0.19993111
0.012611371 -0.17849982 -0.15751055 -0.08345575 0.003230041 0.3107414 -0.19258331 0.06290711
0.052034713 -0.38994187 0.18106617 -0.07141003 -0.1059538 0.23158613 0.0024568082 -0.1361531
-0.050531134 0.01114626 0.023428522 -0.039280627 -0.24688342 0.057978794 -0.034963716 -0.06963586
-0.19636782 -0.18323438 0.072009094 -0.09707585 -0.2910647 0.172239 0.009352002 0.10633261
-0.014881513 -0.16903253 0.22575682 -0.089626536 -0.25161245 0.12652424 -0.103531815 -0.0073720855
0.15229367 0.09870557 -0.2803256 0.09584705 0.012802626 -0.07526479 -0.17425151 0.064521134

lstm.bias_ih_l0 f4 [256]
00000000: 9ddb 84bc 8bbe a73d 04a4 fabd 6d04 2a3e
00000010: a23b ad3d b5fd 1dbd 1ccb 5e3e e806 643d
00000020: 46ae 033e aaba 193e 7446 533e 6cf1 d0bb
00000030: bab7 91bd ce0f df3e 58d5 8f3d 5ce4 efbc
00000040: bc10 413e 9196 9fbd 77d3 b33d 375c f4bc
00000050: 97b4 4c3d 22ac 093e 012f f83d c08a 183e
00000060: ebd2 873d 93aa 4b3c e37c a13c 0e63 123d
00000070: 73cc 79bd df1e ef3c e474 44bd be16 113d
00000080: 04e7 34bb 54ed 97bd 2ac4 843d 7e07 2ebd
00000090: df95 9bbd 4e42 8e3c e7af c93d 0e09 703d
000000a0: f025 ef3b 481c cc39 6eba 6d3d 4411 003c
000000b0: 77b6 8dbd 77aa 95bc def2 693d 4c22 3bbc
000000c0: 2d22 da3d de3f c8bd ac3c 39bc 0704 8d3d
000000d0: 7161 85bd 701d e4bb 5593 133e 4260 693d
000000e0: eca2 123e 6894 a5bc 244d 33bd cc4d 573d
000000f0: 2832 4a3e fd2b a73c fc82 a23d be14 493d
00000100: 9529 8dbd 84e5 b7bd 584e 06be 1051 aa3d
00000110: d059 9ebc f359 153d 72dc 1fbd 9db4 c9bd
00000120: 8222 3a3d 42eb 293d 6eee d9bd 144a f43c
00000130: c8d2 d0bc bebf 5c3e 461c 243e 1af5 fc3d
00000140: 3286 f1bb 5e37 933d 9117 d6bd 5112 8fbb
00000150: 4e60 04be 5b14 e13d 480b f8bc 8ef5 dfbc
00000160: 14ad d33d 4082 b13d a96d 073c 0d92 fabd
00000170: f2f8 043e 4ef6 abbc 0c1e 76bd 5049 4f3d
00000180: ed95 9b3d ce8a d7bb 7a54 0a3e d17c 81bd
00000190: a4c6 ac3c 7a9b ffbc d669 5ebd d214 443d
000001a0: 86a9 c43d c472 b7bd 46b9 d63d 19a2 7bbd
000001b0: d48c e0bd b2e7 69bb a689 8d3d 2b13 ab3c
000001c0: e858 903d 2639 d23c 548e 0c3e 89d6 18bd
000001d0: df90 51bd 105c d53d 72c8 033d 31be 4f3d
000001e0: 5613 523d 9c8e bebd a765 d1bd 8821 c3bc
000001f0: 8d5d 87bd bf54 2cbd 39b6 71bd 1079 da3d
00000200: 2637 90bd b3e5 aabc bf81 e83d c8bf cd3d
00000210: e6b1 d43d 92be 8b3d 48e7 893c 69aa 5f3c
00000220: dba5 d33d 219e 1c3d 31c0 a13d b049 6e3c
00000230: c81b e53d dcb8 e53d 6dcd edbc af36 31bd
00000240: d239 a83d 827d 9abd 622e c1bd 9a03 5f3d
00000250: 11e2 f83c c43e 9c3d ac9c e7bd b358 873c
00000260: e80e 89bd 2bb2 063d a6c0 cd3d 5b27 d83d
00000270: 1f40 03be adb7 8ebd a8af 563c 9bbb 51bd
00000280: f1da b6bd 9eda c53b eb8f edbd 2c05 80bc
00000290: 3d48 5fbd 3970 62bc b1f0 ab3c 06fe 43bd
000002a0: 2495 163d f21f 76bb e5a8 043e ea24 65bd
000002b0: 2d21 79bd 639b 5b3c 3df8 5dbd a90e 8e3c
000002c0: 309e c13d 1c7f 02be 98b1 a73d 908e f6bd
000002d0: 916e 07be 456c d13d 5d78 45bd 5af1 bdbd
000002e0: 1c1f ca3d 3846 e03d 3d3e 803c d0df 75bd
000002f0: c39e d03d 0839 c2ba 233f 93bd 2f9d 82bd
00000300: ce34 dd3d 6c29 ff3c 5e37 8fbd 72e1 063e
00000310: cd04 b13b 83bc b73d e635 953d 4bac ff3d
00000320: 2790 abbc 9663 443e 1a6f 9e3d 8142 eebc
00000330: 3c35 eebc fdb5 8d3e a6af e63a 87bd 9c3c
00000340: 28c9 b73d dc40 4b3c f78a 323c 6dab 4cbd
00000350: aeff 0cbd 3dd2 4abd 4d88 bd3b 75ce 8f3d
00000360: 033e 983d ea16 223c f5c7 9e3d cb36 813d
00000370: ff17 db3c b00f 893d b016 07bd 7c2b 80bc
00000380: 8b19 233c 775b b43d bbdb 13bc a419 eb3d
00000390: 2a40 d2bd b205 0d3e 4715 a23d 9745 babd
000003a0: dce2 313d e7d6 fe3d 0afa 7ebd f7c4 a73d
000003b0: 3470 333d ec4b 1a3e 8a09 ec3d 3c64 91bd
000003c0: 0e19 d83d 5f56 af3d 02e2 91bd b09a 4abd
000003d0: 35d4 4fbd 7961 d6bc 922c bd3c cba0 a5ba
000003e0: 3df9 e33d 53b9 7c3d 9afc 8d3d 8807 8abd
000003f0: afbc 313e fe52 b6bd af4a 87bd d839 89bd
-0.016218001 0.0819064 -0.12238315 0.16603251 0.0845864 -0.038572032 0.21757168 0.05567065
0.12859449 0.15012613 0.20632344 -0.006376436 -0.07115121 0.43566746 0.07023114 -0.029283695
0.1885404 -0.0779239 0.08780568 -0.029829128 0.04997691 0.1344457 0.1211834 0.14896679
0.06632026 0.012430805 0.019712871 0.035738997 -0.060985994 0.029189525 -0.047963038 0.03542208
-0.0027603516 -0.074183136 0.06482728 -0.042487614 -0.07596945 0.0173656 0.09848004 0.058602385
0.0072982237 0.00038930983 0.05803912 0.007816616 -0.06919568 -0.01826976 0.05711638 -0.011421751
0.1065105 -0.09777807 -0.011305969 0.06885534 -0.06512726 -0.006961517 0.14411671 0.056976564
0.14319962 -0.020212367 -0.04377474 0.052564427 0.19745696 0.020406717 0.079351395 0.049092047
-0.06892697 -0.089793235 -0.13115823 0.08316243 -0.019329935 0.036462735 -0.039028592 -0.098489024
0.045443065 0.041484125 -0.1064118 0.02982048 -0.025491133 0.21557519 0.1602641 0.12351437
-0.0073707337 0.07188295 -0.10453714 -0.004366197 -0.12927362 0.109902106 -0.030278817 -0.02733877
0.103357464 0.08667421 0.008265891 -0.12234888 0.1298559 -0.02099147 -0.06008725 0.050607026
0.075969554 -0.006577826 0.13508788 -0.06322635 0.021090813 -0.031202067 -0.05430015 0.04787142
0.096026465 -0.08957437 0.10484557 -0.061433885 -0.10964361 -0.003569108 0.0691102 0.020883163
0.070482075 0.025662016 0.13726169 -0.03731397 -0.05116355 0.1041795 0.03217358 0.05071849
0.05128797 -0.09304544 -0.10224467 -0.0238197 -0.0660964 -0.042073008 -0.05901167 0.10667622
-0.07041769 -0.020861482 0.11352872 0.10046345 0.10385494 0.06823458 0.016833916 0.013651469
0.10334369 0.03823674 0.07897986 0.014543936 0.111869395 0.112169 -0.029028619 -0.04326504
0.08214153 -0.0754347 -0.09432675 0.054446794 0.030381234 0.07629159 -0.1130918 0.016521787
-0.06692296 0.032884758 0.100465104 0.105543815 -0.12817429 -0.06968627 0.013103403 -0.051204305
-0.089284785 0.006038024 -0.11599716 -0.015627466 -0.05451225 -0.013820701 0.020988794 -0.047849678
0.036763325 -0.0037555662 0.12955053 -0.055943407 -0.060822655 0.013403746 -0.054191817 0.017340975
0.09454 -0.12743801 0.0818817 -0.120389104 -0.13225771 0.10225729 -0.04821049 -0.0927455
0.09869215 0.10950893 0.015654678 -0.060027897 0.101865314 -0.0014818022 -0.07189777 -0.06377637
0.10801087 0.031147681 -0.06992982 0.13171938 0.0054021836 0.08971503 0.07285671 0.12484034
-0.02094276 0.19178614 0.07736035 -0.029084446 -0.029078119 0.2767791 0.0017599955 0.019133342
0.089739144 0.0124056 0.01089739 -0.049968172 -0.034423523 -0.049516905 0.0057840706 0.070218004
0.07433703 0.009893158 0.077529825 0.06309279 0.02674484 0.06692445 -0.03298062 -0.015645735
0.00995482 0.08806508 -0.009024556 0.114795 -0.102661446 0.13771704 0.079142146 -0.090953045
0.04342924 0.12443333 -0.062250175 0.08191865 0.043808177 0.15068024 0.11525257 -0.07099196
0.10551654 0.08561396 -0.07123186 -0.049463928 -0.050739486 -0.026169525 0.023092542 -0.0012636421
0.11131523 0.061700176 0.069329455 -0.06739718 0.17357133 -0.08902548 -0.06606042 -0.06700486

lstm.bias_hh_l0 f4 [256]
00000000: e876 3bbd 9933 653d e95f a1bd d50d 0a3d
00000010: 67cf 803c 7bd6 3c3c 4420 013e 3822 dc3d
00000020: 2e1f 9fbc b9d7 083e 5839 413e a545 0d3e
00000030: f11e 0b3d deb1 c83e b7a7 453e 875c c93d
00000040: d12e 0bbd 4b91 abbd 7ae7 bc3c bcca 763d
00000050: 79a5 093d 4227 f53d 97d3 733d 8964 b93d
00000060: 386d eaba c4d1 ae3d 8594 083e df60 183e
00000070: 62a6 5f3d fab9 fe3d 222b 203d 05c0 113e
00000080: a6da 053e 70ee c3bc e2f3 ed3d 49bf 033e
00000090: aa5f 9bbc 0d49 4ebd 23ac d93d 76ca 7fbd
000000a0: 37f7 1c3e 134d 44bd ed05 b63d e988 483d
000000b0: 15bd f13d df05 093e e375 99bd e7bf 1cbc
000000c0: 200f 67bd 8ae1 9ebd 4656 983d a034 f23d
000000d0: 5911 f53d c4fb bbbd 1884 893d 57e7 443d
000000e0: 2a0c 1b3d e4be 34bc d087 4c3d 0d7c 1e3e
000000f0: 1d7b 1b3e b4b4 463d c4cb 033e 2de7 dfba
00000100: cd34 a33c f301 01be 9a24 813d 65c4 053d
00000110: 404a ad3d 4893 77bd d4f6 8b3a 2fa9 b83d
00000120: ca76 35bd ba00 7a3d 04f5 963d e516 5f3c
00000130: dc4a 42bc b6fd 5b3e a98a ce3d d777 553d
00000140: 7eeb 03bc 3242 15bd d1ba e13d 7842 59bc
00000150: d901 aa3c 0755 61bd 1350 513c 63c6 a8bd
00000160: 22a2 90bd 0ad0 833b c26d b33c e737 dcbd
00000170: 8882 f83d 2c87 c33d 5222 aa3d d640 993d
00000180: d923 d5bd 575b 153e 334a 45bc 1e15 e83d
00000190: 77bb 2a3d b3cc e03d a55f 68bb b426 e1bd
000001a0: 7351 723d 86d7 c73d 4ff1 f1bc 5ecb ad3d
000001b0: cffd 333c 7e21 343d ca38 523d 0a87 943d
000001c0: 7397 db3d 56b6 70bd 4c2b 4b3d a0a7 c5bd
000001d0: b0de 8d3d 997a bf3c 29bb 87bd 7b44 70bd
000001e0: f637 22bd 7561 af3c 6823 acbc 71ad 893d
000001f0: 2d58 d23d 85f5 2ebb 9e55 df3d 07d3 203d
00000200: 6c9d f73d abf8 c63d 55c7 953d 2c5c 98bd
00000210: 3c11 d13d 0e77 95bd 1558 07bd 22d3 8b3d
00000220: 4532 94bb 958a 3fbd 509c 1fbd 8947 f3bd
00000230: 0c20 ee3d 9c5e cbbd 5757 c83c 37ce 3fbd
00000240: 0136 e93c 6893 00bd 02ba a13b c0c9 29bd
00000250: a03e e3bd 7e3b b7bd d3a9 4abd e52b 1c3d
00000260: 3ad0 f6bd a357 87bd 4d1a 44bc 3a77 8cbc
00000270: 1272 94bd af1a 883d deb9 ab3d dfbd c33d
00000280: 6aa6 7ebd b455 0abd 9549 cdbd 9e7b 603d
00000290: b381 80bd 6ca4 7b3d ad34 d03d fe79 6cbd
000002a0: 7993 01be dcc0 2dbd 8477 11bc 45f0 1b3c
000002b0: a975 6bbd 23d8 e73d 3f31 bbbd 5f3a a03d
000002c0: 30bb b03d e8f9 2e3d 0ac5 923d 7e65 563c
000002d0: 204b 803d b3e1 c93b afb2 f8bd c1c6 86bb
000002e0: 3ffc 4cbd e3d3 193d dce6 c1bd 0276 dd3d
000002f0: 0d9c 373b d23e 60bd 8f14 ea3c 27bb 033d
00000300: 17b8 1d3e c15d 4bbb 92fa bbbd 9b54 7a3d
00000310: 6136 f53d 7ede 293e f3d7 8a3d 2abb f53d
00000320: 27e7 de3c ac8b 423e 0196 f03d 04ed 17bd
00000330: f49b f43d e4ca c53e fbeb 833b bae6 61bd
00000340: fb25 2d3d 3d9b dd3d e27b 543d 7b9b 5bbd
00000350: 2ae2 03bc ace9 003d b02c ea3d 5fe5 06bd
00000360: cfcd 0f3e 1dd2 833c 96bb 4a3d 4be0 63bd
00000370: 75e5 b13d e0df 553d 770d 42bd 7ea1 e8bc
00000380: ccae c6bd 6ede c03d 8839 9abd a480 bf3d
00000390: f6c5 36bc 41cf 063e 5e05 fb3c 38d5 863d
000003a0: b101 993d 88e9 c63d 2c51 64bd 55a6 303c
000003b0: b6fe cbbc 5a26 fe3d 8086 bbbd 3034 ed3c
000003c0: 2a4a 8b3d 2628 363d aa44 80bd 1ead a3bd
000003d0: 1b89 a13c f63e df3d fa8a 17bd 29c4 bcbb
000003e0: 331a 1f3e 896a a33d 26fc 143d a7f3 87bb
000003f0: 4407 653e ce29 99bd cf11 caba f87c 0bbd
-0.045767695 0.05595741 -0.078796215 0.033704598 0.015723897 0.0115257455 0.12609965 0.10748714
-0.019424047 0.13363542 0.18869531 0.13796099 0.033965055 0.39198202 0.1930226 0.09832101
-0.033980194 -0.08377322 0.023059595 0.060251936 0.033605073 0.119703785 0.05952796 0.09052379
-0.0017885333 0.08536103 0.13337906 0.14880703 0.054602034 0.12437816 0.039103635 0.14233406
0.13071689 -0.023917407 0.116187826 0.12865938 -0.018966515 -0.050362635 0.106285356 -0.06244894
0.1532868 -0.047925066 0.08887849 0.048958693 0.11803643 0.13381146 -0.07493188 -0.009567237
-0.05641091 -0.07757862 0.0743833 0.11826444 0.119661994 -0.0917888 0.06714648 0.048072185
0.037853397 -0.01103184 0.04993421 0.15477009 0.15183683 0.048512176 0.12870699 -0.0017082446
0.019922638 -0.125984 0.06305809 0.032658 0.08461428 -0.060443193 0.0010678419 0.09016644
-0.04430274 0.06103585 0.07370952 0.013616298 -0.011858668 0.21483502 0.10085041 0.05211624
-0.008051751 -0.036440082 0.110219605 -0.013260476 0.020752834 -0.05501273 0.012775439 -0.08240964
-0.070621744 0.004022603 0.021902923 -0.1075285 0.12134272 0.09547266 0.08307327 0.074830696
-0.10407228 0.14585625 -0.012041616 0.11332153 0.041682687 0.10976543 -0.00354574 -0.1099371
0.059159707 0.09757905 -0.02953401 0.08486055 0.010985806 0.043977253 0.05132369 0.07252319
0.10722246 -0.05876764 0.049601838 -0.096511126 0.0692724 0.023373889 -0.06627495 -0.058659058
-0.03960415 0.021408776 -0.021012977 0.067225344 0.102707244 -0.0026696634 0.10905002 0.03926375
0.12090573 0.097153984 0.0731341 -0.074394554 0.10208365 -0.072980985 -0.033042986 0.0682738
-0.004522594 -0.04676302 -0.03896743 -0.118788786 0.11627206 -0.09930155 0.02445571 -0.04682752
0.028468134 -0.031390578 0.004935504 -0.04145217 -0.11095929 -0.08946894 -0.049478363 0.0381278
-0.12051435 -0.06608512 -0.011969161 -0.017146695 -0.0724832 0.066457145 0.08385061 0.095576994
-0.062170424 -0.03377314 -0.100238 0.05480539 -0.06274738 0.0614361 0.10166297 -0.05773353
-0.12653913 -0.042420253 -0.008878592 0.009517734 -0.057485256 0.11320522 -0.09140252 0.078236334
0.08629453 0.042718798 0.071664885 0.013085721 0.06264329 0.0061609386 -0.12143456 -0.004113049
-0.050045248 0.037555587 -0.09467861 0.10813524 0.0028016597 -0.05474741 0.028574256 0.032160904
0.15402256 -0.0031031223 -0.09178652 0.061115842 0.119732626 0.1658878 0.0677947 0.11998589
0.027209831 0.18998593 0.11747361 -0.03709127 0.11943808 0.38631356 0.004025934 -0.05515168
0.04227255 0.10820625 0.051875956 -0.053615075 -0.008049527 0.031472847 0.11434305 -0.03293359
0.14043353 0.0160914 0.049495302 -0.055633824 0.086863436 0.052215457 -0.047376122 -0.028397318
-0.097013086 0.09417425 -0.075305045 0.09350708 -0.011155596 0.13164999 0.030642208 0.06583637
0.07471026 0.09712511 -0.055741474 0.010781844 -0.02490173 0.12409659 -0.09156513 0.028955549
0.06801255 0.044471882 -0.06263097 -0.07992004 0.019718697 0.10900681 -0.036997773 -0.005760689
0.15537338 0.07979304 0.03637328 -0.0041489187 0.22366053 -0.07478677 -0.0015416684 -0.034054726

fc.weight f4 [1, 64]
00000000: c50b 053d 4500 ca3c 6a75 ae3b 20d3 9cbd
00000010: 0bb8 03be bd0f b6bd 2516 5e3e 5bfe 36bb
00000020: bbde edbd 222d 423e 7877 b0bd bd0d 103e
00000030: 1805 b6bd 1542 86be 4238 de3c 061d f7bd
00000040: 415d aa3d 164a b3bd 7b29 ea3d 55fd 4cbd
00000050: df12 0d3e e612 0b3e e21b c7bb d8c9 0b3e
00000060: dedb 0f3e 75fe fabd 15fe 5bbd 39fb febd
00000070: 0931 6bbd ecaa f33d 1978 c93c 28e5 16be
00000080: 1238 033c 3772 95bd f16e e6bd 1479 0bbe
00000090: bec4 6bbd 0d33 1c3d 7cb0 f5bd 8202 d63d
000000a0: 6daf c1bd ef85 73bd 083e d93d af8e 8fba
000000b0: d658 01be 9bb4 aa3c e2dc f93c 0f11 7d3d
000000c0: 843a 00be 6eb8 b2bd 2894 4f3d af22 13be
000000d0: 928d 10be e9bd a2bd 005c 48bd bf19 35bd
000000e0: 57a9 0e3e 4199 c6bd e7f9 b0bd 6289 e33d
000000f0: c541 c5bd c8e7 b5bd 2905 14be a5f7 0d3e
0.032481927 0.024658332 0.0053240554 -0.076574564 -0.12863176 -0.088897206 0.21688135 -0.0027922604
-0.11614748 0.1896253 -0.08616537 0.1406774 -0.0888769 -0.26222292 0.027126435 -0.12066083
0.08318568 -0.08754365 0.11433693 -0.050046284 0.1377673 0.13581428 -0.006076322 0.13651216
0.14048716 -0.12255565 -0.05370911 -0.12450261 -0.05741981 0.11897835 0.0245934 -0.14735854
0.008008974 -0.072971754 -0.11251629 -0.13620406 -0.057560675 0.038134623 -0.11996552 0.10449697
-0.09457288 -0.0594539 0.10607535 -0.0010952557 -0.12631544 0.020838073 0.030500833 0.061783846
-0.12522322 -0.087265834 0.050678402 -0.143687 -0.14116505 -0.07946379 -0.048915863 -0.044214007
0.13931786 -0.096971996 -0.08641415 0.11110188 -0.09631685 -0.088820994 -0.14455093 0.13864
