output/river_level_predictor_ep100_lr0.0008_lu5_at_y/model.pth (torch, 94779 bytes, 6 tensors)

linear.weight f4 [1, 2]
00000000: 9e57 5abe e060 27be
-0.21322486 -0.16345549

lstm.weight_ih_l0 f4 [256, 24]
00000000: b96c 023e b33f d13c cf97 4f3d c70c d23d
00000010: 264f 223d b148 93bd 9fb1 863d ef47 943d
00000020: ff91 043e 2f93 56bd 21f4 e33d 7fdb 013e
00000030: 40b8 9fbc 9531 ecbd 1105 96bd 11d2 0a3e
00000040: 603f 133d fa72 aabd 988b 913d 4ff7 4a3d
00000050: b85d 84bc 9d55 4fbd d86b 5c3c 8d04 043d
00000060: 495d c23e c863 3d3e 9485 9e3d ecbe 1e3e
00000070: 3f83 fd3c 43af 8bbb 82c5 ec3d 68d7 6b3e
00000080: 0cfe 123e 8a89 373e 45bc 7f3d fc2b d23d
00000090: d4c7 92bd c868 9e3d c183 d0ba e2d8 a73d
000000a0: b047 ad3c 8395 29bc 84e3 1f3d 8d58 c63d
000000b0: d6be 3abc 7ad2 6f3e 250d 003e 0b43 1e3e
000000c0: 6ac5 08be 0b38 92be c045 1f3c 50fa d43d
000000d0: fc91 8dbd fc91 593d 2aa7 80be 7f1b 21be
000000e0: 9db0 3a3e 3582 063e 3590 82bc 710f 813d
000000f0: 0888 a7be 5dc9 82be a073 5b3c c8ef 3a3e
00000100: e974 273e d49c bbbb b408 b9be 794a 86be
00000110: b6bb 96ba e424 473e 5ef2 8f3d 742c 563d
00000120: 3f28 593d 35d3 cc3e 030d ae3d 56ef 64bd
00000130: 317c d33d ad92 c83d 3f6f 623d 6d38 4c3e
00000140: a239 b3bc 1ac8 c43d 2e34 f0bd b463 193d
00000150: e8d1 a63c f797 b13e de8d 72bc 04d0 b03c
00000160: 1788 dfbc 1484 b03d 321b 173d ef15 9b3e
00000170: 8cc9 43bd 8c54 b1bd 2b2c 84bd 512a d33d
00000180: f5ad 22be 2c1f 55bd 5e8e 463e 9cd8 05bc
00000190: c4b8 d13d 5141 943e c63e 9dbd 640e 45bd
000001a0: 63d6 8a3e 542e 3b3d c6a4 b33d 35f8 6d3e
000001b0: df75 063e 8414 5abe 77d1 8a3e 0b84 053e
000001c0: e814 1d3e 0a5a 043e f930 043f 9504 d5bd
000001d0: d372 023e 73b0 3c3e 47b0 223d 6850 803e
000001e0: face f83c 64a1 3cbd fc5f c43c dbd1 073e
000001f0: 15bf d83d 4986 8d3e c210 b8bd 41d6 de3d
00000200: a0e7 8d3d b418 d63d 172b 493e d649 453d
00000210: 6a13 b53e 022a 24bc 288b bf3d 6a16 cf3d
00000220: 9ff4 ec3d d327 253e 0938 cf3e 0645 833d
00000230: ee41 9a3d b232 083e 522b 9d3c e82d 253e
00000240: 60b5 953d 5bc3 a8bd 0d7e 0dbb adf2 4c3d
00000250: 1d40 e33d 9738 f63d bc41 87bc 6979 eb3c
00000260: cad0 b63d 60ae 113e 1a0e 153b 0553 bd3d
00000270: 2a71 e03d aff9 5fbd 55b1 693c b3f7 d23c
00000280: 2273 ce3d 8819 043e eb1b 173e 636d 0ebd
00000290: 15c3 3a3d 1b84 943c c733 bdbc b422 e63d
000002a0: bc55 ca3d 5cbc b03d 639d aa3d e13d b93b
000002b0: 3b41 1fbe 2db4 73bd cc3c a7bd 2550 223e
000002c0: 389b 5bbc a69d 1c3e c0e2 d3bc 6d17 33bc
000002d0: e519 96be 24a2 87bd c131 ccbd cd33 5f3d
000002e0: 84b6 3ebd fc92 28bd d87f 5cbe c67c 983d
000002f0: 3755 2a3c 2d03 043e 228f c03c 5332 2ebd
00000300: a720 29bc dae4 d9bd 749e dcbc c6f6 fbbb
00000310: 7e11 233d 3280 8c3d 1cf8 b33d e1b5 0fbc
00000320: aeb1 913d e90b 1dbd 20e6 fd3b ad9c 363c
00000330: adc8 c8be 5271 5ebd 2af4 fc3d 262c 75bd
00000340: c3c5 8bbd a8e1 963d d999 03bf ce8e 3bbe
00000350: 88bd c03c 795e be3c 47b4 d4bd cd40 f23d
00000360: 78f0 2c3d 2bf6 29bd ab16 1e3d 741f a53c
00000370: ee8c 8f3c 033b 83bb f7c6 113d 82d5 acbd
00000380: b832 4e3d b306 8fbd 77b9 d23c 333d 213c
00000390: f60d 0a3e 431a 1b3d ccdb da3d a99a f53d
000003a0: d7b7 e03c 975b d13d 144a 013e 27f9 5a3c
000003b0: e702 053e 8539 be3d b23d e2bc 38dd 363d
000003c0: a970 f13c 4f5e 28be 0ec9 043e 5d1c 413e
000003d0: 734a 053d 5cd7 663d 69c8 413e b775 15be
000003e0: a6ee ea3d fa91 163e 3f2f a03d 5f28 fa3d
000003f0: f1be 113e 295b 73bd 28fb 863c 56b8 6e3e
0.12736787 0.02554307 0.050681885 0.10256343 0.039626263 -0.07191599 0.06576847 0.07240283
0.12946318 -0.05238646 0.11130548 0.12681387 -0.019497037 -0.115328945 -0.07325185 0.13556696
0.03594911 -0.08322711 0.071067035 0.049552258 -0.01615797 -0.050618757 0.013453446 0.032230902
0.37961796 0.18495095 0.07740322 0.15502518 0.030946372 -0.004262836 0.11561109 0.2303139
0.14354724 0.1792356 0.062435407 0.102622956 -0.071670204 0.07734829 -0.0015908406 0.08195664
0.021152347 -0.010350588 0.039035335 0.096848585 -0.011398038 0.23420134 0.12505014 0.15455262
-0.13356557 -0.28558382 0.00972122 0.10399306 -0.0691261 0.053117737 -0.25127536 -0.15733145
0.18231435 0.13135608 -0.015937904 0.06301773 -0.3272097 -0.25544253 0.013394266 0.18255532
0.16353191 -0.0057254825 -0.36139452 -0.26228693 -0.0011500034 0.19447666 0.0702865 0.052288488
0.053016897 0.40004888 0.084985755 -0.05589231 0.10326422 0.09793601 0.055281874 0.199434
-0.021878067 0.09608479 -0.117287025 0.0374486 0.020363763 0.34686252 -0.014804332 0.021583565
-0.027286572 0.08618942 0.03689117 0.30290172 -0.047799632 -0.08658704 -0.06453737 0.103108056
-0.15886672 -0.05203168 0.19390246 -0.0081693195 0.10240319 0.28956082 -0.07677989 -0.048109427
0.2711669 0.04569848 0.087716624 0.23239215 0.13130902 -0.21296889 0.27112934 0.13038652
0.15340006 0.12924972 0.51637226 -0.104012646 0.12739114 0.18426685 0.039718892 0.25061345
0.030372132 -0.04605235 0.02397155 0.13263647 0.10583321 0.27641514 -0.08987571 0.108807094
0.069289446 0.104539305 0.19645344 0.04816612 0.35366374 -0.010019781 0.09352714 0.10111697
0.11570095 0.16128473 0.4047244 0.064096496 0.07532106 0.13300589 0.019185696 0.16130793
0.07309985 -0.08240386 -0.0021590025 0.05003612 0.11096213 0.120225124 -0.016510837 0.028744416
0.08926542 0.14226675 0.0022744 0.0924435 0.10959084 -0.054681476 0.014263471 0.025752878
0.100805536 0.12900364 0.14756744 -0.034772288 0.0455962 0.018129399 -0.023095978 0.11237088
0.09879634 0.08629677 0.083308004 0.0056531285 -0.15552227 -0.059498 -0.08165893 0.15850885
-0.013403706 0.15294513 -0.025864959 -0.010930878 -0.2931663 -0.06622723 -0.09970427 0.05449276
-0.04656078 -0.0411558 -0.21533144 0.07445674 0.010396293 0.12891836 0.023505751 -0.04252846
-0.010322726 -0.10639353 -0.026931025 -0.00768933 0.039811604 0.06860389 0.087875575 -0.008771391
0.07113968 -0.038341437 0.0077483803 0.011145753 -0.39215603 -0.05430729 0.12351258 -0.059856556
-0.068248294 0.07367259 -0.5140663 -0.18316194 0.023527876 0.023238407 -0.10385948 0.11828766
0.042221516 -0.04149453 0.038595837 0.0201566 0.017523255 -0.0040048375 0.03559014 -0.08439161
0.050341338 -0.069837 0.025723202 0.009841251 0.13481888 0.037866842 0.10686454 0.1199239
0.027431412 0.102225475 0.12625915 0.013365067 0.12989388 0.09288315 -0.02761731 0.044644564
0.029472666 -0.16442226 0.12967321 0.18858476 0.032541703 0.056357726 0.18924107 -0.14595686
0.114713 0.14704123 0.078215115 0.122147314 0.14232995 -0.05941311 0.016477183 0.23312506

lstm.weight_hh_l0 f4 [256, 64]
00000000: 48a7 f13d e6fb a5bd 0c8d 71bd f81e 383d
00000010: 0af1 783d 4cb6 ab3d 0219 14bc d473 69bd
00000020: b5bf 563b 5e16 38bd f44c 8c3c fbd1 ed3d
00000030: c937 08be d703 d4bd d29e 1fbd da23 19be
00000040: 2b69 203d 1758 1d3e 5544 963d 0016 36bd
00000050: bd08 3ebd 536a b3bd 8876 7abd d22c 05bd
00000060: 3b4a d9bd f51a c0bd 4cf6 92ba 29fc ce3d
00000070: bb92 1abd 71ff e8bd 7948 c0bd 8950 92bd
00000080: 2543 eabc 7031 923d 63cb c13d 2907 0dbe
00000090: d67a 063d 07b5 1b3c 7bfc c9bc 7e89 1fbd
000000a0: b76c e1bd bbe1 a5bc 80eb 74bd ebe7 9cbd
000000b0: f126 0dbd 42fd 993d 0021 c0bd 9cdd b53d
000000c0: 1a8e 2b3d 0d7d 5a3d aae2 9dbd 0f40 f73d
000000d0: 5b81 2dbd 3af2 bf3d f273 153d 3e55 58bc
000000e0: 5271 debc 99f0 823d e091 cf3d 1612 90bd
000000f0: 2361 663d e83c e6bd 3f0d fa3d 1189 1e3d
00000100: 1a6d 7ebe 711c a43e f86b ca3d 55a8 51bd
00000110: d017 31be 1d30 7b3d aedb 81be 9da4 03be
00000120: b2c8 77be 8f15 0cbe d762 ac3e c2a8 22bd
00000130: d5dc 77be 3f74 2f3e ec77 8f3e 329d 83be
00000140: 6862 0a3e 55cc 943e 31d2 44be 0bd9 663e
00000150: 714b 2a3c 588d 66be 377b 30be 572d b13d
00000160: 87ab ff3d 87c0 77be 08a8 2b3e c0d4 23be
00000170: 071f 5bbd 1c1a b73d 3dfe 8dbe ce68 b1bd
00000180: ed46 6fbd ca01 7bbe 4944 6a3d 3d6e 50bd
00000190: f283 f63d 4b35 2ebe 4748 20be 3653 893b
000001a0: c850 6dbe fcbb 17be f237 863e 9f12 863d
000001b0: 0e7a b63d db45 9bbd ae07 883d bc78 423d
000001c0: 68d8 23bd 8156 2dbe 9db1 37be c5de 52be
000001d0: 9937 e9bd 032a 81be dd41 ec3d 0a79 d93d
000001e0: 379d 8fbd 10ef a23e 3d38 8e3e e6df f1bd
000001f0: 0112 293e 71d0 b03d a435 543e e549 adbd
00000200: bb16 fd3c 73d3 363d c32f 353e e2f3 52be
00000210: edcd 683e 762a d13d d650 6f3d 24fb 043d
00000220: dc07 3bbe 91c0 ecbd 6662 af3d 20d1 213d
00000230: 25d2 73bd 9dc4 2f3d a046 ad3d 9566 0bbc
00000240: b159 9a3d c323 553e de3b 37bd 16d2 313e
00000250: c12e 87be 3fec 07be 932e 20be f1d8 f0bb
00000260: 215c 1e3e 41af 9cbd 5b4e 5f3e 881d ddbd
00000270: 15a3 0abe 1b9d 2e3e 602e c5bd bcae 80be
00000280: badb 97bd caad 83bd 9055 1b3e 33ae 15be
00000290: 31a4 6b3d fa91 f0bd a6b6 0dbd b35a 2f3e
000002a0: d2ca 41bd cb7e 323d 5f5f b23d 688c 0e3e
000002b0: a548 cb3d 6ea0 bc3c 71ca 233e ae59 04bf
000002c0: 7acb 4abd 2ee9 fdbd 3479 cabd c1df abbd
000002d0: f437 0ebe 5016 cabd c7c0 023e 10ae 2e3e
000002e0: 11ab 27be ff8e f23d 565a 433e b18a 43bd
000002f0: 3885 173d ad76 393e 5c51 043e a8ae 59be
00000300: 0e66 dfbd 4855 a0bb bf2f 94bd a3d6 573c
00000310: 4865 c6bd 0ecb 143d 5d62 00be a70f 46bd
00000320: 3da7 623c d01c 9cbc 311f 8e3d b3dc 0f3c
00000330: 2fba 23bc 3ebe 39bd 0447 44bd 7ac4 ebbd
00000340: 4769 c6bc a674 d3bd 2ed1 8e3d 0741 bebd
00000350: 44dd 16be 386e fabd 8c42 2dbe 4701 7fbd
00000360: 43bf 803e 0164 00be 6cb7 d43d 7010 1cbe
00000370: d5bd c9bd 2f90 0ebd e82a 22be 8548 8b3d
00000380: cf98 fe3b 42c0 f5bd b9a3 ad3d 0127 3abd
00000390: 011e 51bd e8b7 e23c 2637 dabd f98a 1cbc
000003a0: 2b44 1abc 0b0d cebc dc48 443d 78f3 8dbd
000003b0: 5e04 fe3d 3d3c efbd e903 85bb 7074 013e
000003c0: 1c7e e7bd dd84 aebb 24ab 6d3c 6fec e4bd
000003d0: ac1f 32be e8f1 91bd 2da3 15bd 7881 1abd
000003e0: 0abc 16be ba0d 25bd 8b22 023c 9c5e 26be
000003f0: b8d3 e83d 1e3e 57bd d748 1a3e 0880 5fbe
0.117994845 -0.081046864 -0.058972403 0.04495141 0.060776748 0.0838438 -0.009039165 -0.056995228
0.0032768075 -0.044943206 0.017126538 0.11612316 -0.1330253 -0.10352295 -0.038969822 -0.14955083
0.039162796 0.15365635 0.07337252 -0.044454575 -0.046395052 -0.08760514 -0.061148196 -0.032513447
-0.106098615 -0.09380142 -0.0011212318 0.101066895 -0.03773759 -0.113768466 -0.09388823 -0.07144267
-0.02859647 0.07138336 0.09462621 -0.13772263 0.03283199 0.0095036095 -0.024656525 -0.038949482
-0.11007064 -0.020249238 -0.059794903 -0.07661422 -0.034460966 0.07519008 -0.09381294 0.08880159
0.041883565 0.053341914 -0.07709248 0.12072765 -0.04235969 0.09372373 0.036487527 -0.013203917
-0.027153645 0.063935466 0.10135245 -0.070346996 0.05624498 -0.11242086 0.12209558 0.038704935
-0.24846306 0.3205295 0.09883875 -0.051185925 -0.1729424 0.06132518 -0.25362915 -0.12855764
-0.24197653 -0.13680099 0.3366916 -0.03971172 -0.24205334 0.17134188 0.2802118 -0.25705868
0.13514102 0.29062143 -0.19220807 0.22543733 0.010393963 -0.22514856 -0.17234503 0.08651226
0.12483888 -0.24194537 0.16763318 -0.15999126 -0.053496387 0.08940527 -0.2773303 -0.08662568
-0.05841725 -0.24512401 0.057194028 -0.05088638 0.12036885 -0.17012517 -0.15652572 0.0041908277
-0.23175347 -0.14817804 0.26214558 0.065465204 0.08909999 -0.07581683 0.0664209 0.047478423
-0.040001303 -0.1692753 -0.17938848 -0.20592792 -0.113875575 -0.25227365 0.11536 0.106187895
-0.07012408 0.31823015 0.2777728 -0.11810283 0.16510774 0.08633507 0.20723587 -0.0846136
0.030894628 0.044635247 0.17694001 -0.20600846 0.22734804 0.10213177 0.0584267 0.03246607
-0.18264717 -0.115601666 0.0856369 0.039506078 -0.05952658 0.042912114 0.08460736 -0.008508344
0.075366385 0.20814423 -0.04473483 0.17365298 -0.26402858 -0.13273714 -0.15642767 -0.00735008
0.15464832 -0.076506145 0.21807234 -0.10796648 -0.13538773 0.17052118 -0.09627986 -0.25133312
-0.074149564 -0.06429632 0.15169358 -0.14617233 0.057529632 -0.11746593 -0.034598015 0.17124443
-0.047312565 0.04357795 0.08709597 0.13920748 0.09925965 0.023025718 0.15995194 -0.5169934
-0.049510457 -0.12397991 -0.09886399 -0.08392287 -0.13888532 -0.09867537 0.12768851 0.17058587
-0.1637385 0.118436806 0.19077429 -0.04773969 0.03699228 0.18111677 0.12921661 -0.21258032
-0.10908137 -0.004892979 -0.07235669 0.013173732 -0.096872866 0.03632646 -0.12537523 -0.04835477
0.013833818 -0.019056708 0.06939543 0.008780646 -0.00999312 -0.045347445 -0.04791929 -0.11512084
-0.024220122 -0.10324983 0.069734916 -0.09289747 -0.14732844 -0.12228054 -0.16919917 -0.062257078
0.2514592 -0.12538148 0.103865474 -0.15240645 -0.09850661 -0.034805473 -0.1583668 0.068009414
0.007769681 -0.11999561 0.08478493 -0.045447353 -0.051054005 0.027675584 -0.1065505 -0.009554618
-0.009415667 -0.025152704 0.047921047 -0.069312036 0.12403177 -0.116814114 -0.004059304 0.12642074
-0.1130335 -0.005325897 0.014506135 -0.11177909 -0.17394894 -0.07126218 -0.03653257 -0.037721127
-0.14720169 -0.040296294 0.007942806 -0.16247028 0.11368507 -0.052549474 0.15066849 -0.21826184

lstm.bias_ih_l0 f4 [256]
00000000: 8f05 2ebd c4ed 8aba 91f6 d33d 2eaa 623d
00000010: 6dda 233d 0810 1c3e 4207 683e 1c15 9a3d
00000020: a88d 8abc aeea 01bd c342 793e 80c5 9ebc
00000030: 4e1c 173d 1294 2cbd e114 873d 3af2 143e
00000040: a13f 053e 480f 8a3e f012 0a3c 740b 963d
00000050: c6e4 133e 0245 27bd 8800 013e 90f3 55bc
00000060: 0c15 0f3e abff c73d 32a8 77bd 38cf 313e
00000070: 35de c6bb 19c0 93bc 9b38 c33d 53d2 31bd
00000080: 076f 143e d681 f7bc 48ac a33d 472c 7e3d
00000090: 896f 57bd 5c23 96bd eb76 fdbc cf35 703d
000000a0: 255f 7ebd 021d 213e 2cde 193d e21b 99bd
000000b0: 757f 283e 0efd 883d 70c1 dc3d 25d6 223e
000000c0: 80e2 8dbd 5507 fabc da76 e13d 3783 0d3e
000000d0: 0137 ec3d e7b2 1cbb 897a e1bc f004 7d3b
000000e0: 730c 40bd daea e03d bebf e538 1b7b 703b
000000f0: e1ae 9bbc ecfe 04bd e29b 1e3e 15c7 033e
00000100: f300 aabd 9e50 98bd 3715 123d e6ea 3ebd
00000110: 0e9a 9fbd 940c 9ebd c39a 4f3d 34c1 9d3d
00000120: efc0 e23d 3829 833d 73a8 84bd 467e fdbd
00000130: b138 5fbd f2ec d43d 06b3 f03d 8808 72bd
00000140: e71e e43d a384 afbc ab56 1a3d 1480 8f3c
00000150: d300 db3d cc61 a2bd 46d7 563d 342f e8bd
00000160: 13bc 923d c465 e53d 7389 0bbc 7dfe 9a3c
00000170: e84e 99ba b9be 1abd 8ba3 3cbc b85b 853b
00000180: 04d6 f4bc 19ea e0bc 9562 0a3c faa2 f9bc
00000190: 6288 c73d 3600 ec3c ad5f 8cbd 8326 b43d
000001a0: a359 3c3d af76 8dbd d95a aa3d 9bdd dc3d
000001b0: 9d92 023e 8286 8ebd 9410 cabc 43fe a73d
000001c0: 3c65 5e3b 1236 8dbd 043a 86bd 7d60 10bd
000001d0: 1b0e 3d3e 28f1 3c3d 13a2 1abd 2eff a93d
000001e0: db22 fbbb c83f dd3d eb12 d8bd 684b 043d
000001f0: d3c4 2c3d 66ca c5bd 770c 9a3c f125 683d
00000200: 7544 a2bd 12ad bd3d 6ed1 f83d f003 6fbd
00000210: 2fba 5c3d 8d19 83bd 0eef ccbd 8d47 fbbc
00000220: 5f72 b33d a345 c2bd f0d9 c43d 2c22 79bd
00000230: 4904 05be e924 b03d 893b febc e59d a73d
00000240: 3ff0 1bbd 7890 0cbd 89b2 e53c 4d35 793d
00000250: 5bfe c6bd b3b0 d2bd 2d5d 873d 30e7 e93d
00000260: 92a3 4dbd 0543 75bd 43ba 583d 8269 c63c
00000270: 5920 c3bd 0e24 b83d 7146 a0bd cad3 eabd
00000280: 8f84 203d bc1c d4bd 77ed 9c3d bb04 88bd
00000290: 904c d13c 9d99 40bd 059f 9cbd 43e9 e33c
000002a0: 1be1 95bd 1111 fe3d ad8f c0bb 022e ac3d
000002b0: d694 fa3d 54d5 a4bd b885 8b3d ef5f d43c
000002c0: 22d8 f3bd b60e 79bd b97e 683c 6da3 d4bd
000002d0: 8774 383b 966b dabc e7c8 993d 49b4 813d
000002e0: e333 41bd c1fe 3a3d 445e 573d ae3a 123c
000002f0: 6c49 e53d 4461 d13b f57d 123d 02e6 67bd
00000300: f46c bbbc 49e7 113e 0f64 b13d d07d 063e
00000310: bb9a 723e 1b2a 903d ed63 093e cfa1 063e
00000320: f7b7 0abd 0792 f33d e570 7c3e 770a 193b
00000330: 31be cf3d 2cb1 343d 048c fe3d 9f95 b53d
00000340: f2f1 dd3d 411b 823e 7ff3 7cbd e9ab 713c
00000350: 1e20 a33a c29a 013e f667 f63d 7c6c 203d
00000360: 8a8c f23d ed2c 9a3c 93ac 873d 80b3 0f3d
00000370: d3fd b13d d06d 2bbd 7407 37bd 0c47 f73d
00000380: b4a9 0cbc 855d 713d a1f5 c23d 9455 453d
00000390: 9b82 f13b 876e 933d bcd4 363e 588b 0d3c
000003a0: a33f 9fbd ae27 5039 ad54 6ebd df62 af3c
000003b0: a9c8 b73d e40b 52bc 0e74 af3d 35d9 123e
000003c0: 241e e23d 60ad af3d fccc 0abd e7ec ddbc
000003d0: 9baf 023e a116 f9bd 84d3 3f3d 6cf4 dfbd
000003e0: 9774 1b3e cf29 0a3d 9635 043e cfd5 903d
000003f0: bd30 c5bd f779 3fbd d1bd 083e d403 5fbc
-0.04248577 -0.0010599424 0.10349763 0.055338077 0.04000323 0.1524049 0.22659019 0.075235575
-0.01691325 -0.03171795 0.24341874 -0.019381285 0.036892228 -0.0421334 0.06595779 0.14545527
0.13012554 0.26964784 0.008427367 0.07326403 0.14442739 -0.040837295 0.12597859 -0.013058558
0.13972872 0.09765562 -0.060463138 0.17364204 -0.0060689696 -0.018035935 0.09532281 -0.04341347
0.14495479 -0.030213278 0.079918444 0.062053945 -0.052596603 -0.07330963 -0.030940494 0.058645066
-0.062102456 0.15733722 0.037565395 -0.07476021 0.16454871 0.06688891 0.10779083 0.15902002
-0.06927967 -0.030521074 0.11008997 0.13819586 0.11533929 -0.0023910345 -0.02752425 0.003860768
-0.046886873 0.109822944 0.00010955286 0.003669447 -0.019004287 -0.032469675 0.15489152 0.12868913
-0.08300962 -0.074372515 0.035664763 -0.046610735 -0.077930555 -0.07717243 0.0506847 0.07702866
0.110719554 0.06404346 -0.06477442 -0.123776 -0.054497425 0.10396756 0.11752896 -0.059090167
0.11138707 -0.02142555 0.03768031 0.017517127 0.106935166 -0.079288095 0.052451394 -0.11337128
0.071647786 0.11201051 -0.008516657 0.018920178 -0.001169649 -0.037779544 -0.011513601 0.0040697716
-0.029887207 -0.027455376 0.008446355 -0.030473221 0.0974281 0.028808694 -0.06854186 0.08796408
0.04598392 -0.06907403 0.08318109 0.107844554 0.12751241 -0.06959249 -0.024666108 0.082027934
0.0033934852 -0.06895079 -0.06554034 -0.03524827 0.18462412 0.046128422 -0.037752222 0.08300625
-0.007664067 0.10803181 -0.10550483 0.032298476 0.042179894 -0.09657745 0.018804772 0.05667681
-0.079232134 0.09261526 0.121493205 -0.058353364 0.053888496 -0.06401358 -0.100065336 -0.030673767
0.08762049 -0.094859384 0.09611881 -0.060823604 -0.12989916 0.0860079 -0.031034248 0.08184413
-0.038070913 -0.034317464 0.028039234 0.060841847 -0.09716483 -0.10287609 0.06609569 0.11421049
-0.05020482 -0.059878368 0.052912008 0.024220232 -0.09527654 0.08991252 -0.07825936 -0.11466177
0.039188918 -0.10357043 0.0766248 -0.06641527 0.025549203 -0.047021497 -0.07647518 0.027821189
-0.07318326 0.12405599 -0.0058765025 0.08407213 0.122354195 -0.080485016 0.06812614 0.025924651
-0.119064584 -0.060805045 0.014190369 -0.103827335 0.0028145628 -0.02666263 0.07509022 0.06333215
-0.047168624 0.04565311 0.052580133 0.008925123 0.11195645 0.006389769 0.035764653 -0.056615837
-0.022879101 0.14248385 0.08661663 0.13133931 0.23691837 0.07039281 0.13417025 0.13147663
-0.03386685 0.11893087 0.24652441 0.0023352185 0.10143698 0.044114277 0.124290496 0.088664286
0.10837163 0.25411418 -0.061755653 0.014750459 0.0012445485 0.12656692 0.12031548 0.03916596
0.11843212 0.01882025 0.06624713 0.035083294 0.08690991 -0.041852772 -0.044684842 0.12074098
-0.008585382 0.058927078 0.09519506 0.048177317 0.0073703057 0.07198816 0.17854589 0.008639179
-0.077758096 0.00019851208 -0.058186222 0.02140945 0.0897382 -0.012820218 0.085670575 0.1434067
0.11040905 0.085779905 -0.033886895 -0.027090503 0.127623 -0.12162519 0.046832576 -0.10935292
0.15181194 0.033731278 0.12911066 0.07072031 -0.09628437 -0.046747174 0.13353659 -0.013611753

lstm.bias_hh_l0 f4 [256]
00000000: 996c f03d 3b0f 673d 9e66 f43d 389a 88bd
00000010: 14ec 8b3e 4511 8d3e c122 073e 098f 133c
00000020: d9ae 1a3d f157 8fbd e4dc 573d fe06 5cbd
00000030: 5e85 b0bc 60ce 143d ac02 3e3d a91c 143b
00000040: e51f c43d eb0d ed3e 8900 d93d 738a 20bd
00000050: d94f 443e 4a76 79bd 1b9c 023e 8e1f c93d
00000060: 4ec3 fe3d 61c1 3a3c 9c0c 1ebd 45ea 9abc
00000070: 0bc8 253d 7c4a 863d 3211 643d 7d1c 013e
00000080: c602 d83d 0d2d 0e3d d1ff 173e fdf4 1b3e
00000090: e521 98bd 666c 8d3d 7b40 61bd 2fd8 073e
000000a0: ade7 a73d 838a b5bd 6bff 0a3e 71c8 e2bb
000000b0: f6b7 b43d 6b72 17bd fc7f 8bbd 7bd8 4f3e
000000c0: 07a1 743d a2e7 6bbd bb38 fb3d 0467 17bd
000000d0: 5f07 193e 3eb5 e73c a29b 743d 64b8 623d
000000e0: afbd fb3d b8c0 49bd 607f ef3d e3b3 943d
000000f0: 8a72 a7bd 8a8c 013e e4e9 4b3c 5b91 7b3c
00000100: 13d9 a03d f268 133e 86f5 943b 63e2 e33d
00000110: 5878 d93c 9fe3 313b 4014 a3bd 6a65 83bd
00000120: 7bc0 44bd 6827 2fbd 1ad5 99bd 3621 eb3d
00000130: 7d8f 44bd 2037 863d d480 0d3d 3fbe 5e3d
00000140: 5596 17bc 459c b7bc 652d 24bd 20cf f63d
00000150: 9c8a 39ba 4288 953d 9041 8e3c 8ede aebd
00000160: 78ad 093e de0b f1bb b0ca 04bd 5911 08be
00000170: 15ed c73d 4d0f d4bd 3f41 193c 3419 9fbd
00000180: 240c e83d a486 13bd 995f 613d f636 c3bd
00000190: 9f4f 813c 939b fa3d 7f96 673d ba31 98bc
000001a0: 6550 e6bd e7ba db3d 7098 003e 3500 8d3d
000001b0: 4fc3 3dbd 1378 1d3d 1583 f8bd 7d3a 80bd
000001c0: 315c a53d bbc2 c3bd d2dd 8cbd bc01 81ba
000001d0: 92e5 c83d 15a3 c73b ca5b f73d 0abf 293c
000001e0: 1d38 163d 5cd0 023e 7714 6abd 06f8 50bd
000001f0: df5a 373c 7ebc b0bd 5d7f c63d e662 d9bc
00000200: 617f 89bd 570c 3cbd 653f 003e 78d6 94bc
00000210: 3cd1 2ebc 89b8 db3d 82dd 413d 4f26 c3bc
00000220: 2f19 bdbd 215b adbd 32a5 ffbd 6426 b6bd
00000230: 2358 9b3c 4721 fe3d ffc5 e23d 0337 c2bd
00000240: c9b1 543d d6f9 c53c 2e0a a0bd 2be8 733d
00000250: 5fba e43c 89e5 62bd 07bb e8bd fa04 9f3d
00000260: 85c9 0a3e b1e9 dfbd 0c80 0a3e 2c37 c4bd
00000270: f734 833b a781 b93c 7714 b0bd 15af 363c
00000280: b144 bcbd cedc 0c3c 9518 82bd a1c5 1c3d
00000290: 8733 063d 4ec2 b9bd 71e2 9cbd ab9d 4e3d
000002a0: 5b42 acbd 18cf 92bd 3f17 9c3d 2800 e13d
000002b0: c97b 443d e120 38bd 7b18 dd3d 134d a0bd
000002c0: 8dbe 3fbb 3b5f a1bc 1c7b a1bd d6d8 ffbd
000002d0: 8a66 1abd 387e 98bd 33d6 c6bc 3206 b33d
000002e0: d5ea 76bd 22c5 fe3c af23 703d 68e3 0bbd
000002f0: 7d65 533d c22d dc3d a587 7bbc ac48 95bb
00000300: 6182 cebd a6f4 9a3d e99f 6cbc 532e ba3d
00000310: 58dc 183d f78e be3d 52e5 813e 0f1f 51bd
00000320: b933 c23d b93d a03d 580a 1d3e dbc5 a43d
00000330: 2c6a 7c3d b80d a0bd 1f0a 82bd e466 12bd
00000340: f50d 2d3e 2526 6e3e da8c 51bd 9fc1 8fbd
00000350: 6740 3f3d e989 b73d 4e36 a13c 8f3d bb3d
00000360: 5158 0e3e 29b5 8f3d ea7f 363d 4817 4d3d
00000370: ad11 2c3e c151 a73d 8993 ac3d 0a6b 9e3d
00000380: f311 a9bb 771f a03c 90fc 30bd fdc3 293e
00000390: 9921 f13d 8224 86bc dbb2 e63d 0fb9 213e
000003a0: 3817 d63b b507 ea3c 4ca7 dabc 78a8 573d
000003b0: 44b5 3f3c d25f a73d b9e3 923c 8650 bb3e
000003c0: 3866 8c3d 1f16 5a3d 5acb c23d 4f8a dc3d
000003d0: e7fd 673e 22de e9bd ebf5 acbd c6cc 90bd
000003e0: b150 12bd f568 763d 220b fd3d 1c79 243e
000003f0: ce66 483b 8110 c83d 2e67 f63d 66d1 303e
0.11739463 0.05641101 0.11933635 -0.0667004 0.2732855 0.27552238 0.13196851 0.00900627
0.037764404 -0.06999195 0.052700892 -0.053717606 -0.02154797 0.036329627 0.046389267 0.002260009
0.09576396 0.4629968 0.10595805 -0.039194535 0.19171084 -0.060903825 0.12754862 0.09820472
0.12439595 0.011398644 -0.038586244 -0.018910537 0.04047398 0.065571755 0.05568046 0.12608524
0.10547404 0.034710933 0.1484368 0.15230174 -0.0742834 0.06905441 -0.054993134 0.13266061
0.081984855 -0.0886431 0.13573997 -0.006920867 0.0882415 -0.03697435 -0.068115205 0.20297424
0.05972388 -0.05759395 0.1226668 -0.036963478 0.14944218 0.028284665 0.059718736 0.05535163
0.12292039 -0.049256057 0.11694217 0.07260873 -0.081761435 0.12651268 0.012445901 0.01535448
0.078539036 0.14395502 0.0045458702 0.11127164 0.026546642 0.002714373 -0.07962847 -0.064158276
-0.048035126 -0.04276219 -0.07511349 0.11480944 -0.047988404 0.06553483 0.03454669 0.05438065
-0.009252151 -0.022413382 -0.040082354 0.12051225 -0.00070778443 0.0730138 0.017365247 -0.08538543
0.1344508 -0.007356151 -0.03241986 -0.13287868 0.09762017 -0.10354481 0.009353935 -0.07768479
0.11330441 -0.036017075 0.05502281 -0.09531967 0.015785037 0.12236705 0.05654001 -0.018578399
-0.11245803 0.10729008 0.1255815 0.06884805 -0.04632884 0.03844459 -0.12134377 -0.06261156
0.08074225 -0.09558626 -0.06878246 -0.0009842436 0.09809412 0.006092439 0.12078054 0.010360489
0.036674608 0.12774795 -0.057148423 -0.051017784 0.011191099 -0.08629702 0.09692261 -0.026536416
-0.06713749 -0.045910206 0.12524183 -0.018168673 -0.010670003 0.10728557 0.047330387 -0.023821978
-0.09233319 -0.08464647 -0.124826804 -0.08894041 0.018962925 0.12408691 0.11072921 -0.09483149
0.05192736 0.024166983 -0.078144416 0.059547585 0.0279209 -0.055394683 -0.11363798 0.07764621
0.13553436 -0.10933245 0.13525409 -0.09580836 0.0040041166 0.02264483 -0.08597653 0.011150141
-0.09192789 0.008597566 -0.06352345 0.03827441 0.032763984 -0.09070264 -0.07660378 0.050443333
-0.08411094 -0.07168406 0.07621621 0.10986358 0.047969613 -0.04495323 0.10795685 -0.07827201
-0.0029257864 -0.01969873 -0.078848094 -0.1249253 -0.037695445 -0.07445949 -0.02427206 0.08741416
-0.060282547 0.03109986 0.05862778 -0.03415242 0.05161046 0.10750915 -0.015352164 -0.0045557823
-0.100834616 0.07566194 -0.014442422 0.09090867 0.03731951 0.09304612 0.2537027 -0.05105501
0.094825216 0.07824273 0.15335977 0.080455504 0.06162469 -0.07815117 -0.06349587 -0.035742655
0.16899855 0.23256738 -0.051159717 -0.07019352 0.04669228 0.08961851 0.019679215 0.09142601
0.13900878 0.070169754 0.044555582 0.05007103 0.16803618 0.0816989 0.084265776 0.0773526
-0.0051596104 0.019546254 -0.043209612 0.1657867 0.11773986 -0.01637483 0.11264583 0.1579325
0.0065335296 0.028568128 -0.026691101 0.0526509 0.011700932 0.08172573 0.017930852 0.36584872
0.06855434 0.053243753 0.095114425 0.10768568 0.2265545 -0.114193216 -0.08445343 -0.070703074
-0.035721485 0.06015869 0.12355639 0.16061825 0.0030578854 0.09768773 0.12031399 0.17267379

fc.weight f4 [1, 64]
00000000: 27cd 79bc 94c4 163e 6f78 0dbd 0cdd 60bb
00000010: 9b05 92be 7a47 d03d a82b 94be c089 293d
00000020: f556 c03d eb72 d1bd cd0a 7c3e 05ec e5bd
00000030: 4b04 c33d 43eb d5bd 0607 b73d 1e94 9cbd
00000040: e4db 3cbe edfe a9be ef30 353d c462 ddbd
00000050: 8d1b 8dbd 2eb6 c2bd 9788 e9bd b7d5 983d
00000060: 684a c43d e2ef bfbc d86c 31bd fa19 04be
00000070: d8cf 213e be0c fe3d ff6f 33bd 806f 4c3c
00000080: 0dec 583e 4cae 6ebd e40c 3e3e 6766 34be
00000090: 0d40 12be 0bd5 f9bd fa43 06bc 122d 35be
000000a0: 2f13 84bd c78b f5bd 41bc cebd 25e3 03be
000000b0: 9c93 27bd 00c3 21bd eff8 96bd 6138 8c3e
000000c0: 47b9 c13b ce35 79bd 7dc2 bfbd e3f3 153d
000000d0: 518f 21be a263 98bd eb49 b43d c8de 00bd
000000e0: 5c89 2cbd bde8 b4bd af3f 6cbd 32a3 ab3d
000000f0: cd6c 0cbe c3cb fabd b129 123e 5cbb 28be
-0.015246666 0.14723426 -0.034538683 -0.0034311442 -0.28519902 0.10169883 -0.28939557 0.041391134
0.09391586 -0.10226997 0.24613495 -0.11226658 0.09522303 -0.10445263 0.089368865 -0.076454386
-0.18443257 -0.33202305 0.04423612 -0.10809854 -0.068900205 -0.09507404 -0.114030056 0.07462638
0.09584504 -0.023429815 -0.043316692 -0.12900534 0.15801942 0.12404774 -0.04380798 0.012477756
0.21183796 -0.05827169 0.18559605 -0.17617188 -0.14282246 -0.12198838 -0.008194918 -0.17692974
-0.064489715 -0.11989551 -0.100945 -0.12879618 -0.040912256 -0.039492607 -0.07371699 0.27386764
0.0059119794 -0.060842328 -0.093632676 0.03660954 -0.15777327 -0.074408785 0.08803161 -0.03146246
-0.042123184 -0.08833454 -0.05767792 0.083807364 -0.13713379 -0.12245896 0.14273717 -0.16477722
