output/river_level_predictor_ep100_lr0.0008_lu5_at_f/model.pth (torch, 94779 bytes, 6 tensors)

linear.weight f4 [1, 2]
0.7201785 0.54276663
00000000: 9e5d 383f c1f2 0a3f

lstm.weight_ih_l0 f4 [256, 24]
0.09969473 0.18290496 -0.009656686 0.05561995 -0.09602386 -0.038924005 0.103827335 0.017942809
0.12407729 -0.0850677 0.052422132 -0.07170606 0.110442296 0.09008856 -0.058683723 -0.06775159
0.039385457 0.02723514 0.09698306 -0.0047735074 0.09631834 0.04078127 0.10680413 -0.012450402
-0.024073549 0.062213726 0.06629564 -0.009194428 -0.06395592 0.062080342 0.11931809 0.20068033
0.005947367 -0.09383736 -0.011399233 0.114704885 0.118426636 0.216581 -0.054877706 -0.06529241
-0.08159748 -0.07567843 -0.038428705 -0.003955597 -0.111942895 -0.019965028 0.04339422 0.060657304
-0.059061803 -0.13984147 0.10875329 -0.07574372 0.05588732 -0.050775737 -0.0035727345 -0.13439585
-0.072213985 -0.14020424 -0.110043906 -0.1005721 0.05566074 -0.029518995 -0.02701148 0.044778552
0.010098256 0.01599396 0.0052739545 -0.16174182 0.10725928 0.008972535 0.096026115 -0.05190514
-0.10945149 0.102470316 0.09527302 0.0018262707 -0.122651376 -0.069771305 -0.022056952 0.11586342
0.115235105 -0.07866289 0.07427797 0.12382619 -0.02451936 0.12173455 -0.071687356 -0.011752666
-0.06735619 -0.0122142425 0.07414069 0.011466046 0.027375024 -0.115514755 0.10948575 0.17338045
0.11721565 0.12756301 -0.036592733 -0.015496304 0.12854749 -0.01273249 -0.009756702 -0.09634671
-0.050926596 -0.05257738 -0.116292015 0.0654441 0.06779482 -0.093562625 0.04745119 0.13738805
0.022235088 0.028453149 -0.19144015 -0.011568659 0.06513667 0.015986934 -0.07223971 -0.1538748
0.18297382 0.18727934 -0.12939927 0.10119144 0.10082183 0.018580955 0.094591945 0.032019015
0.02440561 0.022283198 0.09467579 0.11409319 0.12689771 -0.003908844 -0.016970553 -0.033031482
0.062029723 0.052844394 -0.0754049 0.053979468 -0.08632549 0.10974278 -0.0795495 -0.077108294
-0.114262804 -0.15227576 -0.086250916 -0.14149113 0.062428657 -0.14052355 -0.12125999 -0.028505838
0.025759393 -0.11231015 -0.042116594 -0.0054440876 0.029715607 0.01251588 -0.08313486 -0.036753077
-0.12138573 0.04421906 -0.055503387 0.024720132 -0.13202482 0.08058163 -0.1282686 -0.078238085
-0.046467282 0.062084265 -0.07567749 0.013754174 0.08319391 0.043926667 -0.08818185 0.13045953
0.025822926 0.039214533 0.06514874 0.08140299 -0.060396925 0.054231852 0.08835734 0.07609412
0.11785479 0.048782215 -0.050568435 -0.01258515 0.05770025 -0.101453766 -0.059088636 -0.01155155
-0.0346577 -0.109338626 0.11119473 -0.01167368 0.03557179 0.110600434 -0.049100313 -0.0838628
0.015962774 -0.008545386 0.1443505 0.052744523 -0.12948543 -0.12702794 0.10161318 0.18113661
-0.0126512805 0.037375282 -0.32724658 0.09469562 0.1494971 0.21153158 0.1123465 -0.20706742
-0.048551075 0.036877114 0.11117359 0.078304805 0.02012239 -0.066068575 0.11616383 0.0494955
0.13575685 0.0022946661 0.03535912 0.14063653 -0.062191855 0.09059488 -0.0073495894 0.049925525
0.06482903 0.043843586 0.1664544 0.14834939 -0.08492736 -0.052461483 -0.026783317 0.13467562
-0.04045076 -0.20682853 -0.05660448 -0.12493797 0.02318416 0.08385054 0.05574022 -0.05574161
0.083688095 0.08117895 0.11335933 0.10410322 0.0050385175 -0.035546497 0.111239746 -0.10224362
00000000: c02c cc3d 704b 3b3e 1437 1ebc bfd1 633d
00000010: 28a8 c4bd c76e 1fbd 6da3 d43d ccfc 923c
00000020: 3c1c fe3d f937 aebd 97b8 563d a0da 92bd
00000030: 922f e23d 5a80 b83d 585e 70bd 58c1 8abd
00000040: a552 213d 3a1c df3c 0e9f c63d 156b 9cbb
00000050: 8d42 c53d 430a 273d 20bc da3d c5fc 4bbc
00000060: e435 c5bc d2d3 7e3d 02c6 873d 3aa4 16bc
00000070: 52fb 82bd f547 7e3d 0b5d f43d 257f 4d3e
00000080: 21e2 c23b cd2d c0bd d9c3 3abc 65ea ea3d
00000090: aa89 f23d 69c7 5d3e 72c7 60bd 07b8 85bd
000000a0: 941c a7bd 4bfd 9abd 6b67 1dbd f49d 81bb
000000b0: 5142 e5bd b38d a3bc 23be 313d cb73 783d
000000c0: caea 71bd 9a32 0fbe 0bba de3d 861f 9bbd
000000d0: 1aea 643d 38fa 4fbd 8a24 6abb 119f 09be
000000e0: ede4 93bd b391 0fbe b35e e1bd bff8 cdbd
000000f0: 84fc 633d d2d1 f1bc 2e47 ddbc b769 373d
00000100: 2873 253c c405 833c 23d1 ac3b a69f 25be
00000110: c1aa db3d 8a01 133c 57a9 c43d 7c9a 54bd
00000120: 1a28 e0bd f5db d13d 801e c33d 7a5f ef3a
00000130: a530 fbbd 42e4 8ebd c8b0 b4bc cd49 ed3d
00000140: 6200 ec3d 021a a1bd 0c1f 983d 9698 fd3d
00000150: d3dc c8bc f74f f93d d2d0 92bd 418e 40bc
00000160: 0bf2 89bd 3f1e 48bc 13d7 973d 15dc 3b3c
00000170: 9641 e03c 0093 ecbd 113a e03d a58a 313e
00000180: c20e f03d e19f 023e 43e2 15bd 36e4 7dbc
00000190: f4a1 033e ef9b 50bc 93da 1fbc 6d51 c5bd
000001a0: 6898 50bd 615b 57bd 822a eebd 8e07 863d
000001b0: 03d8 8a3d c39d bfbd 2e5c 423d 74af 0c3e
000001c0: 5c26 b63c 9416 e93c e308 44be 798a 3dbc
000001d0: 6066 853d 08f7 823c 6af2 93bd 5b91 1dbe
000001e0: 7d5d 3b3e 28c6 3f3e 3e81 04be 753d cf3d
000001f0: ad7b ce3d 1637 983c 6cb9 c13d 5f26 033d
00000200: 46ee c73c 418b b63c 61e5 c13d b1a9 e93d
00000210: 79f1 013e c315 80bb d405 8bbc 054c 07bd
00000220: e112 7e3d 5d73 583d e26d 9abd 9319 5d3d
00000230: 6bcb b0bd d3c0 e03d d9ea a2bd f4ea 9dbd
00000240: 9e02 eabd 2dee 1bbe 52a4 b0bd 0de3 10be
00000250: 31b5 7f3d 68e5 0fbe 2857 f8bd 1385 e9bc
00000260: 5d05 d33c dd02 e6bd 7382 2cbd 5164 b2bb
00000270: 256e f33c 680f 4d3c 9c42 aabd 658a 16bd
00000280: 1599 f8bd 0c1f 353d 8557 63bd e081 ca3c
00000290: 8431 07be fb07 a53d d858 03be 4a3b a0bd
000002a0: 7a54 3ebd 124c 7e3d cdfc 9abd 3059 613c
000002b0: 9261 aa3d 73ec 333d b098 b4bd 2f97 053e
000002c0: 9a8a d33c 6b9f 203d b46c 853d 9cb6 a63d
000002d0: c462 77bd 3822 5e3d b1f4 b43d 3cd7 9b3d
000002e0: da5d f13d dccf 473d d920 4fbd f231 4ebc
000002f0: 1957 6c3d fec6 cfbd ed06 72bd b642 3dbc
00000300: 3cf5 0dbd eeec dfbd 10ba e33d f642 3fbc
00000310: bab3 113d 7b82 e23d 691d 49bd 42c0 abbd
00000320: 5dc4 823c f201 0cbc 9ed0 133e a40a 583d
00000330: d497 04be 9d13 02be 921a d03d e07b 393e
00000340: 5147 4fbc d316 193d dd8c a7be c7ef c13d
00000350: c515 193e bc9b 583e ec15 e63d 7b09 54be
00000360: 7edd 46bd 750c 173d fbae e33d 455e a03d
00000370: b6d7 a43c f64e 87bd 4de7 ed3d cbbb 4a3d
00000380: d803 0b3e 1c62 163b bad4 103d 0603 103e
00000390: e3bc 7ebd cf89 b93d d3d4 f0bb b57e 4c3d
000003a0: 15c5 843d 5595 333d 0673 2a3e e7e8 173e
000003b0: 65ee adbd dae1 56bd b068 dbbc 68e8 093e
000003c0: b2af 25bd dcca 53be 19da 67bd 7adf ffbd
000003d0: b5ec bd3c d5b9 ab3d db4f 643d 5051 64bd
000003e0: aa64 ab3d 2641 a63d f028 e83d 1234 d53d
000003f0: 261a a53b 3499 11bd aad1 e33d 1a65 d1bd

lstm.weight_hh_l0 f4 [256, 64]
-0.10555419 0.13018759 0.1451431 -0.14046192 -0.05361175 -0.025279691 0.14344174 -0.050982073
-0.067771934 -0.053321745 -0.014664083 0.000780497 -0.043516804 -0.037282694 -0.11867037 -0.036940373
-0.1743522 0.09260878 -0.005220696 -0.10566624 0.073366135 0.1426828 -0.11638666 -0.040143076
0.15570627 0.04398565 -0.13497233 -0.051385246 0.056157745 0.037087448 0.06351222 -0.13010262
-0.076283105 0.06274157 -0.15792018 0.094290935 -0.19768275 -0.044939417 0.02159023 0.01682908
-0.033235393 0.07947533 -0.09907677 -0.039686844 0.15694018 -0.03090832 -0.022834446 0.061549123
0.014556445 -0.001233264 0.050997596 0.0968054 0.020224284 -0.010624308 0.098073184 0.049972855
-0.12844326 -0.10487078 0.09386006 -0.09637243 -0.0062897643 0.14690723 0.052747115 0.09643354
-0.046210352 0.10589936 0.04152772 -0.0889955 -0.12836303 -0.10543879 -0.043696385 0.017076127
0.05126454 -0.026166506 -0.017398875 -0.061747998 -0.0814852 -0.07948916 0.042192254 0.09546081
0.070129834 0.066244185 0.018934077 -0.06886114 0.05685738 0.0958161 -0.00091914076 -0.042652454
-0.029139023 -0.054021113 0.083731025 -0.08869795 0.0844156 0.13127986 -0.041001074 -0.06191593
-0.06152892 -0.04050832 -0.074749105 0.07389637 0.0482057 0.02283441 0.16203949 -0.049787946
-0.06015501 -0.093527414 -0.07989931 0.0502209 0.032461416 0.020707926 0.08632344 -0.070114076
-0.060927916 -0.047130197 -0.07079507 0.10756657 -0.10797624 0.09838914 -0.07104993 -0.10859786
0.14977537 0.078252465 -0.009553908 0.013136416 -0.00058688264 -0.10084195 0.08840802 -0.041339505
-0.036513217 0.103672266 -0.081032865 0.06313222 -0.0930184 0.011781507 -0.110160716 0.019082373
0.10229621 0.09131651 -0.052061025 0.09628313 0.080137044 0.033309247 -0.06618968 -0.04571888
-0.11996934 0.014024543 0.049893558 -0.06972145 0.11460637 0.053455338 -0.080021106 -0.02892692
-0.0130448025 -0.08226906 -0.13993883 -0.10292809 -0.012160307 0.090764575 -0.053998135 0.043608475
-0.019985495 -0.12234585 0.14482409 -0.048454206 -0.13695511 -0.054820187 0.0220381 -0.098608114
-0.03627981 0.11642669 0.121730514 -0.06375713 -0.07239349 -0.026086066 -0.09044308 -0.04210595
0.03809599 0.0990056 0.13176233 -0.098838404 -0.028878404 0.08377698 0.0027012445 -0.056198232
0.14792459 0.00611379 -0.050295856 -0.023665542 0.021709004 -0.00037809054 -0.039079245 -0.09142153
0.12871887 0.01840132 0.08082252 -0.067397036 -0.15952018 -0.028805358 -0.07826813 0.027634652
0.06438989 0.016398149 -0.07471158 0.054092813 0.075199775 -0.024314543 -0.04270161 0.10192429
0.028001897 -0.016269566 -0.035442244 -0.04531972 0.10478971 0.08751067 0.025282232 -0.06893461
0.100778505 -0.09313041 0.0056080245 0.029287402 -0.025365967 -0.09158872 -0.045696057 -0.09412201
0.11173193 0.09211113 -0.006376454 -0.06693742 -0.183626 -0.03775585 0.13149509 -0.0048996806
-0.07091169 -0.06736546 -0.023744535 0.10804618 0.112211466 0.058105566 -0.058086008 0.022828877
0.084979005 -0.068107165 -0.03883351 -0.04527017 -0.004936484 0.034761894 -0.113330424 0.044401456
0.096694954 -0.03022363 -0.09389866 0.006588679 0.075770974 0.04092818 0.08082203 -0.016533675
00000000: cc2c d8bd e54f 053e 65a0 143e 40d5 0fbe
00000010: ff97 5bbd 5b17 cfbc 64e2 123e 94d2 50bd
00000020: 03cc 8abd e767 5abd 9f41 70bc 449a 4c3a
00000030: ad3e 32bd bdb5 18bd 7309 f3bd ca4e 17bd
00000040: 6289 32be aca9 bd3d 5f12 abbb 8b67 d8bd
00000050: fc40 963d 711b 123e 215c eebd 116d 24bd
00000060: 7771 1f3e 4c2a 343d 3036 0abe 5679 52bd
00000070: aa05 663d 02e9 173d b212 823d 9f39 05be
00000080: 513a 9cbd a77e 803d d4b5 21be 9b1b c13d
00000090: 596d 4abe 6512 38bd fedd b03c 24dd 893c
000000a0: d621 08bd f6c3 a23d c3e8 cabd ac8e 22bd
000000b0: edb4 203e 7233 fdbc 4e0f bbbc ef1a 7c3d
000000c0: 287e 6e3c 79a5 a1ba dbe2 503d e941 c63d
000000d0: 66ad a53c 9411 2ebc 98da c83d 56b0 4c3d
000000e0: a186 03be 7ec6 d6bd b439 c03d e95e c5bd
000000f0: 5e1a cebb d96e 163e 5c0d 583d f37e c53d
00000100: 1147 3dbd c3e1 d83d f818 2a3d 4643 b6bd
00000110: 9971 03be 4bf0 d7bd fbfa 32bd 3ce3 8b3c
00000120: c4fa 513d 245b d6bc 1688 8ebc 78eb 7cbd
00000130: b6e1 a6bd 36cb a2bd c9d1 2c3d f580 c33d
00000140: 3ba0 8f3d 08ab 873d a31b 9b3c 1207 8dbd
00000150: 49e3 683d 3b3b c43d 7ef2 70ba 57b4 2ebd
00000160: f6b4 eebc 3e45 5dbd 2c7b ab3d 45a7 b5bd
00000170: 16e2 ac3d 3a6e 063e bef0 27bd 8f9b 7dbd
00000180: c005 7cbd 0dec 25bd 0f16 99bd fb56 973d
00000190: 5773 453d 3b0f bb3c aeed 253e 72ee 4bbd
000001a0: 1a65 76bd 4d8b bfbd 40a2 a3bd 6eb4 4d3d
000001b0: 43f6 043d aba3 a93c 58ca b03d f897 8fbd
000001c0: 8d8f 79bd 980b 41bd 01fd 90bd dd4b dc3d
000001d0: a622 ddbd 3f80 c93d a082 91bd 8e68 debd
000001e0: b75e 193e d442 a03d ff87 1cbc 1f3a 573c
000001f0: 07d9 19ba 3986 cebd 440f b53d 9d53 29bd
00000200: e28e 15bd 2052 d43d 8ff4 a5bd 774b 813d
00000210: 6e80 bebd 3907 413c f19b e1bd a352 9c3c
00000220: ad80 d13d 2704 bb3d f13d 55bd 1730 c53d
00000230: e41e a43d 476f 083d 748e 87bd b843 3bbd
00000240: 7cb2 f5bd 32c7 653c 305d 4c3d 1fca 8ebd
00000250: bfb6 ea3d fcf3 5a3d 1be2 a3bd 26f8 ecbc
00000260: deb9 55bc ae7c a8bd 204c 0fbe f6cb d2bd
00000270: 063c 47bc c7e2 b93d 262d 5dbd cd9e 323d
00000280: 9fb8 a3bc 7690 fabd c44c 143e eb77 46bd
00000290: f63d 0cbe 228b 60bd 3f89 b43c 0df3 c9bd
000002a0: 239a 14bd 1e71 ee3d d94d f93d 1993 82bd
000002b0: 0a43 94bd 72b2 d5bc 393a b9bd 4a77 2cbd
000002c0: 8a0a 1c3d 73c3 ca3d b4ec 063e ca6b cabd
000002d0: 6792 ecbc 4493 ab3d 5d07 313b 1e30 66bd
000002e0: 8b79 173e 3056 c83b 0703 4ebd 3dde c1bc
000002f0: 15d7 b13c 743a c6b9 8f11 20bd 363b bbbd
00000300: e1ce 033e 5dbe 963c 4786 a53d 7507 8abd
00000310: 4259 23be 37f9 ebbc 0b4b a0bd 1162 e23c
00000320: d9de 833d 6955 863c 6302 99bd 6d90 5d3d
00000330: 5702 9a3d 4b2f c7bc e2e7 2ebd afbd d03d
00000340: 3c64 e53c c147 85bc e32b 11bd 2ca1 39bd
00000350: fd9b d63d cb38 b33d af1c cf3c 972d 8dbd
00000360: f664 ce3d 28bb bebd 85c3 b73b 22ec ef3c
00000370: 4acc cfbc de92 bbbd ca2b 3bbd 0ac3 c0bd
00000380: b6d3 e43d c3a4 bc3d 93f1 d0bb 7c16 89bd
00000390: 7408 3cbe e1a5 1abd a6a6 063e 808d a0bb
000003a0: 263a 91bd e7f6 89bd e683 c2bc 5147 dd3d
000003b0: 20cf e53d 1a00 6e3d 98eb 6dbd a003 bb3c
000003c0: 7909 ae3d c57b 8bbd e30f 1fbd 376d 39bd
000003d0: 3bc2 a1bb 7d62 0e3d c819 e8bd 4dde 353d
000003e0: 0108 c63d 8c97 f7bc f14d c0bd d8e5 d73b
000003f0: d02d 9b3d 4fa4 273d 0586 a53d a171 87bc

lstm.bias_ih_l0 f4 [256]
0.033332456 0.01620519 -0.04485525 -0.09994582 0.014932496 0.06668133 -0.045926165 0.07943196
0.1807365 0.09639188 0.12577675 0.07541498 -0.10253085 -0.11869182 -0.11042983 -0.0031587293
0.23959118 0.42429316 0.0028751486 -0.09915653 0.087121606 -0.055014983 0.059325892 0.02108821
-0.028052682 -0.07742425 -0.00080846366 -0.067380816 0.07500568 -0.036127694 0.12756625 -0.0988341
-0.12672888 0.07466474 0.21365714 0.101112135 0.19591978 -0.034952227 0.20867692 -0.05168242
0.3599539 0.0972545 -0.036895268 -0.06488666 0.15906513 0.1288516 -0.0034739173 -0.09450624
0.009358242 0.07675446 -0.07899006 0.028017431 -0.0005279902 0.24381524 0.08421382 0.007884463
0.005464091 0.2904376 0.055598103 0.21786898 -0.036964428 0.14998434 0.01081465 0.0020171853
0.06746546 -0.09804809 -0.108713515 -0.094521545 -0.0997614 0.02486317 0.048554372 -0.076403014
-0.022055501 -0.028042598 0.05013593 -0.08924377 -0.09439163 0.059041418 -0.11545664 -0.020409647
0.117717326 0.07126285 -0.0647139 0.098731205 -0.09160871 -0.10834773 -0.08491642 0.060248055
-0.055715896 0.109738074 -0.026747225 0.046456516 0.010065434 0.044220895 -0.103250176 -0.13507825
-0.012887685 -0.05727842 -0.09449688 0.03724911 -0.065064095 -0.075545035 0.13858616 0.032099362
0.1662304 -0.10515687 -0.08197353 -0.028326921 -0.058435027 -0.12517832 -0.033016816 -0.01889373
0.07202672 0.06205418 0.053607658 -0.061912943 -0.092749625 0.09651407 -0.09890665 -0.09283192
-0.026055546 -0.03022732 -0.07595723 0.20214579 -0.12366871 -0.028670777 -0.10144627 -0.042281125
-0.00028808342 0.11082843 0.0983414 -0.031431977 -0.074179865 0.023936935 -0.073694654 -0.07541413
-0.12403146 -0.0878774 -0.09538581 -0.12215766 0.040344767 0.023925059 -0.109995276 0.008923531
-0.03712533 0.06877403 -0.025727928 -0.08333904 -0.11413471 0.1215959 -0.11989008 0.04051474
0.100467436 -0.117228635 0.03909463 0.067035876 -0.019944921 0.032625426 -0.10358239 0.042874496
0.057403147 0.03647739 -0.06184643 -0.11853226 0.032896627 0.05281841 -0.043851115 0.004099437
-0.080472566 0.064073876 0.070260435 0.056361973 -0.012430094 -0.10150422 0.045929354 -0.052640438
-0.05872109 0.11928231 0.07930078 -0.09503549 -0.006498764 -0.042573232 -0.023890508 0.050904863
-0.0015478724 -0.05778993 -0.02431338 -0.09951112 -0.07093368 0.028237324 0.07292512 -0.080835715
0.13571906 -0.093570374 -0.059455223 0.09004524 0.17458038 -0.08019754 -0.013441296 0.07391439
0.12351014 0.10919552 0.12046809 0.085889205 0.033316236 -0.108379245 0.034269005 0.095434666
0.1329241 0.28533596 -0.03595536 0.10865183 0.006508042 0.0543669 0.020095395 -0.04997388
-0.01197629 0.11575424 0.19133718 0.0076606465 -0.04348798 -0.11876389 0.14176679 0.081398
-0.0033907834 0.2307459 0.17139928 0.02291826 0.06624841 0.026224066 -0.036108155 0.103328936
0.342848 -0.018706102 -0.08221827 -0.06381472 0.08682798 0.009265631 -0.08704402 0.042792235
-0.025743643 -0.05429048 -0.011697863 -0.09813705 -0.09867704 0.34491047 0.10039199 0.0625805
0.11578103 0.08517514 0.07027698 0.19399539 0.08093319 0.008290028 0.11228485 0.053654734
00000000: 9d87 083d bfc0 843c 23ba 37bd 65b0 ccbd
00000010: 6da7 743c 3990 883d 131d 3cbd 39ad a23d
00000020: fd12 393e 1b69 c53d 9fcb 003e 2b73 9a3d
00000030: b2fb d1bd b214 f3bd 0929 e2bd af02 4fbb
00000040: 6457 753e f43c d93e fd6c 3c3b 9412 cbbd
00000050: d06c b23d 6457 61bd b5ff 723d 2fc1 ac3c
00000060: bdce e5bc 9b90 9ebd 14ef 53ba f4fe 89bd
00000070: 949c 993d a2fa 13bd baa0 023e 8869 cabd
00000080: 37c5 01be d4e9 983d f0c8 5a3e e113 cf3d
00000090: 329f 483e 112a 0fbd 67af 553e f2b0 53bd
000000a0: e14b b83e 5e2d c73d 7e1f 17bd 4ce3 84bd
000000b0: f8e1 223e adf1 033e a9aa 63bb 7d8c c1bd
000000c0: 5053 193c 7131 9d3d 8ac5 a1bd d084 e53c
000000d0: d368 0aba b4aa 793e 4c78 ac3d d62d 013c
000000e0: 1e0c b33b 3db4 943e d6ba 633d 0c19 5f3e
000000f0: 0368 17bd 7f95 193e ee2f 313c c132 043b
00000100: 552b 8a3d 70cd c8bd 31a5 debd 8394 c1bd
00000110: b44f ccbd d9ad cb3c f3e0 463d 2f79 9cbd
00000120: bdad b4bc 97b9 e5bc 555b 4d3d 70c5 b6bd
00000130: 6650 c1bd 6ad5 713d 8874 ecbd 2232 a7bc
00000140: c815 f13d 42f2 913d b988 84bd 9633 ca3d
00000150: 599d bbbd 6ae5 ddbd a9e8 adbd aac6 763d
00000160: 5a36 64bd 5bbe e03d ff1c dbbc 3049 3e3d
00000170: 7de9 243c f820 353d d474 d3bd f451 0abe
00000180: de26 53bc c79c 6abd 9587 c1bd 8692 183d
00000190: 5340 85bd 5bb7 9abd 88e9 0d3e 9f7a 033d
000001a0: 4d38 2a3e 7c5c d7bd bde1 a7bd dc0d e8bc
000001b0: 9159 6fbd bf2e 00be a43c 07bd 06c7 9abc
000001c0: bf82 933d 862c 7e3d b493 5b3d 6d98 7dbd
000001d0: 84f3 bdbd 2ba9 c53d 928f cabd a91e bebd
000001e0: 7172 d5bc 499f f7bc 778f 9bbd 4eff 4e3e
000001f0: 0546 fdbd fade eabc 10c3 cfbd f92e 2dbd
00000200: e709 97b9 04fa e23d 3767 c93d d1be 00bd
00000210: 9deb 97bd 6417 c43c 39ed 96bd b972 9abd
00000220: 3504 febd 11f9 b3bd a359 c3bd cc2d fabd
00000230: 8e40 253d 7cfe c33c 3445 e1bd 0034 123c
00000240: bb10 18bd 66d9 8c3d 60c3 d2bc a9ad aabd
00000250: 75bf e9bd 4507 f93d ee88 f5bd c9f2 253d
00000260: dfc1 cd3d 9115 f0bd b121 203d 1b4a 893d
00000270: 8863 a3bc 3da2 053d 0123 d4bd 2b9d 2f3d
00000280: 901f 6b3d 5169 153d af52 7dbd 0bc1 f2bd
00000290: 9dbe 063d 1e58 583d 3a9d 33bd 9254 863b
000002a0: cdce a4bd 2a39 833d b4e4 8f3d d0db 663d
000002b0: 98a7 4bbc 72e1 cfbd 6b20 3c3d 809d 57bd
000002c0: 8785 70bd 494a f43d 7368 a23d f8a1 c2bd
000002d0: 95f3 d4bb 4561 2ebd 07b6 c3bc 9e81 503d
000002e0: fbe1 caba 22b5 6cbd da2c c7bc 7ccc cbbd
000002f0: ad45 91bd f651 e73c c459 953d 328d a5bd
00000300: f0f9 0a3e d3a1 bfbd 5287 73bd a469 b83d
00000310: 33c5 323e 9c3e a4bd e238 5cbc 6d60 973d
00000320: e2f2 fc3d e7a1 df3d f9b7 f63d aee6 af3d
00000330: 9b76 083d f0f5 ddbd a85d 0c3d 4073 c33d
00000340: 411d 083e 8e17 923e ed45 13bd da84 de3d
00000350: 6a41 d53b d4af 5e3d 199f a43c 69b1 4cbd
00000360: 3338 44bc 8f10 ed3d e5ed 433e 2906 fb3b
00000370: 7420 32bd 7b3a f3bd 502b 113e ffb3 a63d
00000380: e837 5ebb a748 6c3e 4b83 2f3e 13bf bb3c
00000390: 3fad 873d dad3 d63c 25e6 13bd 1f9e d33d
000003a0: c689 af3e 8a3d 99bc 0d62 a8bd 4bb1 82bd
000003b0: ded2 b13d e0ce 173c 2344 b2bd e946 2f3d
000003c0: 55e4 d2bc b25f 5ebd 65a8 3fbc 14fc c8bd
000003d0: 3017 cabd 1b98 b03e 519a cd3d 352a 803d
000003e0: 9b1e ed3d 4e70 ae3d 61ed 8f3d baa6 463e
000003f0: 4dc0 a53d e6d2 073c 99f5 e53d 11c5 5b3d

lstm.bias_hh_l0 f4 [256]
-0.05648506 -0.113414705 0.062458117 -0.10231175 -0.01928682 0.06547751 -0.054675784 0.06346295
0.264067 0.025137877 -0.094531275 0.06406376 0.10781205 -0.052073997 -0.066852026 0.09337374
0.053034104 0.34300405 0.02086789 0.011679857 0.017770588 0.07888156 0.053265594 -0.044866774
-0.10376632 -0.037547823 0.16439837 -0.11556357 0.040944286 -0.069609895 0.13807459 0.015494955
0.0053496785 0.06059163 0.11815134 0.014462392 0.21512802 0.020546699 0.13783327 0.011886904
0.19365597 0.1399929 0.023548206 0.15652357 0.17564483 0.08242524 -0.040166363 0.07405162
0.10846977 0.11897756 -0.082036406 0.013330171 -0.0059349835 0.24690017 0.016211702 -0.06180957
0.17469974 0.0812878 -0.041819878 0.11176774 -0.04227912 -0.06985208 0.04905231 0.095523424
-0.08589519 -0.11889498 -0.10086494 -0.058032893 0.014988245 0.09631648 0.09194509 0.017921489
-0.111529455 -0.03438229 0.05382471 0.05245682 -0.0070162755 -0.0756201 0.08912403 0.036760375
0.11032917 0.04856416 0.042281084 0.101630226 -0.072127886 0.071609095 0.020777317 0.053770367
-0.015930958 0.026126942 -0.047455125 0.04272929 0.073639244 0.12306414 -0.08624255 0.015825327
0.08746364 -0.052319866 0.14076282 0.04021556 -0.021839213 -0.11235627 0.06837632 0.13785595
0.05126989 -0.10757929 -0.11048905 -0.008117882 0.0987469 0.095232606 -0.010721832 -0.025229387
-0.019238245 0.08170233 -0.08157922 0.104503736 0.020512117 -0.058724236 -0.019861447 0.10528531
-0.103251636 0.20843175 -0.017600141 0.0693213 0.114802375 -0.099074036 -0.05909983 0.03367881
0.061116528 -0.005204231 0.08304118 -0.04153403 0.071662895 0.06426672 0.12451574 0.050367225
0.10493936 0.04698124 0.083989 0.013732817 0.06737048 -0.007876874 -0.016394157 -0.06520091
0.063868456 0.05934617 0.04952573 -0.054907627 0.052014038 0.06266555 0.0016710456 0.09859766
-0.00867315 0.09716796 -0.07468406 0.10842241 0.004195868 -0.064073086 0.07238392 -0.10203306
0.021444624 0.017284168 0.09818193 0.09343567 -0.018797152 0.085755385 0.09911825 0.044027682
-0.057744816 -0.08640032 0.09196022 0.006703381 0.08329466 -0.05311717 0.11782237 -0.11146691
-0.07168996 0.071112595 0.115444876 0.0438132 0.007374443 -0.025159558 0.027467793 0.005655858
0.0026138364 -0.031288136 -0.0043031457 -0.09574129 -0.036105927 0.11216018 0.03191293 -0.013624271
-0.0644998 0.060626857 0.039512463 -0.094832584 0.06790055 0.06520063 0.07688842 0.06620837
0.095991515 0.1045934 -0.01501867 0.11880167 0.07121071 0.041667916 0.08361174 -0.00535133
0.120246395 0.2383207 0.0042135026 0.09584074 0.038719334 -0.07190002 0.052506104 0.06602138
-0.109699756 -0.0083991485 0.042068772 0.079739496 0.12090054 0.024676278 0.1860185 -0.021208854
-0.09512929 0.14966917 0.23565225 -0.08405912 0.07223805 0.07127135 0.0067803944 0.0011973347
0.4006481 -0.100960694 -0.0598477 0.08067465 0.0039527854 0.098257534 -0.013208398 0.057973623
0.09610635 0.07230252 -0.063882105 0.08033715 0.09413144 0.27482143 0.062275957 -0.042595845
0.12410798 0.081025615 0.10978251 0.04995252 0.070025824 -0.014515744 0.12791905 0.127594
00000000: e15c 67bd f845 e8bd 15d4 7f3d d388 d1bd
00000010: 65ff 9dbc 1319 863d b7f3 5fbd ddf8 813d
00000020: ca33 873e f3ed cd3c 9d99 c1bd dc33 833d
00000030: 90cc dc3d 8b4b 55bd b7e9 88bd bb3a bf3d
00000040: 4a3a 593d 3a9e af3e 23f3 aa3c df5c 3f3c
00000050: a093 913c a88c a13d 062d 5a3d 39c6 37bd
00000060: 7083 d4bd bfcb 19bd 0c58 283e 98ac ecbd
00000070: 32b5 273d a28f 8ebd 6d63 0d3e 8dde 7d3c
00000080: 5b4c af3b ee2e 783d 54f9 f13d abf3 6c3c
00000090: 854a 5c3e 8d51 a83c 2a24 0d3e 4ac1 423c
000000a0: c04d 463e 4c5a 0f3e 2be8 c03c b747 203e
000000b0: 3ddc 333e 90ce a83d 7c85 24bd 60a8 973d
000000c0: 6625 de3d 82aa f33d b402 a8bd ca66 5a3c
000000d0: 407a c2bb 66d3 7c3e 67ce 843c 082c 7dbd
000000e0: 7de4 323e 387a a63d 524b 2bbd 7ce6 e43d
000000f0: df2c 2dbd 9b0e 8fbd 13eb 483d c9a1 c33d
00000100: d1e9 afbd 367f f3bd 4792 cebd e6b3 6dbd
00000110: 4291 753c 9341 c53d b54d bc3d 16d0 923c
00000120: 8e69 e4bd 72d4 0cbd 4d77 5c3d f6dc 563d
00000130: c9e8 e5bb b6de 9abd a986 b63d 0c92 163d
00000140: 43f4 e13d 36eb 463d ee2e 2d3d 8223 d03d
00000150: c9b7 93bd caa7 923d 3135 aa3c 513e 5c3d
00000160: a481 82bc 2b08 d63c 4e60 42bd e804 2f3d
00000170: 2cd0 963d 0d09 fc3d ef9f b0bd 1ea4 813c
00000180: 2320 b33d 5b4d 56bd 2124 103e 12b9 243d
00000190: 26e8 b2bc 0b1b e6bd e208 8c3d 1c2a 0d3e
000001a0: 6000 523d 8852 dcbd 1548 e2bd dd00 05bc
000001b0: d13b ca3d 5009 c33d 9faa 2fbc dcad cebc
000001c0: 8699 9dbc 8d53 a73d 0213 a7bd 0e06 d63d
000001d0: 0709 a83c d388 70bd 79b4 a2bc d39f d73d
000001e0: 9875 d3bd 226f 553e 2c2e 90bc 53f8 8d3d
000001f0: 821d eb3d 54e7 cabd aa12 72bd cbf2 093d
00000200: 5355 7a3d 4188 aabb 7f11 aa3d 961f 2abd
00000210: ffc3 923d 459e 833d 1c02 ff3d dd4d 4e3d
00000220: 72ea d63d 676f 403d 6d02 ac3d 9cff 603c
00000230: 89f9 893d 010e 01bc 0a4d 86bc 0e88 85bd
00000240: 77cd 823d f814 733d 7edb 4a3d d2e6 60bd
00000250: ac0c 553d cc56 803d fc06 db3a 92ed c93d
00000260: d419 0ebc ffff c63d f5f3 98bd 920c de3d
00000270: 7e7d 893b c038 83bd 053e 943d b5f6 d0bd
00000280: a3ac af3c 8797 8d3c 9c13 c93d 335b bf3d
00000290: 7cfc 99bc 85a0 af3d 82fe ca3d 5f56 343d
000002a0: d485 6cbd a7f2 b0bd a455 bc3d 09a8 db3b
000002b0: 6496 aa3d 6491 59bd db4c f13d c348 e4bd
000002c0: 30d2 92bd 7ba3 913d 5d6e ec3d 7875 333d
000002d0: 50a5 f13b 6b1b cebc 2304 e13c c754 b93b
000002e0: e64c 2b3b fd27 00bd 6701 8dbb 0214 c4bd
000002f0: cfe3 13bd 3db4 e53d 22b7 023d 5638 5fbc
00000300: 7918 84bd de53 783d d2d7 213d 9637 c2bd
00000310: 720f 8b3d e887 853d ad77 9d3d 4198 873d
00000320: 3397 c43d 1135 d63d de10 76bc 4a4e f33d
00000330: ecd6 913d faab 2a3d a23c ab3d 365a afbb
00000340: be43 f63d 570a 743e 6c11 8a3b 2648 c43d
00000350: 2a98 1e3d 5140 93bd a410 573d 3836 873d
00000360: 44aa e0bd 959c 09bc 4e50 2c3d 764e a33d
00000370: b49a f73d e825 ca3c a27b 3e3e 31be adbc
00000380: 25d3 c2bd e042 193e d34e 713e 3027 acbd
00000390: 8bf1 933d b7f6 913d 122e de3b e3ef 9c3a
000003a0: bf21 cd3e 7bc4 cebd dd22 75bd c038 a53d
000003b0: 5e86 813b 3f3b c93d 0968 58bc c075 6d3d
000003c0: 68d3 c43d 5813 943d 9fd4 82bd ce87 a43d
000003d0: fcc7 c03d 65b5 8c3e 1315 7f3d fb78 2ebd
000003e0: 532c fe3d c2f0 a53d a7d5 e03d 039b 4c3d
000003f0: b369 8f3d 71d3 6dbc 36fd 023e 00a8 023e

fc.weight f4 [1, 64]
-0.09994137 0.054035086 -0.10130771 -0.03550261 0.1322473 -0.09736298 -0.021644983 -0.12546639
0.08695274 0.017157558 -0.10463907 0.0786582 -0.11309481 0.09116235 -0.121248305 -0.10562484
0.087093316 -0.15084986 0.11358011 -0.084124945 0.0694123 0.02103034 0.073332965 -0.12384265
0.1399926 -0.12928686 -0.19236693 -0.057792857 0.06303576 0.09416142 0.1273289 0.035839856
0.039183863 -0.08432104 0.09046598 0.1039583 0.0588943 -0.07730644 -0.0887387 -0.030643044
0.10442336 -0.14908572 0.0249589 -0.08093486 -0.09760861 -0.12619308 0.048138466 0.029595256
-0.027650608 -0.018255116 0.0851384 -0.0067663933 0.09329957 -0.070732005 0.0034141813 -0.0013921991
-0.00070849137 -0.06559105 0.06218313 0.00031730498 0.07955839 -0.09853745 0.14420135 -0.1324338
00000000: 10ae ccbd e553 5d3d 6b7a cfbd 2f6b 11bd
00000010: d66b 073e 3e66 c7bd d250 b1bc 437a 00be
00000020: 4714 b23d 028e 8c3c 024d d6bd 8d17 a13d
00000030: 409e e7bd 53b3 ba3d 0851 f8bd d651 d8bd
00000040: fb5d b23d 6378 1abe b09c e83d b349 acbd
00000050: 0928 8e3d d247 ac3c 982f 963d 37a1 fdbd
00000060: 385a 0f3e c663 04be d6fb 44be 34b8 6cbd
00000070: e418 813d b4d7 c03d 8262 023e d0cc 123d
00000080: 427f 203d 82b0 acbd 3a46 b93d 17e8 d43d
00000090: 263b 713d d752 9ebd a3bc b5bd 1f07 fbbc
000000a0: eadb d53d eda9 18be 9b76 cc3c 2dc1 a5bd
000000b0: 06e7 c7bd c238 01be d72c 453d c071 f23c
000000c0: 8783 e2bc c18b 95bc 0b5d ae3d 9fb8 ddbb
000000d0: d813 bf3d f1db 90bd 75c0 5f3b 737a b6ba
000000e0: 0dba 39ba 9a54 86bd bdb3 7e3d f45b a639
000000f0: 82ef a23d 01ce c9bd 85a9 133e ba9c 07be
