output/river_level_predictor_ep70_lr0.008_lu5/model.pth (torch, 94779 bytes, 6 tensors)

linear.weight f4 [1, 2]
0	0xbffc14c2	-1.9693835
1	0xbf650552	-0.89461243

lstm.weight_ih_l0 f4 [256, 24]
0	0x3e00e8b8	0.12588775
1	0x3e3e797a	0.18601027
2	0x3e06a140	0.1314745
3	0x3d17077f	0.036872383
4	0xbd0d60a0	-0.034515977
5	0xbddecf57	-0.10879391
6	0x3e67b873	0.22628956
7	0x3e2e3a77	0.1701449
8	0x3d19ce48	0.03755024
9	0x3d57db15	0.052699167
10	0xbc72e73d	-0.014825639
11	0xbdad6789	-0.084670134
12	0x3e0b7f26	0.13622722
13	0x3dc13a6a	0.0943497
14	0x3dc60a4b	0.09669932
15	0x3c5e630f	0.013573422
16	0x3e019efe	0.12658307
17	0x3e08d2f5	0.13361724
18	0x3dcac991	0.09901727
19	0x3e9509eb	0.2910913
20	0xbb3a2392	-0.002840255
21	0xbd7d67b9	-0.061866496
22	0xbc4615c2	-0.012090148
23	0x3d5bbaf8	0.053645104
24	0xbec415ec	-0.38297975
25	0xbd30dd68	-0.0431799
26	0xbdc15789	-0.09440524
27	0xbe22438d	-0.15846081
28	0x3d614bbb	0.055003863
29	0x3e33c27b	0.17554657
30	0xbee102ef	-0.4394755
31	0xbdcc19b6	-0.099658415
32	0x3cf4deae	0.029891338
33	0xbdd49cfa	-0.103815034
34	0x3d5d652f	0.054051574
35	0x3dcc6e91	0.09982026
36	0xbe3f8240	-0.1870203
37	0x3d4357e2	0.047691233
38	0x3ddf4caf	0.10903298
39	0xbddfcea1	-0.10928083
40	0xbd6469f6	-0.055765115
41	0xbd09eea2	-0.033674844
42	0xbe488754	-0.19582874
43	0x3dd9b746	0.1063066
44	0xbdfa02b0	-0.12207544
45	0x3d8c2053	0.06842103
46	0xbd41ecd7	-0.04734501
47	0x3e1755a0	0.14778757
48	0x3e92aef3	0.286491
49	0xbbe218b7	-0.006899919
50	0x3d1f8635	0.03894635
51	0xbb7bead2	-0.0038439524
52	0x3b71502b	0.0036821465
53	0xbdb8b938	-0.09019703
54	0x3df84b5e	0.1212375
55	0xbd693cdf	-0.056942817
56	0xbd977dbf	-0.07397031
57	0xbccb859f	-0.024843989
58	0x3d811437	0.06302684
59	0x3d24bf7e	0.040221684
60	0x3eb652c7	0.3561003
61	0x3d6365e7	0.055517104
62	0xbd796e0c	-0.060895965
63	0xbbbf2f26	-0.005834478
64	0x3deff3af	0.11716401
65	0xbdcb37cc	-0.09922752
66	0x3e56586c	0.20932168
67	0xbd58b6fd	-0.052908886
68	0x3d422f92	0.047408648
69	0xbd96263a	-0.0733151
70	0x3dee5299	0.11636848
71	0xbe16e8f6	-0.14737305
72	0xbef244a1	-0.47317985
73	0xbe5f33d1	-0.2179711
74	0xbe4365b9	-0.19081773
75	0xbeb9d64e	-0.36296314
76	0xbe2fe1f9	-0.17176045
77	0x3e8607f5	0.26177946
78	0xbe90207b	-0.2814978
79	0xbea11080	-0.314579
80	0xbe2d0bef	-0.16899084
81	0xbeb5e0c6	-0.3552305
82	0xbe5b6f45	-0.21429165
83	0x3e3d5eb5	0.18493159
84	0xbf41f1cc	-0.7575958
85	0xbdf41da1	-0.11919714
86	0xbd2e6ed7	-0.042586174
87	0xbe91b1be	-0.2845592
88	0xbe5e8967	-0.21732102
89	0x3edd8399	0.43264464
90	0xbf6291e7	-0.8850388
91	0xbe3bf829	-0.18356384
92	0xbdc61917	-0.09672754
93	0xbe82f08b	-0.25574145
94	0xbda12637	-0.07868617
95	0x3ecef40f	0.40420577
96	0x3e6154f3	0.22005062
97	0x3e049441	0.1294718
98	0xbc05f183	-0.008175257
99	0x3d81f0ba	0.06344743
100	0x3d2c7629	0.042104874
101	0xbdc0b391	-0.094092496
102	0x3eabb259	0.33534506
103	0xbd9273c2	-0.07150985
104	0x3d9a38ac	0.075303406
105	0x3dca466a	0.09876712
106	0x3e00566c	0.12532967
107	0xbd515a9d	-0.051111806
108	0x3eedc1a0	0.46436787
109	0x3ca8b668	0.02059479
110	0x3d42e85d	0.04758488
111	0xbd0614f6	-0.032734834
112	0x3e327b4e	0.1742985
113	0x3dac13e7	0.084022336
114	0x3ecdb02b	0.40173468
115	0x3df25e66	0.11834411
116	0x3d55e9a9	0.05222479
117	0x3de714bc	0.11283252
118	0xbd3c17eb	-0.045921247
119	0xbd6246c3	-0.055243265
120	0x3f9673c6	1.1754081
121	0x3f475aaf	0.7787275
122	0xbed6d040	-0.41955757
123	0xbdce734c	-0.10080585
124	0xbf278950	-0.654439
125	0x3ce162e2	0.027512971
126	0x3f57a3a0	0.84234047
127	0x3f4f9bfb	0.8109738
128	0xbe8ed4cf	-0.27896735
129	0xbd4a5258	-0.049394935
130	0xbf333c50	-0.70013905
131	0x3d70746d	0.058704782
132	0x3fdf6a1f	1.745426
133	0x3f26a761	0.6509915
134	0xbec1e420	-0.37869358
135	0xbd540118	-0.051758856
136	0xbf1bf240	-0.6091652
137	0xbda0ffb9	-0.07861275
138	0x3fdd1c63	1.7274288
139	0x3f238371	0.6387244
140	0xbe900e75	-0.2813603
141	0xbe7c87d5	-0.24661191
142	0xbf36b4b4	-0.7136948
143	0xbea3f2d8	-0.32021213
144	0x3eb0775d	0.34466067
145	0xbd8405ee	-0.064464435
146	0xbc01b7e4	-0.007917378
147	0x3d0758d7	0.03304371
148	0x3daa8667	0.083264165
149	0x3d035a82	0.032068737
150	0x3e8ffa6e	0.2812075
151	0x3e2e04e6	0.16994056
152	0xbd5b78cc	-0.053581998
153	0x3e3f63b3	0.18690376
154	0x3d70f687	0.058828857
155	0xbca1578f	-0.019695072
156	0x3f108322	0.5645009
157	0x3d939456	0.07206027
158	0x3e2675c8	0.16255867
159	0x3d10153e	0.035176508
160	0xbd4e8c38	-0.05042669
161	0xbbded28c	-0.0068000015
162	0x3f261503	0.6487581
163	0x3dad3db1	0.08459032
164	0x3e07d2d1	0.13264014
165	0x3dd3f56a	0.103495434
166	0x3d5baca3	0.053631436
167	0xbe1dd544	-0.15413386
168	0x3e2160dc	0.15759605
169	0xbd5cc0ae	-0.05389469
170	0xbcbf45f0	-0.023348778
171	0xbe18e45d	-0.14930864
172	0x3d84bbba	0.064811185
173	0xbdfbc40b	-0.122932516
174	0x3d86693b	0.0656304
175	0x3c9d7810	0.01922229
176	0x3dd2b2d7	0.10288017
177	0xbd84e9f9	-0.06489939
178	0x3e37215e	0.17883822
179	0x3ae51b42	0.0017479437
180	0x3eebc247	0.4604666
181	0xbd94ee9e	-0.07272075
182	0x3d99453b	0.07483908
183	0xbe04cb6f	-0.12968229
184	0x3da18a2c	0.07887682
185	0x3d955672	0.07291879
186	0x3ede8e79	0.43468073
187	0x3cb9ef44	0.022697099
188	0x3d74e808	0.059791595
189	0x3d735a53	0.05941231
190	0x3e363558	0.17793787
191	0xbddb070c	-0.106947035
192	0xbd14a3a1	-0.03628886
193	0x3ba16c72	0.0049262578
194	0xbe9b64c2	-0.3035031
195	0xbd335a0f	-0.04378706
196	0xbe350344	-0.17677027
197	0x3a993e73	0.0011691585
198	0x3d9a543c	0.07535598
199	0xbc0c0397	-0.008545778
200	0xbea315d4	-0.3185259
201	0x3e1aeaac	0.15128583
202	0xbea4b3d7	-0.32168457
203	0x3c779f68	0.015113689
204	0x3e5fa19f	0.21838997
205	0xbc5d1a4a	-0.013495037
206	0xbe31c1c1	-0.17359067
207	0x3d8c9e21	0.06866098
208	0xbe180754	-0.14846545
209	0x3d22d353	0.039752316
210	0x3cfd508f	0.030922202
211	0xbdbedf37	-0.093199186
212	0xbe88bd19	-0.2670677
213	0xbd59805c	-0.05310093
214	0xbe604487	-0.21901141
215	0xbccb6bfe	-0.024831768
216	0x3e847970	0.258739
217	0x3f460f45	0.7736705
218	0xbe4a4dfe	-0.19756314
219	0x3d18eeaf	0.037337
220	0xbdb53251	-0.08847488
221	0x3e16a7ef	0.14712499
222	0x3cf190d2	0.029488001
223	0x3f566ed1	0.8376284
224	0xbdc8062a	-0.09766801
225	0xbd5bb5ae	-0.05364006
226	0xbe55d412	-0.2088168
227	0x3e1b7521	0.151814
228	0xbdc00394	-0.093756825
229	0x3f740afc	0.9532926
230	0x3ceead8f	0.029135494
231	0x3d90b75d	0.07066224
232	0xbdfa765d	-0.12229607
233	0x3d8fdb94	0.07024303
234	0xbd8dbf69	-0.06921274
235	0x3f430a5e	0.76187694
236	0xbbc0f800	-0.005888939
237	0xbd306ad1	-0.043070618
238	0xbe6cd9ca	-0.23129955
239	0x3e038189	0.12842382
240	0x3f529ec9	0.82273537
241	0x3eea952d	0.45816937
242	0x3d8adebb	0.06780764
243	0x3e9af57a	0.3026541
244	0x3e366eb1	0.17815663
245	0xbe8e9e7b	-0.27855286
246	0x3f03543f	0.51300424
247	0x3ed6b026	0.41931266
248	0x3d1fddd9	0.03902993
249	0x3e9b14ae	0.30289215
250	0x3d121c1a	0.03567133
251	0xbd4c1795	-0.049827177
252	0x3f08384d	0.5321091
253	0x3f05654c	0.5210769
254	0x3c19fc42	0.009398522
255	0x3e7b0291	0.24512698

lstm.weight_hh_l0 f4 [256, 64]
0	0xbd4a6081	-0.04940844
1	0xbdabe8aa	-0.083939865
2	0x3dce7982	0.100817695
3	0xbc7b493f	-0.015337287
4	0xbd505d50	-0.05087024
5	0x3e524383	0.20533566
6	0xbd54f5f0	-0.051992357
7	0xbc97f16a	-0.018547732
8	0xbc5d158b	-0.013493906
9	0xbd7e3bf2	-0.062068887
10	0xbd717b0d	-0.05895524
11	0xbe2d0eff	-0.16900252
12	0x3e7e75d6	0.24849638
13	0x3c6e8b51	0.014559583
14	0xbda7be82	-0.08190633
15	0x3cef302d	0.029197777
16	0x3da9b777	0.08286946
17	0xbd3053c5	-0.04304864
18	0x3bfe812a	0.0077668624
19	0x3d85ba7c	0.0652971
20	0xbde64670	-0.11243904
21	0xbcd052e3	-0.025430148
22	0xbd68be66	-0.056822203
23	0xbd974019	-0.073852725
24	0xbd57a30f	-0.05264574
25	0xbda3e16d	-0.08001981
26	0xbd61c501	-0.05511952
27	0x3d094571	0.03351349
28	0xbe025c00	-0.12730408
29	0xbe1cd952	-0.15317276
30	0xbd686599	-0.056737516
31	0xbe277390	-0.16352677
32	0x3df04243	0.117313884
33	0xbdece515	-0.115671314
34	0xbcaed320	-0.021340907
35	0x3e15994a	0.14609256
36	0xbacacbb8	-0.001547209
37	0x3d292ef4	0.041304544
38	0x3e854316	0.26027745
39	0x3daabd08	0.08336836
40	0x3da312f3	0.07962599
41	0x3c89c8e8	0.016819432
42	0xbdb4cba5	-0.088279046
43	0x3da2c2f0	0.079473376
44	0x3e3cdfec	0.18444794
45	0xbd87b945	-0.06627134
46	0xbe0e85c5	-0.13918217
47	0xbd9cffaa	-0.076659516
48	0xbd873b71	-0.066031344
49	0xbd910663	-0.07081296
50	0x3d53c094	0.05169733
51	0xbd620261	-0.05517805
52	0x3df01598	0.11722869
53	0xbd3ae3b0	-0.045627296
54	0xbd4c5a5f	-0.049890872
55	0xbc7dc568	-0.01548896
56	0x3e1afb9e	0.15135047
57	0xbcb6c753	-0.022311842
58	0xbd0d852f	-0.034550842
59	0xbce8c9b4	-0.028416492
60	0x3c4fef00	0.012691259
61	0x3e01e642	0.12685493
62	0x3de9919d	0.11404727
63	0x3db65cc7	0.089044146
64	0x3d91e39d	0.07123492
65	0x3dfb8855	0.12281863
66	0x3e00caa5	0.12577303
67	0xbdb48091	-0.088135846
68	0x3dbeceac	0.09316763
69	0x3bb4eadc	0.0055211615
70	0x3e2df3f8	0.16987598
71	0x3d8884ef	0.0666598
72	0xbda48a3a	-0.08034177
73	0xbe8becc3	-0.27329072
74	0x3e3da4e0	0.18519926
75	0xbe8260b2	-0.25464398
76	0x3e8e40ff	0.27783963
77	0x3de44b29	0.11147148
78	0xbdd8d2fc	-0.10587117
79	0x3dc62d7c	0.09676644
80	0x3e3e8702	0.18606189
81	0xbdfbcf8d	-0.122954465
82	0x3cf73bbb	0.030179849
83	0x3da388a0	0.079850435
84	0x3d7edf9a	0.06222496
85	0x3e1e40e1	0.15454437
86	0x3d966b77	0.07344716
87	0x3e27b85d	0.16378923
88	0x3ddd2f87	0.10800081
89	0xbd4d2d56	-0.050092064
90	0x3cb4f239	0.022088157
91	0x3dc0f915	0.094225086
92	0xbe1810e1	-0.14850189
93	0xbecffb0d	-0.40621224
94	0xbc250b4b	-0.010073493
95	0xbbbb7985	-0.0057212734
96	0x3e9378d0	0.2880311
97	0xbda06354	-0.07831445
98	0x3d61690c	0.05503182
99	0x3d115e1f	0.03549015
100	0x3d6aae7b	0.057295304
101	0x3d7ede23	0.062223565
102	0x3f3c3780	0.73522186
103	0xbd92d094	-0.07168689
104	0xbcabbbbb	-0.02096354
105	0x3e0f0eb8	0.13970459
106	0x3e569634	0.20955735
107	0x3db56f86	0.08859162
108	0x3e140a30	0.14457011
109	0x3b9fe9b6	0.0048801554
110	0x3c847bc4	0.016172297
111	0x3c2b0395	0.010437866
112	0xbd59b123	-0.053147446
113	0xbd93da67	-0.07219391
114	0xbe0529be	-0.13004205
115	0xbeab5ae9	-0.33467796
116	0xbc1a85b5	-0.009431292
117	0xbd95b1ad	-0.073092796
118	0x3e155e92	0.14586857
119	0xbe42e95d	-0.19034334
120	0xbbc1586a	-0.0059004324
121	0xbdf33284	-0.118748695
122	0xbdba6c1f	-0.09102654
123	0x3d025587	0.031819846
124	0xbd041039	-0.032242034
125	0x3cd70772	0.026248667
126	0xbdd9e34e	-0.10639058
127	0xbe6544e3	-0.2238956
128	0x3de1c745	0.11024336
129	0xbd9258fa	-0.07145877
130	0x3b4cc81e	0.0031247209
131	0xbd885b61	-0.06658054
132	0x3cb5ab5a	0.022176433
133	0xbdc6e405	-0.0971146
134	0xbdd3ad50	-0.10335791
135	0x3dd6a28b	0.10480221
136	0xbdcbebce	-0.099570855
137	0xbde3fc52	-0.11132111
138	0x3e1c17af	0.1524341
139	0xbdddd93d	-0.108324505
140	0x3e08ac02	0.13346866
141	0x3d8a887f	0.06764316
142	0xbe4489a1	-0.19193126
143	0xbd0c422f	-0.034242805
144	0xbd341d04	-0.043972984
145	0xbdce13b9	-0.100623555
146	0xbdc48afd	-0.095968224
147	0xbcc1b144	-0.023644097
148	0xbbb07256	-0.0053847237
149	0xbda4ff16	-0.08056466
150	0xb9d02321	-0.00039699025
151	0x3da05bf3	0.07830038
152	0xbdb3e586	-0.087840125
153	0xbe100b0c	-0.14066714
154	0x3c905dd8	0.017622873
155	0xbdd81ee1	-0.10552765
156	0xbe1c977c	-0.15292162
157	0xbd2182b9	-0.039431307
158	0xbe95e7c7	-0.29278395
159	0x3d2d0050	0.042236626
160	0xbd8e22ff	-0.06940269
161	0x3c645c14	0.013937969
162	0x3b858b43	0.004075439
163	0xbc9ea950	-0.019367844
164	0xbdcd7d8e	-0.10033713
165	0x3d3b014d	0.045655537
166	0x3e1c2944	0.15250117
167	0xbd9a15c0	-0.0752368
168	0xbdcf28eb	-0.10115226
169	0x3d51ded3	0.051237892
170	0xbd511797	-0.051047888
171	0x3ba933da	0.005163652
172	0x3e1a8e16	0.15093264
173	0x3d43ab1d	0.04777061
174	0xbe10b396	-0.14131007
175	0xbd75bfeb	-0.05999748
176	0x3daf7a05	0.08568195
177	0xbd6c1167	-0.057633784
178	0xbc9f1c85	-0.019422779
179	0xbdf9c5fc	-0.12195966
180	0x3d5869b7	0.052835193
181	0x3d79d64b	0.06099538
182	0xbe9844a3	-0.29739866
183	0x3d387bf7	0.045040097
184	0xbdbb69d5	-0.09151045
185	0xbd14590e	-0.03621774
186	0x3e0aa172	0.13538149
187	0x3cde3ce8	0.027128652
188	0x3d80b660	0.06284785
189	0xbbb43c9e	-0.00550039
190	0x3dd00d14	0.101587445
191	0xbdd38829	-0.10328705
192	0xbe8d84ed	-0.27640477
193	0x3cf354d6	0.029703539
194	0x3e2351d1	0.15949179
195	0xbe73caa8	-0.23807776
196	0x3e7cd828	0.24691832
197	0xbe058cce	-0.13041994
198	0x3e4113fa	0.18855277
199	0xbe654d25	-0.2239271
200	0xbea49cd7	-0.3215091
201	0xbe0a7694	-0.13521796
202	0x3ccf56f7	0.025310023
203	0x3d0d8089	0.03454641
204	0x3e86108b	0.26184496
205	0xbc4a70be	-0.012355981
206	0xbe7ebb1f	-0.24876069
207	0x3d3e67a7	0.04648557
208	0x3dca40b5	0.09875623
209	0xbe12eddc	-0.14348549
210	0xbcac8c0f	-0.021062879
211	0x3e03e4c4	0.12880236
212	0xbe20a4ef	-0.15687917
213	0x3d8f36dd	0.06992886
214	0xbdaf0115	-0.08545128
215	0x3e0a856f	0.13527463
216	0x3d98c23e	0.07458924
217	0xbe67b0fe	-0.22626111
218	0xbdb17d1d	-0.086664416
219	0x3e1f60a4	0.15564209
220	0xbe857096	-0.2606246
221	0x3cc85190	0.024452955
222	0x3e4f049b	0.202166
223	0xbe420b31	-0.18949582
224	0x3e6658b5	0.22494777
225	0x3d6112b1	0.054949466
226	0x3cca4a20	0.024693549
227	0x3d9d7acd	0.07689438
228	0xbe8361cf	-0.2566056
229	0xbe57ccbf	-0.21074198
230	0xbdd0e927	-0.1020072
231	0xbe5159d1	-0.20444418
232	0x3e91672a	0.2839902
233	0x3d78a250	0.06070167
234	0xbe67eb1f	-0.22648285
235	0x3daca678	0.08430189
236	0x3ea78013	0.327149
237	0x3daf672e	0.08564602
238	0xbe9ad2da	-0.30238992
239	0x3cac2de0	0.021017969
240	0xbeb9d95e	-0.3629865
241	0xbdd76b13	-0.1051847
242	0xbe788a06	-0.24271402
243	0x3d950015	0.07275406
244	0x3e8c5165	0.2740585
245	0x3e23bf8b	0.15991037
246	0x3eca44e9	0.395057
247	0xbe838bde	-0.25692648
248	0x3e1bb73e	0.1520662
249	0xbe3e24f4	-0.18568784
250	0xbcf183e2	-0.029481832
251	0xbe188a59	-0.14896525
252	0xb9bd3c83	-0.00036093974
253	0xbdc3a84e	-0.09553586
254	0x3e02b978	0.12766063
255	0xbda06f87	-0.07833772

lstm.bias_ih_l0 f4 [256]
0	0xbe1f506e	-0.15558025
1	0xbcc1919e	-0.023629006
2	0xbd22a981	-0.039712433
3	0xbe4a4d7d	-0.19756122
4	0xbdcb1f8b	-0.09918126
5	0xbe4040de	-0.18774745
6	0x3dc7d327	0.09757071
7	0x3d554512	0.052067824
8	0x3cc54f62	0.024085704
9	0xbe1166fc	-0.14199442
10	0xbdfbfc15	-0.1230394
11	0x3e59080f	0.2119448
12	0x3e531286	0.20612535
13	0x3e081f12	0.13293102
14	0xbe1e66cf	-0.15468906
15	0x3d18a0b4	0.037262633
16	0x3e9cff79	0.3066366
17	0xbd8a431e	-0.06751083
18	0x3d8e933d	0.06961677
19	0xbdf45cb5	-0.11931745
20	0x3c8e5389	0.017373817
21	0xbdc70526	-0.09717779
22	0x3deced2c	0.115686744
23	0xbde4318a	-0.11142261
24	0xbe635e2b	-0.22203891
25	0xbe0f7c59	-0.14012279
26	0xbdc99e00	-0.09844589
27	0x3e089179	0.13336743
28	0xbdf1e12d	-0.11810527
29	0x3e1b9d85	0.15196808
30	0x3e895446	0.26822108
31	0xbe22067d	-0.15822788
32	0x3d1f788f	0.038933333
33	0xbc234bc4	-0.009966794
34	0xbde22d92	-0.11043848
35	0xbdd03a9c	-0.10167429
36	0xb910e454	-0.00013817969
37	0xbd360098	-0.04443416
38	0x3ea49fc3	0.3215314
39	0xbdf0afdb	-0.11752292
40	0x3ea58044	0.3232442
41	0xbd8da9ae	-0.069171295
42	0x3dd522aa	0.10407002
43	0x3d2baf15	0.041915018
44	0x3d355005	0.044265766
45	0xbc9871f5	-0.018609026
46	0xbdaf823f	-0.08569764
47	0xbd9420fb	-0.07232853
48	0x3d3c5770	0.045981824
49	0xbde20598	-0.11036223
50	0xbca2952e	-0.019846525
51	0x3d1fbc43	0.0389979
52	0x3d2039e0	0.039117694
53	0xbd96d6eb	-0.07365211
54	0x3f168882	0.58802044
55	0x3dfd7445	0.12375692
56	0x3ddd5d9d	0.10808871
57	0x3d430035	0.04760762
58	0xbe69c4e1	-0.2282901
59	0x3d70e1a4	0.058808938
60	0xbd10893f	-0.035287138
61	0x3dea1012	0.114288464
62	0xbdfd9fd5	-0.12384001
63	0x3dadb6ad	0.08482108
64	0xbcc41bb6	-0.023938995
65	0xbddd888a	-0.108170584
66	0x3c295702	0.010335686
67	0xbdca1b42	-0.0986848
68	0x3d05519c	0.032548532
69	0xbdb8fd4b	-0.09032687
70	0xbce28ee3	-0.027656024
71	0xbdf16cb6	-0.11788313
72	0xbd2fde11	-0.04293639
73	0xbd041e89	-0.032255683
74	0xbd5ce0f7	-0.05392548
75	0x3d2bc419	0.04193506
76	0xbdbb0b61	-0.0913303
77	0x3d96838c	0.07349309
78	0xbdd9dfef	-0.10638415
79	0xbd7f5e23	-0.062345635
80	0x3e03c82c	0.12869328
81	0xbce0ca21	-0.027440133
82	0x3d812d93	0.06307521
83	0xbcc3afc2	-0.023887519
84	0xbe3cd7d6	-0.1844171
85	0xbcc2f500	-0.023798466
86	0x3c8bfe6c	0.017089091
87	0xbde29ebf	-0.11065435
88	0xbde9a1fa	-0.11407848
89	0xbdc13522	-0.094339624
90	0xbe225855	-0.15854008
91	0xbe09ffc6	-0.13476476
92	0xbe1a3c18	-0.15061986
93	0xbc992701	-0.018695356
94	0x3e47346d	0.19453593
95	0x3d9369c1	0.07197905
96	0xbe72833b	-0.23682873
97	0x3d5dd1a1	0.054154996
98	0x3bae72a5	0.0053237253
99	0xbcf581d3	-0.029969132
100	0xbd103d8b	-0.035214942
101	0xbc9300c5	-0.017944703
102	0xbe719b1f	-0.2359433
103	0xbe0493d1	-0.12947012
104	0xbe4972c8	-0.19672692
105	0xbe654b5e	-0.22392032
106	0xbe415ec3	-0.18883805
107	0x3c40992c	0.011755269
108	0xbd2d203c	-0.04226707
109	0x3d8fc6e5	0.07020358
110	0xbdfdacd3	-0.12386479
111	0x3d3c81ff	0.04602241
112	0x3cbbc341	0.022920253
113	0xbd8d4ab5	-0.06899015
114	0xbe22050a	-0.15822235
115	0xbcd9259e	-0.026507195
116	0x3da06939	0.0783257
117	0xbd0cdc55	-0.034389812
118	0xbe579386	-0.2105237
119	0xbe10f00b	-0.14154069
120	0xbc8491ae	-0.016182747
121	0xbe26dd6c	-0.16295403
122	0xbdaa7429	-0.08322937
123	0x3c72a2f7	0.014809362
124	0xbdfabb8d	-0.12242804
125	0xbddb8077	-0.10717862
126	0xbbae785b	-0.005324406
127	0xbe78701f	-0.24261521
128	0xbd552c36	-0.052044116
129	0xbd3e038b	-0.046390098
130	0xbc909d21	-0.01765305
131	0xbb79cb29	-0.0038115478
132	0xbd8686fe	-0.065687165
133	0x3bc5222a	0.0060160356
134	0xbcd4c021	-0.02597052
135	0x3d74eeaf	0.05979794
136	0x3d8752c2	0.06607582
137	0xbcedf1bf	-0.029045938
138	0xbdb015b6	-0.08597891
139	0xbd66d05e	-0.05635106
140	0x3dd687aa	0.104750946
141	0x3d12fa80	0.035883427
142	0xbd9d95b4	-0.07694569
143	0x3cf1376a	0.029445369
144	0xbc0c30ab	-0.008556525
145	0x3d1be353	0.03805859
146	0x3c011e51	0.007880763
147	0xbb936023	-0.0044975444
148	0x3c15f801	0.009153367
149	0x3c59d0cf	0.013294413
150	0x3ceb9e3f	0.028761981
151	0xbd78f401	-0.060779575
152	0xbd6d72e5	-0.0579709
153	0xbcfc88a5	-0.030826876
154	0x3d58642d	0.05282991
155	0x3da0c924	0.078508645
156	0xbd831b11	-0.06401647
157	0x3c7ef7eb	0.015562038
158	0x3d5dae4a	0.054121293
159	0x3d56004d	0.05224638
160	0x3d48a59a	0.048986055
161	0xbd485ba9	-0.04891554
162	0xbd974218	-0.07385653
163	0xbd2a6051	-0.04159576
164	0xbdbebda9	-0.093135186
165	0xbc978be4	-0.018499322
166	0x3cf80c43	0.030279284
167	0xbd891d9a	-0.06695099
168	0xbb12a6ad	-0.0022377179
169	0xbdda00f2	-0.106447116
170	0xbd7f0be2	-0.06226719
171	0x3db6b87a	0.08921905
172	0xbd6dccb1	-0.058056537
173	0xbd89c1bb	-0.06726404
174	0x3d6d400c	0.057922408
175	0x3cfd11a3	0.030892199
176	0x3d8e5575	0.069498934
177	0x3d5890b9	0.052872393
178	0x3d10ee86	0.035383724
179	0xbe040828	-0.12893736
180	0x3d36b4a3	0.044605862
181	0x3c8b9e11	0.017043145
182	0x3d1d2f0b	0.03837494
183	0xbd6106c2	-0.054938085
184	0xbdd7fead	-0.105466224
185	0x3d48f32c	0.04906003
186	0xbdb998f0	-0.09062374
187	0xbd565545	-0.052327413
188	0xbdd0d52c	-0.10196909
189	0x3d3845a3	0.044988286
190	0x3b7a78b5	0.003821892
191	0xbcf099d2	-0.029370222
192	0x3da7a2a8	0.08185321
193	0xbe009710	-0.12557626
194	0xba77c38d	-0.00094514416
195	0xbe44ac4a	-0.19206348
196	0x3b79e15c	0.003812871
197	0xbcf37899	-0.029720591
198	0x3df0de0b	0.11761101
199	0x3c3da3b8	0.011574678
200	0xbde9af72	-0.11410417
201	0xbd0262c1	-0.03183246
202	0xbc4b2444	-0.012398783
203	0x3e4a181a	0.19735757
204	0x3e6d7432	0.23188856
205	0x3df6e571	0.12055481
206	0xbe284c7d	-0.16435428
207	0x3ccdbb63	0.025113767
208	0x3e0c5219	0.13703193
209	0xbdf2e51c	-0.118601054
210	0xbdd95279	-0.106114335
211	0xbe04795c	-0.1293692
212	0xbcf96ea2	-0.030448262
213	0xbd9010e1	-0.070344694
214	0x3d11d447	0.035602834
215	0x3cb0cb86	0.021581423
216	0xbe258f81	-0.16168024
217	0xbdc5d200	-0.09659195
218	0x3d72a279	0.059236977
219	0x3dfd3eda	0.123655036
220	0xbd4e74ad	-0.05040424
221	0x3ea8b534	0.32950747
222	0x3e062728	0.13100874
223	0xbdbd9939	-0.092577405
224	0x3e1f688a	0.15567222
225	0xbe079d00	-0.13243484
226	0x3da4bc29	0.08043701
227	0x3d6b2b2d	0.057414223
228	0x3c4ea6f2	0.012613045
229	0xbd066472	-0.032810636
230	0x3ea16e7e	0.3152961
231	0x3d147595	0.036244947
232	0x3ea85563	0.32877645
233	0xbe22e3fa	-0.15907279
234	0xbc9f2c4e	-0.019430306
235	0x3d01ebfb	0.03171919
236	0x3c97cb55	0.018529573
237	0x3d156a2e	0.036478214
238	0x3e0facf6	0.14030823
239	0x3dd903da	0.10596438
240	0x3e089611	0.13338496
241	0xbd51fc88	-0.051266223
242	0x3d7b717e	0.06138753
243	0xbe260b7f	-0.16215323
244	0xbd0236c2	-0.031790502
245	0x3da4b7ba	0.080428556
246	0x3eda8354	0.4267832
247	0xbd1b9987	-0.037988212
248	0x3da5d9f4	0.08098212
249	0x3d00f476	0.031483136
250	0xbe105c81	-0.14097787
251	0xbdffc1a8	-0.12488109
252	0xbdcabd2a	-0.098993614
253	0x3e093fda	0.13403264
254	0xbd9f1f8b	-0.07769688
255	0x3d91a58c	0.07111654

lstm.bias_hh_l0 f4 [256]
0	0x3d815823	0.06315639
1	0x3d3c7207	0.046007182
2	0x3cc8d2a0	0.024514496
3	0xbde437df	-0.11143469
4	0xbd7f7458	-0.062366813
5	0xbe076c19	-0.1322483
6	0xbdacf50d	-0.08445177
7	0x3c497d92	0.012298005
8	0xbe0ee0fb	-0.1395301
9	0xbe085a04	-0.13315588
10	0xbe0aee6a	-0.1356751
11	0x3dda472a	0.10658105
12	0x3e6f7b53	0.23386888
13	0xbd9505fc	-0.07276532
14	0xbe2ea04b	-0.17053334
15	0xbd65831f	-0.05603325
16	0x3e8b0b0b	0.27156863
17	0xbce89565	-0.02839155
18	0x3e002fc4	0.12518221
19	0xbc9b7228	-0.018975332
20	0xbb48362a	-0.0030549862
21	0xbde72af6	-0.11287491
22	0xbdd8ae33	-0.10580101
23	0xbe100e46	-0.14067945
24	0xbd040297	-0.032229032
25	0xbd6a990e	-0.05727487
26	0x3df952ef	0.121740215
27	0xbd7a0bc0	-0.061046362
28	0xbd978d48	-0.07399994
29	0x3d7a880d	0.061164904
30	0x3dbf6f75	0.093474306
31	0xbd897427	-0.067116074
32	0x3e369aa2	0.17832425
33	0xbc8fec02	-0.017568592
34	0xbd719473	-0.058979463
35	0xbdfa72ea	-0.12228949
36	0x3ced4e9e	0.028968152
37	0xbc6460d1	-0.013939098
38	0x3e8eb664	0.27873528
39	0x3d928dfd	0.07155988
40	0x3e38a24e	0.18030664
41	0xbd63804d	-0.05554228
42	0x3cc21228	0.023690298
43	0xbdb5c6cd	-0.08875809
44	0x3dcc861d	0.099865176
45	0xbe0495d5	-0.12947781
46	0x3d51358b	0.051076453
47	0xbccc600e	-0.024948146
48	0x3dd13071	0.102143176
49	0xbe222d26	-0.15837535
50	0x3dd8e940	0.10591364
51	0xbdbfd65f	-0.0936706
52	0xbd8b27f4	-0.0679473
53	0x3db787b7	0.089614324
54	0x3f2175b0	0.630702
55	0x3de9f09f	0.11422848
56	0x3db086a5	0.086194314
57	0xbdf0d6d9	-0.11759729
58	0xbdea5eea	-0.11443885
59	0x3c9793ac	0.018503033
60	0xbe3b4f0e	-0.18291876
61	0x3e0ebca6	0.13939151
62	0x3c5c3a03	0.013441565
63	0x3e36a238	0.17835319
64	0xbd94d45b	-0.07267066
65	0xbcb9e80e	-0.02269366
66	0xbdcd8de7	-0.10036831
67	0xbe91ebfe	-0.2850036
68	0xbda95086	-0.08267312
69	0xbe0b7ee6	-0.13622627
70	0xbda0c902	-0.07850839
71	0xbe042013	-0.1290286
72	0xbe50cde9	-0.20391048
73	0xbd958248	-0.0730024
74	0xbe1696fc	-0.14706033
75	0x3d369a77	0.044580903
76	0xbd8e947f	-0.06961917
77	0xbdce3550	-0.10068762
78	0xbdbbf10d	-0.09176836
79	0xbdb98bc2	-0.0905986
80	0x3e59c2cb	0.21265714
81	0xbdd414d4	-0.10355535
82	0xbe197b81	-0.14988519
83	0xbd8e4f0f	-0.06948673
84	0x3aa31ce6	0.0012444525
85	0xbe52a550	-0.20570874
86	0xbe29addb	-0.16570227
87	0xbe0b0cf4	-0.1357916
88	0xbe3e4d06	-0.1858407
89	0xbd5a7e7c	-0.05334328
90	0xbdd3fc13	-0.10350814
91	0xbcc97857	-0.024593515
92	0xbe898ebc	-0.2686671
93	0xbe5bba39	-0.21457757
94	0x3e077ed0	0.13231969
95	0xbc9d4cf1	-0.019201728
96	0xbdfb2ab1	-0.12264002
97	0xbe270ce1	-0.16313507
98	0xbe1ffc6c	-0.15623635
99	0x3cffafc9	0.03121175
100	0x3cc9e64b	0.024645945
101	0xbd32e126	-0.04367175
102	0xbeab20ef	-0.33423564
103	0xbc915876	-0.017742377
104	0xbd838f6f	-0.06423842
105	0xbd650f8f	-0.05592304
106	0xbddb9e1e	-0.10723518
107	0xbd3b4a12	-0.045724936
108	0xbdd8322e	-0.10556446
109	0xbd746a98	-0.05967197
110	0xbd8b8537	-0.06812518
111	0xbdc2157f	-0.09476756
112	0xbbc4274f	-0.0059861313
113	0xbe16f17e	-0.1474056
114	0xbd9d1b5f	-0.07671236
115	0x3d292a53	0.04130013
116	0xbccbf503	-0.024897104
117	0x3d73ecb1	0.0595519
118	0xbe51722a	-0.20453706
119	0x3dad6a40	0.08467531
120	0xbe137ba7	-0.14402638
121	0xbcf66de4	-0.030081697
122	0xbbe78ca2	-0.0070663253
123	0xbde701cb	-0.11279639
124	0xbcfd2b23	-0.030904358
125	0x3c076811	0.008264557
126	0xbde46108	-0.1115132
127	0xbea3ee2b	-0.32017645
128	0x3d5d45aa	0.054021515
129	0x3daa7041	0.08322192
130	0xbb6a7bc3	-0.0035779334
131	0x3d848f6e	0.064726695
132	0xbd1c0aae	-0.038096122
133	0x3d0a7f87	0.033813026
134	0x3c9f0f27	0.019416405
135	0xbc188952	-0.009310083
136	0xbdd0fc2c	-0.10204348
137	0xbcf0c9d7	-0.02939312
138	0x3d3d7787	0.04625657
139	0x3d114d16	0.035473906
140	0xbd9a2efa	-0.07528491
141	0x3db41023	0.0879214
142	0x3d0dbf18	0.03460607
143	0x3cc7b970	0.024380416
144	0x3dd5425b	0.10413047
145	0x3c70427f	0.014664291
146	0x3d86ab57	0.06575649
147	0xbc790bd3	-0.015200573
148	0x3c989b7d	0.01862883
149	0x3c2e7527	0.0106480485
150	0xbca9c90d	-0.020725751
151	0x3d15875a	0.036506034
152	0x3d3a4815	0.0454789
153	0x3dd6a564	0.104807645
154	0xbc685c5f	-0.014182179
155	0xbd51d0b3	-0.05122442
156	0x3dc53717	0.09629648
157	0xbd59c4b0	-0.05316609
158	0x3cd8d4fd	0.026468748
159	0x3c4cc608	0.012498386
160	0xbda66cd8	-0.08126229
161	0x3cafd6b6	0.021464687
162	0x3da05900	0.078294754
163	0x3db32b9e	0.08748554
164	0x3de47979	0.111559816
165	0x3b8be74e	0.004269517
166	0x3d3c94d7	0.046040382
167	0x3d7d6bdc	0.06187044
168	0x3c6fc7bc	0.014635023
169	0x3d8afcb4	0.067864805
170	0x3df6745f	0.12033915
171	0x39f39bb2	0.00046464574
172	0x3d2df71f	0.042472
173	0xbd6b9129	-0.057511482
174	0xbd1e7dc9	-0.038694177
175	0x3d91c7f6	0.07118218
176	0xbdef7e0d	-0.11693964
177	0xbd9a6fd1	-0.075408585
178	0x3d0877c4	0.033317342
179	0x3dc53117	0.09628504
180	0xbd88c25a	-0.066776946
181	0xbd9b32d3	-0.07578053
182	0x3d638095	0.055542547
183	0x3ce58bda	0.028020788
184	0x3dd3186f	0.10307395
185	0x3d32c19f	0.043641683
186	0x3db7ac82	0.0896845
187	0x3dbf8f1f	0.0935347
188	0x3d902708	0.070386946
189	0xbbab511b	-0.0052281744
190	0xbd4abdf9	-0.04949758
191	0x3d744dac	0.059644386
192	0x3c32dc74	0.010916818
193	0xbdfbd8e0	-0.12297225
194	0x3ce22901	0.027607443
195	0xbd5afa56	-0.053461395
196	0xbcf12377	-0.029435856
197	0xbdfc3c3a	-0.12316175
198	0xbb40aff1	-0.0029401744
199	0x3dec6203	0.11542132
200	0x3d19326e	0.03740161
201	0x3d70f12b	0.058823746
202	0xbcf74791	-0.030185493
203	0x3e0f3755	0.13985951
204	0x3de79acc	0.11308822
205	0xbd9920a8	-0.07476932
206	0xbdddb676	-0.10825817
207	0xbdc6a0f8	-0.09698671
208	0x3e8a8d21	0.27060798
209	0x3d22cc0f	0.039745387
210	0x3d0a7c62	0.033810027
211	0xbe362253	-0.17786531
212	0xbd093b37	-0.033503737
213	0xbd9c585d	-0.076340415
214	0xbd4b061d	-0.049566377
215	0xbdf3f1c9	-0.11911351
216	0xbd70b6c7	-0.05876806
217	0xbe282388	-0.16419804
218	0xbb0c88eb	-0.0021443914
219	0x3da383ec	0.079841465
220	0xbe08b8f4	-0.13351804
221	0x3de81869	0.11332781
222	0x3d004037	0.03131124
223	0x3d32c3c4	0.043643728
224	0x3e0bdf64	0.13659436
225	0xbd36f4e5	-0.044667143
226	0x3d92051d	0.071298815
227	0xbd4dc6f5	-0.05023857
228	0x3c4366e7	0.011926389
229	0x3dacbcd2	0.08434452
230	0x3eb202c6	0.3476774
231	0x3cb52af6	0.022115212
232	0x3eab4451	0.3345056
233	0x3c4275be	0.011868892
234	0x3d75b45d	0.05998646
235	0x3d4d3e2f	0.05010813
236	0x3e13aafa	0.14420691
237	0xbdb0bdad	-0.08629928
238	0xbcb3858b	-0.021914264
239	0x3d8de26f	0.069279544
240	0xbdc52db4	-0.09627858
241	0xbe5e3b78	-0.21702373
242	0x3d89024c	0.06689891
243	0xbe387e4d	-0.1801693
244	0x3c87ba4b	0.016568324
245	0x3d13a37b	0.03604458
246	0x3eaf4a00	0.34236145
247	0xbd9ae546	-0.07563262
248	0xbcccd214	-0.025002517
249	0xbd75ce3b	-0.06001113
250	0xbe0a35e9	-0.13497128
251	0xbd4c15a5	-0.04982533
252	0xbd20354a	-0.03911332
253	0x3df8b807	0.121444754
254	0xbdb7945f	-0.089638464
255	0x3df55850	0.11979735

fc.weight f4 [1, 64]
0	0x3d06f8b1	0.032952014
1	0x3dc32966	0.095293805
2	0xbd8ff87d	-0.07029817
3	0xbc2afe6b	-0.0104366345
4	0xbe0117ea	-0.12606779
5	0xbe8b864d	-0.272509
6	0xbe064cd9	-0.13115253
7	0x3dd0333c	0.10166022
8	0xbd84bcd0	-0.064813256
9	0xbc1b9f14	-0.009498376
10	0x3e07ec7c	0.13273805
11	0x3def7ef8	0.11694139
12	0xbe789202	-0.24274448
13	0xbde83601	-0.113384254
14	0x3d006c7f	0.03135347
15	0xbe1d6baf	-0.1537311
16	0xbe462be5	-0.19352682
17	0x3d2e4dfe	0.042554848
18	0x3dbe2099	0.09283561
19	0xbd0f7c4d	-0.03503065
20	0xbcb34c32	-0.021886919
21	0xbc761d00	-0.015021563
22	0xbdf3c393	-0.11902537
23	0xbcc6b84a	-0.024257798
24	0x3d9974b4	0.074929625
25	0xbc12632c	-0.008934777
26	0x3dc27474	0.09494868
27	0xbe084a59	-0.13309611
28	0xbca26e2f	-0.01982793
29	0x3e8695a5	0.26286045
30	0xbe7961ac	-0.24353665
31	0x3e0d3342	0.13789085
32	0xbe473e52	-0.19457367
33	0x3e156001	0.14587404
34	0xbd854b7f	-0.0650854
35	0xbd910954	-0.07081857
36	0x3d6f1bb9	0.058376048
37	0x3dbdb423	0.09262874
38	0xbe2f56b1	-0.17122914
39	0x3d3b239d	0.04568826
40	0xbe94339d	-0.28945628
41	0x3c8f561c	0.017497115
42	0x3d8c86d1	0.06861652
43	0xbe070c6f	-0.13188337
44	0xbe08ac16	-0.13346896
45	0xbe1aae79	-0.15105619
46	0x3de475cf	0.11155283
47	0xbdfff433	-0.12497749
48	0x3e015048	0.12628281
49	0x3ce1c294	0.027558602
50	0x3dc926d4	0.09821859
51	0xbd11233b	-0.03543399
52	0xbdc320ad	-0.09527717
53	0xbdfe60ae	-0.12420784
54	0x3e35c05b	0.17749159
55	0x3e138aa8	0.14408362
56	0xbe1c7b2f	-0.15281366
57	0xbda53d13	-0.080682896
58	0x3cd0cba9	0.025487738
59	0x3de06396	0.109564945
60	0xbb94c9ae	-0.0045406437
61	0xbe042ed6	-0.12908491
62	0xbd001cc3	-0.03127743
63	0xbe4ab024	-0.19793755
