output/river_level_predictor_ep100_lr0.002_lu4/model.pth (torch, 94779 bytes, 6 tensors)

linear.weight f4 [1, 2]
000000 84 28 6c bf ea 95 7d bf
       -0.9224932 -0.99056876

lstm.weight_ih_l0 f4 [256, 24]
000000 e6 cd a6 3d 93 6d 0d be cd 8f fd bc 98 8d 84 bc
       0.08144741 -0.1381133 -0.030952359 -0.016180798
000010 56 ec 9d 3c 23 12 22 3e 6c f5 4b 3c 09 17 d7 bd
       0.019277733 0.15827231 0.01244865 -0.105024405
000020 44 b6 10 3e cf f5 8d 3d 01 8f 5a 3d 8b 4d 53 3e
       0.14132029 0.0693165 0.053359035 0.20635049
000030 18 c2 49 3e 6d 13 9f bd 2b d4 5c 3d 88 82 18 3d
       0.19702947 -0.07767377 0.053913277 0.03723386
000040 ad 5d fa bc 9b 54 5a be 77 4f ab 3e 5a 8e 01 be
       -0.030562246 -0.21321337 0.33459064 -0.12651959
000050 71 39 8d bc 76 3c aa bd 94 dc 46 bc 3f 78 0b bf
       -0.017239304 -0.08312313 -0.012137551 -0.54480356
000060 07 03 e0 bd 8a 24 66 bd ab e5 3a bd 0c 8b bd 3d
       -0.109380774 -0.05618719 -0.045629185 0.09255037
000070 c6 29 ff bd 29 82 08 3e 4d 63 b5 bc 1b e9 91 3b
       -0.124591395 0.13330902 -0.022142077 0.004452837
000080 02 a3 00 be 7e 01 df 3d 39 c0 6c 3c 7c 64 c9 3c
       -0.12562183 0.108889565 0.014450126 0.024584047
000090 0d 1d 52 be 86 15 97 3d 9d 56 03 bd ad 8d f0 bc
       -0.20518894 0.07377152 -0.032065023 -0.029364431
0000a0 aa a1 9e bd 3a 30 99 3d 1a 91 f8 bd 08 6e 65 bd
       -0.07745679 0.074799016 -0.12137051 -0.056013137
0000b0 05 de 1e bd df a6 0d bd 6a ad fa bd 8a 78 44 3e
       -0.038785953 -0.03458297 -0.12240107 0.19186607
0000c0 84 8e 31 3e ad ca d5 3d 28 af e4 3d e1 04 06 bd
       0.17339522 0.10439048 0.11166221 -0.032719497
0000d0 aa 7f b2 3d 39 3b 23 be 12 ab 3e 3e 86 5a 25 3e
       0.08715756 -0.1594056 0.18619946 0.16147813
0000e0 fd 7c 09 3e bc 37 83 bd e8 13 2d 3e 83 42 21 bd
       0.13426585 -0.06407115 0.16902125 -0.03937007
0000f0 e1 4d a5 3e 96 c4 1a bd 4f 2a 37 3d 92 54 a2 3d
       0.3228598 -0.037785135 0.044718083 0.07926287
000100 02 c7 12 3d 62 6b ac be cd cd 77 3e 5a e9 28 3e
       0.03583432 -0.33675677 0.241996 0.16495267
000110 22 90 e6 3d df 53 55 3d cb de 9a 3d c0 90 d2 be
       0.1125796 0.05208194 0.07562026 -0.4112606
000120 03 73 7e bd ff 15 1b 3d 44 42 21 bd cf 6b 02 bd
       -0.062121402 0.037862774 -0.039369836 -0.031841096
000130 4c 92 ed 3d 4d e1 9f 3c ef 4e 8d 3d e1 60 d4 bc
       0.116001695 0.019516611 0.06899821 -0.025925102
000140 ed 45 20 bc bf d3 5c bd ed 5a 3e bd 9b 2f 74 be
       -0.009782297 -0.053912874 -0.046473432 -0.23846285
000150 56 8a 85 be c8 fc 8f 3d 31 13 07 3e d7 53 d2 3d
       -0.26082104 0.07030636 0.13190915 0.102698974
000160 48 6e 2f 3d 49 0f 55 3e f2 37 07 bf bc b4 b6 3d
       0.04282978 0.20806612 -0.5281974 0.08921191
000170 77 06 f7 3d 6e bd 6f 3c 2a 57 aa 3d a8 64 12 3f
       0.1206178 0.014632566 0.083174065 0.5718484
000180 ca c1 c3 3e af 75 05 3f 30 c0 a4 3e 5a 9b 2e 3f
       0.38233787 0.52132696 0.32177877 0.682058
000190 8c 2a 9a 3e db 98 90 be f1 35 55 3e 0e 5b fd 3e
       0.30110586 -0.2824162 0.20821358 0.49483532
0001a0 01 52 8d 3e 6f d6 08 3f 70 e7 59 3e 04 54 bc be
       0.27601627 0.534522 0.21279693 -0.3678285
0001b0 68 26 32 bf be ce fd 3e 0a 60 8b 3e 92 2d 0d 3f
       -0.69589853 0.49571794 0.2722171 0.5514766
0001c0 0c b3 29 3e 8e ae 38 3f 3d 08 46 bf 73 57 2a 3f
       0.16572207 0.7214135 -0.7735632 0.66539687
0001d0 c4 c9 f7 3d 88 79 f5 3e 87 c5 b1 3d a4 1c 8f 3f
       0.120990306 0.47944283 0.086802535 1.1180615
0001e0 59 c7 b6 bd 1a a7 ce bd e1 3c e2 bd d9 67 63 bd
       -0.08924741 -0.10090466 -0.11046768 -0.05551896
0001f0 ff 60 4d 3d 9c ee 02 be 39 41 e8 3c 87 bc 3b be
       0.05014133 -0.12786335 0.028351413 -0.18333636
000200 70 56 d4 3c 1a f7 e8 3d 6e a6 fa 3c 6e 8e ba 3d
       0.025920123 0.11375256 0.030596938 0.091091976
000210 b0 d0 2d be 6a fe c6 bd da da d3 bc 9a 8f d5 bd
       -0.16974139 -0.097164944 -0.025861192 -0.104277804
000220 47 42 da 3d e7 57 d2 bd 28 2d 27 be 26 60 9c bd
       0.10657173 -0.10270672 -0.1632582 -0.07635526
000230 71 a4 d9 bd cd b5 61 bd 9d b7 4f 3c b3 e7 22 3e
       -0.10627068 -0.05510502 0.012678054 0.15908699
000240 6c 6c 30 3e e6 52 c2 bd f4 8c 4b 3d 88 38 1f 3d
       0.1722886 -0.09488468 0.04969497 0.03887227
000250 18 ee 90 bd 06 e4 51 bd a6 b3 01 bc 70 c7 63 3c
       -0.07076663 -0.05124285 -0.007916367 0.01390253
000260 b4 dd 2c 3d 9a 07 1e 3b ee df af bc 9d af 05 bc
       0.04220362 0.0024113418 -0.021469083 -0.008159545
000270 63 d9 34 3e b8 bf 2f 3a 67 e2 ae 3d 4e 77 8f bd
       0.17661051 0.00067042885 0.085392766 -0.070051774
000280 74 39 b4 bd 21 5b 87 bc 62 35 83 3e a2 56 9d 3d
       -0.08800021 -0.016522946 0.25626665 0.076825395
000290 fe be af bc 9d af de 3c aa 53 9e bd b2 6d 1f be
       -0.021453377 0.027183348 -0.077308014 -0.15569189
0002a0 63 fa 1b 3e a3 40 0b 3e a8 d4 ca 3d 93 3b f1 3c
       0.15232234 0.13598876 0.09903842 0.029447353
0002b0 fc 30 62 bd 57 9c 39 be 3c c2 8f 3d 7d da 16 3e
       -0.055222496 -0.18126045 0.07019469 0.14731784
0002c0 4a 4b c9 bd 50 06 11 3e cf b6 b0 3d b8 52 01 bd
       -0.098288134 0.14162564 0.08628618 -0.031573027
0002d0 1c 6f 00 3e ba 68 0a 3e 80 ef 9c 3d 64 76 b2 3d
       0.12542385 0.13516513 0.076628685 0.087139875
0002e0 e2 68 81 3c 6e a8 4e bd e3 0b 60 3e 62 56 6d 3b
       0.015797082 -0.050453596 0.21879534 0.0036214818
0002f0 2c 68 99 bc 1e 49 d0 bd 52 d5 87 3d fb 66 20 be
       -0.01872643 -0.10170196 0.066324845 -0.15664284
000300 4d af 9b bd c6 29 18 be 1d d0 78 3e 20 70 c5 bd
       -0.07601795 -0.14859685 0.24298139 -0.09640527
000310 5e 7e 19 3e ad a9 08 3d 73 73 01 3e 01 d3 f5 bd
       0.14989612 0.03336494 0.12641697 -0.120031364
000320 23 60 67 3e d3 7e 21 3a 28 45 1b 3e 73 b8 25 3d
       0.22595267 0.0006160561 0.151631 0.040459108
000330 ee d1 ec bd 5e 65 ab be b5 9a 43 3e c9 32 70 3d
       -0.115634784 -0.33475775 0.19101985 0.058642182
000340 6f f3 a9 3d 42 a1 fa 3d 15 e7 19 be 9f 21 8f be
       0.082983844 0.12237789 -0.15029557 -0.27955338
000350 45 b9 39 3e d1 d5 dd 3b 1f 88 e8 3d 1d 1f 37 3e
       0.18137081 0.0067698737 0.11354088 0.17882963
000360 2f bf 3c 3e 7c e6 87 3e e4 40 0a bc 90 d9 d1 3d
       0.18432306 0.26543033 -0.008438323 0.10246575
000370 f5 89 f4 3d 3b 79 8d be 88 b1 12 3e 73 68 3c 3e
       0.11940376 -0.27631554 0.14325535 0.18399219
000380 1b fd bd 3d 10 ad 05 bc 8d 22 a7 3d eb 7c d1 be
       0.09276792 -0.008158937 0.08160887 -0.40915617
000390 c5 e2 38 3e c3 e8 24 3e 7a dd 06 bd 0a a7 b0 3d
       0.18055256 0.16104417 -0.03292606 0.0862561
0003a0 37 eb 95 3d 62 1b b8 be 7e fd 18 bc 7d 47 25 3e
       0.07320254 -0.3595839 -0.009337781 0.16140552
0003b0 77 04 d9 3d 3e 14 2a 3c a9 81 87 bd 24 cd a9 be
       0.10596555 0.010380803 -0.066165276 -0.33164322
0003c0 ef 15 97 3e 2d 24 a1 3e 69 b0 84 3e 89 c8 15 3f
       0.29508922 0.31472912 0.2591584 0.5850912
0003d0 6c d9 85 3d a4 a7 50 3e d7 d6 dd 3e bf dc a6 3d
       0.065356106 0.2037645 0.43327972 0.08147573
0003e0 24 ff 1c 3e 15 2b 18 3f b1 1d 5f 3d 0b 78 92 3e
       0.15331703 0.5944074 0.054471675 0.2860721
0003f0 88 49 5b 3e 70 36 01 3e e2 ec 9b 3d a0 90 1f 3f
       0.21414769 0.12618423 0.07613541 0.62330055

lstm.weight_hh_l0 f4 [256, 64]
000000 1d 23 23 3e 27 5a 3d 3e c4 b0 1c bb 3a b7 d7 bd
       0.15931363 0.18491422 -0.0023909071 -0.105329946
000010 b7 a2 8f be ab 7b 91 bd 3c 48 8f 3b f7 f5 0b bd
       -0.2805383 -0.07103666 0.0043726247 -0.034170117
000020 0b 2a ec 3d 6a b5 12 bd 11 b8 33 3e 3b c4 7c bd
       0.115314566 -0.03581754 0.17550685 -0.061710577
000030 8b 00 13 be 46 af 33 bd 7a fd 0d 3c d6 26 ee 3d
       -0.14355676 -0.043868326 0.008666391 0.11628501
000040 2b 2f 03 be 1c 88 e7 bb d2 0d af 3b 1d 1c 8d 3d
       -0.12810962 -0.007065786 0.0053422237 0.06890128
000050 5a 55 16 be 67 67 57 3d fe af 68 bd 77 0a 99 bc
       -0.14680997 0.052588847 -0.056808464 -0.018681748
000060 4f ae 14 3d a9 38 66 bd d7 21 61 3c b6 09 77 bd
       0.036299046 -0.05620638 0.013740978 -0.060311995
000070 d0 ac f0 bd e9 57 84 bc 20 a0 46 3d fe a1 02 3e
       -0.11751711 -0.0161552 0.04849255 0.12757108
000080 d6 c1 d7 3d 86 cd 36 be 87 84 c4 bd 64 c2 cd bd
       0.10535018 -0.17851838 -0.0959559 -0.10046843
000090 47 41 52 bc 21 ee e4 bc 69 af a2 3d eb 64 82 3d
       -0.012832946 -0.02794558 0.07943613 0.06366905
0000a0 67 e5 40 ba 04 30 9a 3d 6d 99 2a bd 2e b6 8d 3d
       -0.00073584024 0.075286895 -0.041650224 0.06919514
0000b0 f3 d0 0c 3d 84 d6 c5 3d 1e 43 90 bd e5 11 54 3e
       0.034378957 0.09660056 -0.070440516 0.20709951
0000c0 e0 4f 09 3d b0 50 05 be cd af 1f be 09 f4 39 3d
       0.03352344 -0.13019061 -0.15594406 0.045398746
0000d0 a4 3d a2 bc a4 fb f3 3d 25 4f 82 bd dd 00 a2 3d
       -0.019804783 0.11913231 -0.06362752 0.07910321
0000e0 dd b1 b7 bd c6 30 b8 bd 6c 53 6b bd 77 d6 28 3c
       -0.089694716 -0.08993678 -0.057452604 0.010305039
0000f0 e6 25 c7 bb 53 53 51 bd 12 24 17 3d 18 74 b2 3d
       -0.006077516 -0.051104855 0.036899634 0.087135494
000100 d5 11 4f bd bf 1a 9a 3d 71 60 d1 bd 95 c8 6e 3d
       -0.050554115 0.07524633 -0.10223473 0.05829676
000110 c3 79 89 be b3 3a dc 3c 97 6e 10 bd 97 2d a5 3c
       -0.2685071 0.026883459 -0.035261717 0.02016334
000120 0f 44 54 bd b9 dd 11 3e a9 48 a9 3d 71 e8 42 bd
       -0.05182272 0.14244737 0.08265812 -0.047584955
000130 60 78 01 3d cb 5a f7 bd c3 13 13 be 6c c5 3b be
       0.03160894 -0.12077864 -0.14363007 -0.18337029
000140 04 6c 01 3e aa 27 85 3d ee 0e 17 be bf 20 37 3d
       0.12638861 0.06501706 -0.14751789 0.044708963
000150 80 66 15 bd d3 16 b6 3d e5 21 3f bc 7d c4 cb 3c
       -0.036474705 0.08891072 -0.011665796 0.024873966
000160 70 5b 6e bc ed 46 b4 bd 0c 65 c4 3d b8 8d 57 bc
       -0.014548168 -0.088025905 0.09589586 -0.013156347
000170 57 ea 3c bd f4 3e 96 bd db 78 1b 3d eb 03 04 3e
       -0.04612192 -0.07336226 0.037957054 0.1289212
000180 0e 0c da bd fe e7 9c bd 5d 59 cf bd b1 79 a6 3d
       -0.106468305 -0.076614365 -0.101244666 0.081286795
000190 43 d4 e4 3d 17 3c f9 3b 4b 67 51 bd 06 77 9a bc
       0.11173298 0.00760604 -0.0511239 -0.018855583
0001a0 b2 10 74 bd 32 46 3a 3d dd c4 83 3c 2f a9 0e be
       -0.059586234 0.0454771 0.016085083 -0.13931726
0001b0 4a 6a 0b be f0 4a 4f 3c 3c 8a 99 3d 85 17 23 3d
       -0.13614765 0.012652144 0.07497069 0.03981735
0001c0 0d 64 3a bb cb 2c 93 3d 64 7b 08 3d 64 97 d4 3d
       -0.0028440983 0.07186278 0.0333208 0.10380438
0001d0 6c f9 00 be 96 82 6d 3d 6e ef dc bd 70 66 15 3d
       -0.12595147 0.057985865 -0.10787855 0.036474645
0001e0 24 4e 5a bd 3b 27 1c 3e de 13 0d 3e 52 98 36 bd
       -0.053297177 0.1524934 0.1377711 -0.044578858
0001f0 2b 4c a7 3c e6 4c 89 3d 5c cd c3 3d 1b a9 01 be
       0.020422062 0.0670412 0.095606536 -0.12662165
000200 ad a5 e4 bd d0 d6 6e 3d 8a c8 b2 3c 73 3a b2 bd
       -0.11164413 0.05831033 0.02182414 -0.087025546
000210 29 da 5f bd 96 74 2b bd 31 ac 97 3c a2 b2 e8 bc
       -0.054651413 -0.041859232 0.018514724 -0.028405491
000220 8a 02 71 bd 9d 2f 45 be c9 ee 21 3e 8f e5 c3 3d
       -0.058840312 -0.19256444 0.15813746 0.09565269
000230 9e a1 4e 3d f9 0e 8b 3d 4c 61 7f bc c5 ce cd 3e
       0.0504471 0.06789965 -0.015587162 0.40196815
000240 47 e5 83 3d 59 d5 8d 3d 8d 89 d3 3d 79 96 29 3b
       0.064402156 0.069254585 0.1032897 0.0025877042
000250 8f 6f 21 be bc a8 8d 3d 96 fe a5 3d bd fa 4e bd
       -0.15765212 0.06916949 0.08105199 -0.05053209
000260 25 d3 ec bc b2 8f 81 bd 3f f0 cb bd 08 76 bc b8
       -0.028909275 -0.06326236 -0.09957933 -8.9865236e-05
000270 e2 9b 22 bd 34 e7 0c 3e a5 11 1c 3d 84 26 4f 3d
       -0.039699443 0.13760072 0.038102765 0.05057384
000280 7c a6 14 be 14 85 6f 3d 68 93 c0 3d 40 99 b0 bc
       -0.14516634 0.058476523 0.094031155 -0.02155745
000290 40 b3 6b be 4b 85 0c be c0 f2 f0 bd 89 40 96 bd
       -0.23017597 -0.13722722 -0.11765051 -0.07336528
0002a0 9a dd 83 3d 57 c7 b9 bd 84 8f 05 bd 8c 95 6c 3c
       0.064387515 -0.09071224 -0.03260757 0.014439952
0002b0 47 85 d3 bd 30 84 04 3e 88 56 d6 3d 2a e6 e4 bd
       -0.10328155 0.1294105 0.10465723 -0.11176713
0002c0 f1 53 03 3d 40 77 dd bd 16 51 15 3c dc c8 1c bd
       0.032062475 -0.10813761 0.009113571 -0.038277492
0002d0 c9 35 af bd 84 ee 6d 3e 06 57 98 3d 7a ad 12 be
       -0.085551806 0.23235518 0.074384734 -0.14323989
0002e0 c2 82 c0 3d 32 2c 30 be 0c e2 18 bb c8 04 67 3d
       0.0939994 -0.17204359 -0.0023328094 0.056401044
0002f0 ac 78 32 3b 1c a5 2d 3e 7f 07 65 be a5 20 b9 bd
       0.002723257 0.16957515 -0.22366141 -0.090394296
000300 26 7e bf 3e 9c 81 03 3e 8d b4 57 be 71 59 fc bd
       0.3740093 0.12842411 -0.21064968 -0.12321747
000310 93 07 85 be c2 7c 7c be d9 47 37 be f8 ee 48 be
       -0.2598234 -0.24656966 -0.17898501 -0.1962241
000320 cb 62 8e 3d 4a 06 96 be b4 db 92 3c b2 5c 39 3e
       0.06952437 -0.29301673 0.017927028 0.18101767
000330 7e 9c a9 3a 33 00 44 3d 4c 76 4c 3e cc 13 21 bf
       0.0012940315 0.047851752 0.19967002 -0.6292083
000340 e0 21 d8 bc c4 85 c7 bd 0f d1 0c 3e 27 41 0d be
       -0.02638334 -0.09742311 0.13751625 -0.13794385
000350 59 22 9a bc 88 51 84 3e 55 c2 04 be 95 bb e4 bc
       -0.018815206 0.25843453 -0.12964757 -0.027921477
000360 d5 ce 1e be 63 5c 70 be 9a 97 57 be 1d 70 63 3e
       -0.15508588 -0.23472743 -0.21053925 0.22210737
000370 e2 34 8b be 56 cb a9 3d 7a d6 50 3e af 74 c1 3d
       -0.27188784 0.082907364 0.20394316 0.09446084
000380 67 fb 17 3d d6 f9 37 be f4 79 39 3e 18 73 06 3e
       0.03710499 -0.17966399 0.18112928 0.13129842
000390 12 17 ba be 6a 07 b2 3e 32 89 72 bb de 35 6c 3e
       -0.36345726 0.3477128 -0.0037008044 0.23067424
0003a0 68 a2 78 3d d6 cb 50 3e 3c 1b 7f 3e 03 e8 74 bd
       0.060701758 0.20390257 0.24912733 -0.059791576
0003b0 fd 8f 86 3e 02 af 91 be 99 06 4b 3e 9b 8d d2 3d
       0.2628173 -0.28453833 0.19826736 0.10280915
0003c0 d9 d0 4e 3e 50 16 5a bc 63 54 5e be 05 ca 4d 3e
       0.20196857 -0.013310984 -0.21711878 0.20096596
0003d0 68 31 19 3e ce c8 06 3c da b1 2c 3e bb a6 89 be
       0.14960253 0.0082265865 0.1686472 -0.26885018
0003e0 27 05 42 bd 4d e1 a2 bd 3c f7 bf bd db 68 c7 be
       -0.047368195 -0.07953129 -0.09373328 -0.38947186
0003f0 db d9 a0 3e 75 e6 33 3e c3 d9 89 3d 3f bb 77 3e
       0.3141621 0.17568381 0.06730988 0.24192522

lstm.bias_ih_l0 f4 [256]
000000 fe 93 28 3b 4f 6b e5 3d ab 97 89 bc 5f 54 04 3e
       0.0025722976 0.11202108 -0.016795954 0.1292281
000010 e8 48 bf 3e 47 f6 b9 bd 86 f7 b9 3d d5 6d 42 3d
       0.3736031 -0.09080177 0.090804145 0.047468025
000020 44 c5 f0 3c 7e af ad 3b 59 92 03 3f f7 f4 b1 3d
       0.029390939 0.0053004613 0.51395184 0.086893015
000030 71 a3 b2 bd 6b d0 06 3e c8 b2 3c 3d 5c 29 b7 3e
       -0.0872258 0.13165443 0.046068937 0.35773742
000040 5e ef 62 3e a7 c3 b4 3c 0b 8e 26 3e e7 15 d4 bd
       0.22161624 0.02206595 0.16265123 -0.1035574
000050 fa 2c 99 3e 52 07 d3 3d 91 f7 c7 3b 05 30 75 3d
       0.29917127 0.103041306 0.0061025103 0.059860248
000060 c5 4e 20 bc c3 ce 8b bd 4e d5 71 3d 2f 01 68 3e
       -0.009784405 -0.06826546 0.059041314 0.22656702
000070 60 b6 0c 3e 18 0c 81 bd 8c 32 97 3c 3f 8f f9 bd
       0.13741446 -0.06301135 0.01845672 -0.12185525
000080 94 4d 3b 3c bb 21 99 bd 5a 1a 80 bb d7 8f 05 3d
       0.01143207 -0.07477137 -0.0039093914 0.03260788
000090 af d6 03 3e 0b 3f 25 3e 2c 81 af bb e2 da 87 bd
       0.12874864 0.1613733 -0.0053559747 -0.066335455
0000a0 e6 62 97 bd 13 1f fb bc 71 9c d1 bd 1c 35 9c bc
       -0.0739191 -0.030654466 -0.10234917 -0.019068293
0000b0 ce d7 7e 3e 5a a3 1c 3e c9 a7 a3 3c 2d 00 9a bc
       0.2488701 0.15296689 0.019977467 -0.018798912
0000c0 c4 15 60 bd 50 71 69 bd 6e f7 ca bd a3 39 98 bd
       -0.054708257 -0.05699283 -0.09910475 -0.07432868
0000d0 c2 f4 f4 3d cc 3d 2f 3e f7 ab 02 bd fa aa 98 3d
       0.11960746 0.17113417 -0.03190228 0.07454486
0000e0 a4 3d 77 bc 10 44 b4 3d cd 16 ea 3d fb e1 20 3e
       -0.01509038 0.088020444 0.1143013 0.15711205
0000f0 50 46 65 3d 95 7e c3 bc 89 0c d8 bd da a6 91 bd
       0.05597526 -0.02386407 -0.10549266 -0.071119025
000100 79 95 70 3c 38 c7 f3 bb d7 bf f2 bd e6 d2 8d bc
       0.014684075 -0.00743952 -0.11852997 -0.017312478
000110 00 d4 a8 3c 41 22 e5 3d 9d 17 d6 3d 09 be 85 3d
       0.020608902 0.11188174 0.104537226 0.06530387
000120 8e 57 53 3c 87 f8 d9 3c fe 47 22 3c b6 2d 1d 3d
       0.012899293 0.026607765 0.00990486 0.03837367
000130 9d d3 88 bd 3e c2 c5 bd 85 22 b3 bc b1 26 6b 3e
       -0.06680987 -0.096561894 -0.021867046 0.22963978
000140 0f 72 2a 3d 61 a7 ea bd d8 a6 88 bd 90 c9 9d 3d
       0.04161268 -0.11457706 -0.06672448 0.077044606
000150 ff cb 0c 3c 39 07 4a 3c 47 f3 d8 bd 92 ca 50 bb
       0.008593558 0.012330824 -0.105932765 -0.0031859023
000160 1c bb c2 3d bc 04 2c 3b 6e d5 99 bd c0 59 9a bd
       0.095083445 0.002624794 -0.075114116 -0.0753665
000170 11 b6 89 3d 65 54 31 3d ed 4b da bd 84 8d 7b 3d
       0.067241795 0.043293376 -0.10659013 0.061414257
000180 b2 20 01 bd a6 92 a2 3d 7f 4c 01 be ee 1c ad bd
       -0.03152532 0.07938127 -0.12626837 -0.084527835
000190 9b 58 36 3e 1d a4 a0 bc 37 5c b9 bd a8 52 31 3c
       0.17807238 -0.019609505 -0.09050792 0.010822929
0001a0 c2 7f 96 bb be 83 04 3d ea 7c 69 bd bc c5 b5 bd
       -0.0045928666 0.0323522 -0.057003893 -0.088756055
0001b0 ef 2d 3b bd 96 b9 66 3d 0b 91 44 bc 80 ee 9b bd
       -0.045698103 0.056329332 -0.011997472 -0.0761385
0001c0 2e da ec 3c 04 58 82 bd f9 c5 3f bd 15 cc 09 3e
       0.02891263 -0.06364444 -0.04681966 0.13456757
0001d0 15 be d0 3d e7 97 06 be f7 63 2c bd 4a 6c 89 39
       0.10192505 -0.13143884 -0.04208752 0.00026211358
0001e0 b1 5c 44 3d 8c 39 1b be 0d c5 8b 3d ee c6 23 3d
       0.04793996 -0.15158671 0.06824694 0.039984636
0001f0 8f 10 9e bc 82 97 b9 3d 5d c3 a8 bc 97 8a a2 3d
       -0.019295005 0.09062101 -0.020600969 0.0793659
000200 60 00 8f 3d b2 b2 df 3c 88 f8 c0 bd 07 5c b2 bc
       0.069824934 0.027306888 -0.094224036 -0.021772398
000210 a0 f3 c5 bd 75 55 15 3d 90 b6 be bd 2b c7 de bd
       -0.096656084 0.03645845 -0.09312165 -0.10877832
000220 bb 2d 41 3d 34 bc a3 3c 96 d2 45 bd 16 2c d4 3d
       0.047162753 0.019987203 -0.048296534 0.10359971
000230 2f 8d 8a 3a 3a 45 84 3d 28 7c f5 ba d6 ec 08 bc
       0.001057064 0.064585164 -0.0018729018 -0.008357247
000240 7a 67 7a 3c 98 62 e2 bd 78 0c 0a 3e b4 14 95 bd
       0.01528346 -0.110539615 0.13481319 -0.072793394
000250 96 26 05 3c da c5 98 3d 3e d7 94 bd 5a e3 1d 3c
       0.008126875 0.07459612 -0.07267617 0.009636724
000260 76 f7 da bd af 3c e7 bd 27 24 de bd 2e 0a b5 3d
       -0.10691731 -0.11290871 -0.10846739 0.08839832
000270 26 d7 88 bc 98 db 0a 3d d4 6c 4a 3d 5a 90 8a 3d
       -0.016704153 0.033900827 0.049420193 0.06765814
000280 71 ff 68 bd 4f 00 52 bd 7c a4 9a 3d 12 83 d1 bd
       -0.056884233 -0.051269826 0.07550904 -0.10230078
000290 dd 14 98 ba bf b3 21 bb 05 fe 87 3d b0 89 09 3d
       -0.0011602897 -0.0024673787 0.06640247 0.033578575
0002a0 b5 bb 9c 3d 4c 54 85 3c 53 38 8c 3d 4a 1a 08 3c
       0.0765299 0.016275547 0.068466805 0.008307049
0002b0 a8 cf c6 bd 9b 3a 95 bd e6 2e c0 3d 7f d7 9e bc
       -0.09707576 -0.07286569 0.09383945 -0.019389866
0002c0 9e 82 0f 3d 11 87 52 3d c1 8b 95 3d cb a8 dd 3a
       0.035036676 0.05139834 0.073020466 0.0016911266
0002d0 79 ae 99 3b b6 c3 52 bc 2b 17 02 3e 10 0e ae bd
       0.004689988 -0.012864044 0.1270415 -0.08498776
0002e0 d4 46 94 bd 68 7e fa bc 1e 98 ea bd ba 49 b5 bc
       -0.07240072 -0.030577853 -0.11454795 -0.022129882
0002f0 bc f3 15 3d c3 a8 9b 3d 99 9b 52 bd 2f 91 88 3d
       0.036609396 0.07600548 -0.05141792 0.066683166
000300 d3 01 33 3e e6 30 90 bd 1d 64 27 3d 6b c9 00 3e
       0.17481165 -0.07040577 0.04086696 0.12576835
000310 49 aa 1e 3f 7b 63 00 bd 82 78 12 3b aa 87 bf 3d
       0.61978585 -0.031344872 0.002234966 0.09352048
000320 a9 46 05 bc 81 2b 50 bd df 2f f3 3e e4 1a aa 3d
       -0.0081345225 -0.05082274 0.4749746 0.0830591
000330 49 df a7 3d 53 71 a0 bc ca cf 95 3d 83 3e ea 3e
       0.08196885 -0.019585287 0.07315023 0.45750818
000340 33 8b c1 bd 5f fd be bc b7 b7 e3 3d eb db 9c bd
       -0.09450378 -0.023314176 0.11119025 -0.076591335
000350 75 16 95 3e dd d8 0f 3d 30 bf cf bb d1 9f 66 bc
       0.29118696 0.035118926 -0.00633993 -0.014076189
000360 1e c3 6c bd 2f 22 dc 3d b6 64 9a 3d 9a 2e 65 3e
       -0.057803266 0.107487075 0.0753874 0.22381058
000370 2d 60 6b 3d e7 8e ea 3b fd a5 2f 3e b4 e8 fb bd
       0.057464767 0.0071581486 0.17153163 -0.12300244
000380 0d 15 55 bd 81 8f af 3d 05 e1 e5 3d 11 e2 8d 3d
       -0.05202203 0.08572293 0.1122456 0.06927884
000390 cf 23 ee 3d 48 ee 00 3e 16 e3 38 bc 43 6f 82 bb
       0.11627924 0.12590897 -0.01128461 -0.0039805486
0003a0 1e ba 19 bd 56 f2 03 3e d1 12 be bd 5d 27 ee bd
       -0.03753101 0.12885413 -0.09280933 -0.11628602
0003b0 45 f4 70 3e f8 0b 7b 3e cb da ad bd 06 c1 5c 3c
       0.23530681 0.24516284 -0.08488997 0.013473755
0003c0 90 13 bc bd 68 df e0 bd b0 da f0 3c 39 df d8 3d
       -0.09183419 -0.10980111 0.029401153 0.10589451
0003d0 ef 2a c6 3d 11 06 d8 3d 3f b5 ba bd c4 c9 68 bb
       0.09676158 0.10548032 -0.09116601 -0.0035520652
0003e0 0f 3d 35 3d 0f c9 73 3d 29 ba 38 bc f1 86 17 3e
       0.044247683 0.059517916 -0.011274853 0.1479757
0003f0 42 42 b9 bd dc f3 53 3c c1 10 aa bd 69 74 f6 3d
       -0.09045841 0.012936559 -0.08303977 0.12033922

lstm.bias_hh_l0 f4 [256]
000000 bc 8b 26 3e 47 1b af 3d d9 81 cc 3d df 18 80 3d
       0.16264242 0.085501246 0.09985704 0.06254744
000010 96 d2 af 3e ab 6e 62 3d 60 8d a8 3d 8f 3a bc bd
       0.34340352 0.055281322 0.0823009 -0.09190857
000020 57 6d e8 3b c2 5d 0b be fe a3 e1 3e 43 15 93 bd
       0.0070931125 -0.13609985 0.4407043 -0.0718179
000030 a9 51 d0 3b f1 e4 95 bd 5d 3f 0e 3e 8f 97 c2 3e
       0.006357391 -0.07319058 0.13891359 0.38006255
000040 74 7a 5d bb b8 dc 1e bd 2e 9d f3 3d 36 50 f1 bc
       -0.0033794912 -0.038784713 0.11895214 -0.029457193
000050 b8 ee a9 3e 0b 30 22 bc 3d 00 bf bd 8c a5 7f 3d
       0.3318994 -0.00989915 -0.09326217 0.062413737
000060 3f c4 03 bd fa 59 f3 3d 82 f7 b9 bd 2e 71 c0 3d
       -0.032169577 0.11882396 -0.090804115 0.09396587
000070 22 a9 c7 3d 5f 42 fc 3d d3 85 1c 3e 6f 4c 8a 3d
       0.097490564 0.12317347 0.15285425 0.0675286
000080 fc 36 24 3e c5 84 bf 3d 33 fa 2d bd cf 24 b8 3d
       0.160366 0.09351496 -0.042474937 0.08991396
000090 ad 9d 1b 3e c7 c4 23 3e 2b 1b b3 bd 2a 0d 3a 3d
       0.15196867 0.15993033 -0.08745416 0.04542271
0000a0 7c 00 ca 3c d3 b8 3e bd 8c db 1f 3d 8b d2 a8 3d
       0.024658434 -0.04656298 0.039027736 0.08243283
0000b0 f4 02 88 3e c0 f1 cc 3d f4 ad 9d 3d 61 c1 aa 3d
       0.26564753 0.10007048 0.076991946 0.08337665
0000c0 0f 90 c0 3d 71 11 cd bd 16 5a bd bd 96 75 7f ba
       0.09402477 -0.10013092 -0.09245698 -0.00097449997
0000d0 53 33 d6 bd e2 20 5a 3e 33 e7 ee 3d 0e df 45 3b
       -0.10459008 0.21301606 0.116651915 0.0030192765
0000e0 ea 97 51 3d 70 f5 47 3e f2 49 fc bd e3 24 28 3b
       0.051170267 0.1952722 -0.123187914 0.0025656752
0000f0 ea 4d b8 3d fb 73 a0 3d b2 67 b8 bd a5 b1 2a bc
       0.08999236 0.078346215 -0.09004153 -0.01041833
000100 51 00 a5 3d 77 64 9b bd 41 6e bb 3d 8a c0 d0 bd
       0.08056701 -0.075875215 0.09151889 -0.10192974
000110 3e 10 13 be da c8 d6 bc 3f 5f 9e 3d 9a 47 8b bd
       -0.14361665 -0.02621882 0.077330105 -0.06800766
000120 9d 63 c0 3c 66 51 dc bd 3f 94 af 3d 21 71 02 3d
       0.023485 -0.10757713 0.085731976 0.03184617
000130 0f 07 ff bd 63 e9 0e bd f5 4b a1 bc 1c 87 28 3e
       -0.12452518 -0.034890544 -0.01968954 0.1645779
000140 a4 fb 1d bc 51 cd c6 3d 95 5b cb 3c 59 01 17 be
       -0.009642515 0.0970713 0.024823943 -0.14746608
000150 22 59 db 3d bc 0a c5 3d 37 86 1d bd 7c a4 27 bd
       0.1071036 0.09621188 -0.038458075 -0.04092835
000160 2a 8d 3a bd 17 f7 b5 bd 98 d6 0a be ba 7c 9c 3c
       -0.04554478 -0.08885019 -0.13558424 0.019102443
000170 b7 0c 46 bb f0 33 f4 bd 93 5e 80 bd 30 b8 5e 3c
       -0.003021998 -0.11923969 -0.062680386 0.013593718
000180 4d 1e 46 bd 3b 27 11 be 40 4e 86 bd b3 6c f2 3c
       -0.04836874 -0.14175121 -0.06557894 0.029592847
000190 f0 08 86 bd fe 20 8b 3d 61 73 98 3d ae 33 d3 3d
       -0.065446734 0.06793402 0.07443882 0.103125915
0001a0 ac 79 d5 3d 53 69 f7 bd 02 1f 40 bd ec fb 9e 3c
       0.10423598 -0.12080636 -0.04690457 0.019407235
0001b0 83 50 90 bc 13 3c 8a 3d f2 8e 5a bc 1b d4 c7 bd
       -0.017616516 0.067497395 -0.013339745 -0.09757253
0001c0 30 46 1f be 6f 65 c1 3d 0e 01 d9 bd f6 6c ae bd
       -0.15554118 0.09443175 -0.10595904 -0.085168764
0001d0 5b b7 aa bd 77 24 16 bd ce 43 c2 ba e4 96 49 bd
       -0.083357535 -0.03665587 -0.0014821233 -0.049216166
0001e0 e4 b7 a6 bd 8e b5 a4 bc ab 3f 6b bd c1 4e 8d bc
       -0.08140543 -0.020106103 -0.057433765 -0.017249467
0001f0 6e 92 6d bd 55 1a 71 bd 8c 7b 26 be da 76 2c bd
       -0.058000974 -0.058863003 -0.16258067 -0.042105533
000200 86 2c 13 bc bf aa 84 3d 58 cb a5 3d ab 7b 30 3d
       -0.008982783 0.0647788 0.08095425 0.04308669
000210 b5 11 c8 3c 13 4d b1 bd 72 ce dd bd 2d e8 75 3d
       0.024422506 -0.08657279 -0.10830392 0.060035873
000220 e9 5e 3f 3d b3 12 bf bc b1 c8 ac 3d e2 42 df 3c
       0.046721373 -0.023324346 0.08436716 0.027253572
000230 b7 3d b1 bd 99 92 5f bc 80 05 bf 3d 84 84 7d bd
       -0.08654349 -0.013645791 0.09327221 -0.061893955
000240 7a a6 78 3c 2e 16 01 be a7 88 57 bd 7d ba 0a bd
       0.01517641 -0.12606117 -0.052620556 -0.033869255
000250 9d a2 ef 3c 78 61 f1 3d 2c 6e b0 3c 6d c6 a7 bd
       0.029252345 0.11786169 0.021536909 -0.081921436
000260 d8 d0 a0 bd 93 ce 1c bd 36 82 f0 bc 12 c1 93 bd
       -0.07852334 -0.038282942 -0.029358964 -0.072145596
000270 09 24 8b ba 82 71 a4 3d 18 01 63 3d cd f5 3f 3d
       -0.0010615598 0.080294624 0.055420965 0.046865273
000280 4f 61 9a 3d 87 2b 79 bd 14 86 79 3c 30 9f fe 3d
       0.075380914 -0.060832527 0.015229721 0.12432706
000290 c9 bd 2c 3d fd 78 99 3c 3d d6 3f bd 1d b4 c7 3d
       0.04217318 0.01873445 -0.046835173 0.09751151
0002a0 25 2c dd 3c 9b 41 d4 3d 71 51 c1 3d 6a c0 bb bb
       0.026998589 0.10364076 0.09439362 -0.0057297247
0002b0 20 9b fd 3d 43 d8 8a 3c f6 23 90 bd 05 53 c6 3d
       0.12383103 0.016948825 -0.07038109 0.096838035
0002c0 78 f2 39 3d 6b 82 97 bd 43 12 e5 bd 9f 2b 4d 3d
       0.04539725 -0.07397922 -0.11185124 0.05009043
0002d0 44 69 dc 3d cb 8e 7c 3d a0 a5 8f 3d 10 e0 0f bc
       0.10762265 0.061659615 0.07014012 -0.008781448
0002e0 dd d6 5a bd f8 c0 0b 37 47 5c 0a bc ca 42 56 bd
       -0.053427566 8.329975e-06 -0.008444852 -0.05230979
0002f0 4d fa de 3d b1 7e 00 bd 1f ae cf bb 13 38 a5 3d
       0.10887585 -0.031370822 -0.0063378955 0.08067336
000300 4a a5 dd 3d 35 1d 21 bd 6c d6 b5 3d 81 d7 13 3d
       0.10822542 -0.039334495 0.08878788 0.036094192
000310 27 49 f7 3e 00 8e b9 bd 11 d7 c3 3a 79 76 92 bc
       0.48297998 -0.090602875 0.0014941414 -0.017878758
000320 fe 6f 2f bb af 58 c9 bd 3f 5a e8 3e b0 f3 72 bd
       -0.0026769633 -0.09831368 0.45381352 -0.05931443
000330 7b 93 21 3c 3b 6c cd bd ce ef eb 3c 6c 21 b3 3e
       0.009861822 -0.10030409 0.028800871 0.34986436
000340 13 b6 72 bd c1 13 ac 3d d6 c4 8f 3e ae e7 64 3c
       -0.05925567 0.08402205 0.2807986 0.013971252
000350 09 5e c1 3e 88 06 f1 3d 2e fa a2 3d 0e c3 e4 bd
       0.37767056 0.11768824 0.07957874 -0.11170016
000360 8b 13 88 3d 7d d6 98 bd 9f 87 02 be 44 14 82 3e
       0.066443525 -0.074627854 -0.12747048 0.25406086
000370 0a 26 15 3e d1 18 f6 bd 10 bb f3 3c 77 4f e4 3c
       0.14565292 -0.12016452 0.029752284 0.027869923
000380 14 f8 4b 3d 8f f4 48 bd 87 06 ea 3d 69 43 c0 3d
       0.049797133 -0.049061354 0.11427026 0.093878575
000390 ea ec 87 3b 90 17 41 3e cf 0a 54 3d a3 23 8b bb
       0.0041481154 0.18856645 0.05176812 -0.0042461916
0003a0 ee a0 2a 3d 89 be 85 3d 7d 30 86 3d 27 e4 83 3c
       0.04165738 0.06530482 0.06552217 0.016100002
0003b0 a7 e6 59 3e 17 21 16 3e b3 a6 a2 3d d9 e1 63 bd
       0.21279393 0.1466106 0.079419516 -0.055635307
0003c0 9e 7c bc bc b8 1a 95 3c ee 93 8f bd 0b 93 29 bd
       -0.02300864 0.018201217 -0.07010637 -0.041399997
0003d0 8c 11 74 bc 43 40 aa 3d 49 6e 08 3d ad 51 b7 3d
       -0.014896762 0.08313038 0.0333083 0.08951125
0003e0 2e 18 dc bc c8 0f 0e be 44 30 13 bd d1 28 27 3c
       -0.026866999 -0.13873208 -0.0359347 0.0102026025
0003f0 15 2e 9b bc 84 3c 88 3d d2 c4 3e 3d 8d e5 86 3d
       -0.018942872 0.066521674 0.04657442 0.06586752

fc.weight f4 [1, 64]
000000 6c 07 2d 3e d6 ae 0f bd 40 25 f0 bd 6c bb 01 3e
       0.16897362 -0.035078846 -0.11725855 0.12669152
000010 4b 9c 47 3e 6d 2f 33 3d 80 61 d3 bd 16 78 a9 bd
       0.19493215 0.0437464 -0.10321331 -0.08274858
000020 78 64 ff bc 64 97 52 be 61 2d 8b be 7d 30 89 3d
       -0.031175837 -0.20565563 -0.2718306 0.066987015
000030 42 78 45 3d c1 7e bb 3d e4 bc dc 3d 7e 4d af bd
       0.04821039 0.09155036 0.107782155 -0.08559702
000040 2c 26 24 be cb 64 06 be 8b 17 43 3e 8c 57 a3 bd
       -0.16030186 -0.13124387 0.1905195 -0.079756826
000050 4a f2 0b 3e 8e 77 e7 3d 0b f6 a4 bd 96 1a 97 bd
       0.13666645 0.113021 -0.080547415 -0.07378118
000060 ee 73 4e bd 24 61 e9 bd b8 2b 92 bc 07 61 36 be
       -0.050403528 -0.11395481 -0.017843112 -0.1781045
000070 be cc 34 be 23 95 a6 3d b6 29 f6 3d cd 3c e3 bd
       -0.17656228 0.08133914 0.120196745 -0.11095581
000080 f4 a3 1d be 1c 77 ad 3d 24 d0 db 3c 87 df c5 3d
       -0.15394574 0.08469984 0.026832648 0.09661775
000090 36 45 12 be 9f 84 86 bd 77 9b bb bd a6 89 b3 3c
       -0.14284214 -0.06568264 -0.09160512 0.021916222
0000a0 64 20 ec 3d 0f f2 91 bd ec 74 e2 3d 55 98 85 bd
       0.115296155 -0.07126247 0.11057457 -0.06523196
0000b0 a3 f3 3e 3e 82 47 4e be 98 a8 72 3d 34 76 3c bd
       0.18647628 -0.20144466 0.059242815 -0.046011165
0000c0 40 a8 13 be b4 c7 89 bc 41 b0 9b bd 4f 20 6d bd
       -0.14419651 -0.016818859 -0.07601977 -0.05789214
0000d0 30 c6 ca 3d f7 46 31 be 2e 22 d7 3d db 7c 64 bd
       0.099010825 -0.17312227 0.10504566 -0.055783134
0000e0 33 e1 e0 3d b1 d6 76 bd cf 95 8a bd bb 26 de 3d
       0.10980453 -0.06026334 -0.06766855 0.10847231
0000f0 40 0a 1e 3e 01 69 b7 3d cf c3 99 bc e8 12 42 3d
       0.15433598 0.08955575 -0.018770127 0.04738131
