output/river_level_predictor_ep50_lr0.002/model.pth (torch, 94779 bytes, 6 tensors)

linear.weight f4 [1, 2]
00000000: 5784 453f 829d adba
0.7715506 -0.0013245794

lstm.weight_ih_l0 f4 [256, 24]
00000000: 8f66 8d3e c68b a63e b331 0a3d ed3d 863c
00000010: a84f e8bc 27e8 473d bada 703e 59a3 0c3e
00000020: cab3 86bd 621b 203e 7a8e 9fbd bc2d ce3d
00000030: 6280 673e 7f19 553e 548f dd3d 4829 023e
00000040: 5ba1 8bbd 74cd 9a3d 3b14 d13d 7c11 ad3e
00000050: a47f df3d aea5 e13c 0e2a aabd 457c 73bd
00000060: cb40 793c a360 9fbe b821 70bd 15fa 2e3d
00000070: f527 763d b780 33bd 83f6 93bd e382 99be
00000080: ba1a e7bd f525 413d 8fbd 58bd 8647 e93d
00000090: a0f6 073d 09a9 90be 7f73 b83d 855e f5bd
000000a0: 7ea3 d3bd beb6 c63d 7817 c3bd b2eb e3bd
000000b0: 33ec d7bd a768 083c 40c0 b73d 3426 81bc
000000c0: 3963 efbd fb8d 90bd 635f 39bb ca0a ba3d
000000d0: 1db8 3abd d858 b0bd 7998 903d e9ca 36be
000000e0: c45b ac3d d6dc 87bd f8ce eabc c8d1 0abe
000000f0: c2ba 1c3e 7817 393d 2d04 153e d614 a83c
00000100: ff99 183e 00c4 e53d 2d06 803e ba68 8fbb
00000110: a714 25bc af9f 333c 716e b53d 433a b93d
00000120: 9a09 4cbe f5df 64be 1f16 223d 417d a83d
00000130: 321b 853e e8f9 8fbd 8855 01bd 7263 d1be
00000140: 2c2d 823e bcad 433e b148 023e 0f7f d13d
00000150: b119 3ebe 5268 a9be 4782 e83d 70e2 cb3d
00000160: 4b4c 703e d69d 673d 7bbd 14bc 0d90 cfbe
00000170: b21c 553d 9a62 053d a774 e03d 7b01 ddbd
00000180: 1472 c7bd cd0d a1be effa afbd deb8 6dbc
00000190: 24cf 173d 7610 b43c 7f03 15be 57d6 a5be
000001a0: 733f aebd f43b b83c bbcd a4bd 4a31 753d
000001b0: 79c4 1dbe 56d2 45be ef4a 84bd ee5d f7bd
000001c0: d785 9dbd 2ce2 23be 0602 0dbe 593b 56be
000001d0: d610 9bbc 9f1d 803d 2b0b 0b3e e77a 4cbe
000001e0: e779 25bd df1a c93d e215 d43d 5439 483c
000001f0: 1c7f f33d 3dd8 64bd 14e1 bf3c 3d61 9ebd
00000200: ba87 26bb 9b72 403d d21c 133e 7d9e 1e3d
00000210: 7c5d d4bc 9e54 b33d fd5d fdbc 1375 b63c
00000220: 7869 373e 23a4 7c3d f782 753d 1ea4 823d
00000230: c1e2 ff3b ea3e 64b9 38fa 1bbd 6d44 f33c
00000240: 5dd9 3cbc 74fb b63d d7b8 4d3c c812 17bd
00000250: 247c b8bc 0ef7 c03d 2bc5 593b 32e4 c3bd
00000260: 5800 ed3d 9acc fb3d 1277 66bd 0d59 d43c
00000270: 635c e33d 05e6 febc d877 cabd 7c47 913d
00000280: aca0 943b 64a6 01bc 3304 613e cb54 183e
00000290: 8ac9 4d3b f98e 29bd 087e 9bbd 8a35 433d
000002a0: 727b a4bc d15f b1bb 5e05 073d 03c1 40bd
000002b0: d52c 473d be80 a8bd 3bd8 fbbc af09 abbd
000002c0: fa3f 8a3d d0f9 adbb e85b 90bd 369c ec3a
000002d0: 98eb c93c 4938 65bd 4406 c83d a108 b2bc
000002e0: 6156 56bd 8028 9f3d 67f1 d83d 2eda f73d
000002f0: c637 c2bc 42ca 8dbd 41ed 4b3d ff24 723c
00000300: edae bcbe 553d 1f3e e12b 673e df99 723e
00000310: 8aff ae3d 1f95 b13d aad3 54bd d5ae d73c
00000320: f227 d83d 546a 423e 1282 653e ef33 d83d
00000330: ca7f dabe 3679 91bd 1e7c 463e 1e54 a73e
00000340: dc75 6c3e 820e 39bc 667b ecbe 1989 58bd
00000350: 17fe ee3d e5bd 9e3e 2e4c a23d 15af 8bbe
00000360: 4ac1 85be 2898 73be 561a 8e3d f321 a03d
00000370: 1d1f 8d3d 987c ebbd 8e30 d7bd d43b 81be
00000380: 7a4b a3bd 24d9 d6bc a6af d23d ea18 17be
00000390: f69b 48be c70d 7abe bbf6 193c 973c efbd
000003a0: af8f b1bc c812 83be a635 59be ed4a babe
000003b0: 1331 07bd 1720 cabd 3058 563c 7079 86be
000003c0: 8a66 3fbd 62a0 c5be dac9 8b3e 3548 113e
000003d0: b0de 883d 3911 d93d a7c6 95bd 0262 8cbe
000003e0: 0013 263e a95a 5f3e 29a3 5b3d 7b12 5d3d
000003f0: ed6c aebd 9eb4 92be 3d32 4d3d 5954 1e3e
0.27617308 0.32528514 0.033738803 0.01638695 -0.028358296 0.048805382 0.23520938 0.13734187
-0.06577261 0.15635446 -0.07790847 0.10067317 0.22607568 0.20810507 0.10818353 0.1271106
-0.068178855 0.07558718 0.10208937 0.33802402 0.109130174 0.027544823 -0.083088025 -0.059444685
0.015213202 -0.31128415 -0.058625907 0.042718966 0.0600967 -0.043823924 -0.07224753 -0.2998267
-0.112843946 0.04715534 -0.052915152 0.11390595 0.033194184 -0.28253964 0.09006404 -0.11980919
-0.10333918 0.09702824 -0.09525961 -0.1112894 -0.10543098 0.008325732 0.08972216 -0.015765287
-0.11688847 -0.070583306 -0.0028285615 0.09084089 -0.04558574 -0.086106956 0.07060332 -0.17850842
0.084159404 -0.06633918 -0.028663144 -0.13556588 0.15305617 0.045188397 0.14552374 0.020517748
0.14902495 0.11219025 0.25004712 -0.004376498 -0.010075725 0.0109633645 0.08858956 0.09044316
-0.19925538 -0.22351058 0.039571878 0.08227015 0.2599731 -0.07030088 -0.03157571 -0.40896183
0.25425088 0.19109243 0.12723042 0.10229313 -0.18564488 -0.33087403 0.113529734 0.09955299
0.23466603 0.05654701 -0.009078379 -0.4053959 0.05202932 0.032564737 0.1095975 -0.10791298
-0.097385556 -0.31455842 -0.08592784 -0.014509408 0.03706278 0.021980505 -0.14552115 -0.3239009
-0.08508196 0.022489525 -0.080470525 0.05986146 -0.1540698 -0.19318518 -0.06459605 -0.120784625
-0.076915435 -0.16004246 -0.13770303 -0.20921077 -0.018928926 0.0625565 0.13578479 -0.19968759
-0.04039946 0.098195784 0.10355736 0.012220699 0.118894786 -0.055870283 0.023422755 -0.077333905
-0.002541049 0.046984296 0.14366463 0.038725365 -0.025923483 0.08756374 -0.030928606 0.022272622
0.17911327 0.06167997 0.05993935 0.06378959 0.0078090136 -0.00021767212 -0.038080424 0.029695714
-0.011526433 0.089346796 0.012556276 -0.036883146 -0.022520132 0.09422122 0.0033229094 -0.09565009
0.11572331 0.12294884 -0.056265898 0.025921369 0.11101606 -0.031115541 -0.0988614 0.07093713
0.004535755 -0.007913206 0.21974258 0.14876096 0.0031400644 -0.041396115 -0.07592398 0.04765848
-0.020078395 -0.0054130335 0.032964103 -0.04705907 0.04862674 -0.082276806 -0.030742755 -0.083514564
0.06750484 -0.005309321 -0.0704878 0.0018051926 0.024648473 -0.05596188 0.0976682 -0.02173263
-0.05232847 0.07771397 0.10592919 0.12102161 -0.023708235 -0.06923343 0.04978681 0.014779328
-0.36852208 0.1555074 0.22575332 0.2369151 0.08544834 0.08671021 -0.05195967 0.026328484
0.10554494 0.18985873 0.22412899 0.105567805 -0.4267562 -0.07103197 0.19383284 0.32681364
0.23091835 -0.011294963 -0.46187896 -0.05286512 0.116695575 0.31004253 0.07924686 -0.27282014
-0.2612403 -0.23788512 0.06938617 0.07818975 0.068907 -0.11498374 -0.10507308 -0.25240958
-0.079733804 -0.026226588 0.102874085 -0.14755598 -0.19590744 -0.24419318 0.009397204 -0.116814785
-0.021674959 -0.25600266 -0.21211872 -0.3638529 -0.033005785 -0.09869402 0.013082549 -0.26264524
-0.04672865 -0.38598925 0.27302438 0.14187701 0.06683099 0.10598988 -0.073132806 -0.27418524
0.16218185 0.21811928 0.0536224 0.053972702 -0.0851687 -0.28653425 0.05009674 0.15461864

lstm.weight_hh_l0 f4 [256, 64]
00000000: c552 3cbd 944a f3bd 7eda 5c3d e2df 003e
00000010: 3229 22be 317a 1dbe 08e8 a2bc fb75 353e
00000020: bfa9 8abd 26d6 debd 6612 d5bd ebb4 c23d
00000030: 2084 17bd e9ad 903e 2de7 b53d f551 093e
00000040: d56f 1ebe f219 fa3d 3992 b8bd f058 9fbe
00000050: c47a 163d 3f97 0fbe 0ae0 ea3d 8978 7a3e
00000060: 3a2a d2bc fc8d b13c 10ab 47bb d51c 753e
00000070: 10eb 40be 8bc1 08b9 5d2b 3f3e ea35 0abd
00000080: 8169 1d3e 9589 ee3d 3e19 60bd e5f2 adbe
00000090: 0151 c53d fe57 b5bd 9803 44be 24ad fc3d
000000a0: 81f0 5abe 2a39 7b3d f47f 393e 1d45 62bd
000000b0: 29dd 5b3e c5a3 0e3e 9080 ebbc ad6a 1e3e
000000c0: 0a3f cf3c 2937 33be b88e 6abe f96a ae3d
000000d0: b0cf df3d 345c 2b3e e179 18bb 31a0 20be
000000e0: cc21 8fbd 044a d2bd 0246 e8bd 4ff6 c13d
000000f0: 6d12 4cbe 6e31 f3bd 4629 2ebe 9471 a43d
00000100: e22d 15be 69de edbd 2729 ab3c dfa1 dc3b
00000110: f578 8bbd ee50 b9bd dc4e 5e3d 5bd8 f73d
00000120: edd7 da3d 5663 f3bd e95a 603b 7150 003d
00000130: a1af 08be dba0 01be ec43 943d 096c 303d
00000140: 8ac8 aebd 6cc9 a03d c2ec 75bc 8609 a53d
00000150: 900d 8cbd 6655 123e b04f 51bd f6eb 643c
00000160: d0ed c3bc 4262 2cbd 1117 87bd e858 8abd
00000170: 55dc c63d d2e8 2c3c f592 0e3b 7146 55bd
00000180: c29a debd 0472 1f3d d254 933c 5f19 953c
00000190: 1fd8 0d3d 8f02 a73c 6d2e f23c 63de fa3d
000001a0: f2f1 9dbd 60e8 66bd b78c a7bd 8b38 f63b
000001b0: aad7 113d ff71 263d 266b ed3c 81a2 ce3d
000001c0: 258d ccbd 1350 e03d 8c28 9bbd 35a9 8d3d
000001d0: 8eff 723c 9a6a 9e3d e883 d83d 53e3 43bd
000001e0: 597b e4bc 7d6e 313d 8f6d d53d 7970 aa3d
000001f0: f023 2cbd d966 ca3d 08a9 603d 4a6c c6bd
00000200: d52f 913d dc71 2d3d 10a0 f13d 7fa8 59be
00000210: 7533 6f3d d292 2e3d 7f9b 02be ac81 27bd
00000220: ee44 a9bd 17e0 b0bd aed8 cabd 4732 02be
00000230: 0efe 0cbe feeb 2cbe af96 db3c 98c5 423c
00000240: c97c 01be 40dc 3b3e 8ce8 313d d32d b9bd
00000250: bff1 3fbe a7d7 cbbd c421 713d 98fe 0ebe
00000260: 807b 723b 6608 243d 8fef 143d 34aa fdba
00000270: 5e72 9dbd 9062 99bd 218d d33c 8f21 76bd
00000280: f59b 6bbd fb6c 2f3c 9f0d b9bd 167c 3fbd
00000290: 9140 203e 9e13 5fbd dde6 38be 8fcf 803d
000002a0: a1f1 acbd daaa 0abc 1c84 123e bf2f 8f3d
000002b0: 0c58 af3d 1337 563d b62c d33d 9078 973b
000002c0: 29a1 e03d 5bae 3c3d 7ba4 413c efe3 193e
000002d0: 5545 90bc dc9a 0f3c 357c 133e f4d0 c1bc
000002e0: bd5b 0fbd 4693 883c a7b2 b2bd ac52 83be
000002f0: 624b 30bc 007d eb3c 270a 29be 5118 3d3c
00000300: 5df9 cabe c127 46be f121 bc3d ec29 84be
00000310: c95a 28be 0559 30be b6d7 1fbe 544d d33d
00000320: a128 d1be bb45 90be 8485 2b3e 2d71 a3bd
00000330: e1d8 85be 812e 47be 534f bb3e 298c 983e
00000340: c349 823d cc8a 5e3e 19bf e1bd 04cf ea3d
00000350: fc3b ecbd 26c1 76bd a644 0d3e 0bf6 363e
00000360: 2b73 c0be b492 7cbe 2e0e 81be 7941 493e
00000370: 7665 223d e4d7 9d3e 75ad c33c dd46 51be
00000380: 845a 053e f989 43bd 2895 fdbe 804d 843d
00000390: 2869 653d 9248 ecbd 6dfc ecbd c251 973e
000003a0: 72f4 85be c68c f63d 9791 103e e1e4 923e
000003b0: 9852 6abd 2239 c93e 722e 983e d792 773d
000003c0: 3d59 d93d fa2b f33e c049 b5be 7394 133e
000003d0: e825 453e 9873 403e eec5 f03d 6b69 91be
000003e0: 1fdb 9d3e 2fb8 f83e fbe2 40bd 7569 bcbe
000003f0: f1c5 ad3d 8cfe 4d3d fc14 b0bd a22f 97bd
-0.045977373 -0.11879459 0.053919308 0.12585405 -0.15836027 -0.15378644 -0.019886032 0.17720787
-0.06770658 -0.10880689 -0.104039 0.095071636 -0.03699124 0.28257683 0.08881984 0.1341017
-0.15472348 0.1221198 -0.09012265 -0.3112254 0.036738172 -0.1402254 0.11468513 0.24460043
-0.0256549 0.021674149 -0.0030466951 0.2393678 -0.18839669 -0.00013042071 0.18668886 -0.033742823
0.15372278 0.116473354 -0.054711573 -0.33974376 0.09634591 -0.08854674 -0.19141996 0.123377115
-0.21380807 0.061333813 0.18115216 -0.055241693 0.21471085 0.1392966 -0.028747827 0.15470381
0.025298614 -0.1750151 -0.22906005 0.08516497 0.10928285 0.16734391 -0.0023266005 -0.15686108
-0.06988868 -0.102680236 -0.11341478 0.09470808 -0.19928904 -0.11874662 -0.17007932 0.08029476
-0.14568284 -0.11614687 0.020893646 0.0067331637 -0.0681018 -0.09048639 0.054274425 0.121018134
0.10685716 -0.11884181 0.0034233874 0.031326715 -0.13348247 -0.12659018 0.072395176 0.04307178
-0.085343435 0.07850918 -0.015010061 0.08058457 -0.06838524 0.1429039 -0.051101387 0.013972273
-0.023917109 -0.042085893 -0.065961964 -0.06755239 0.09709994 0.010553556 0.0021755074 -0.05206913
-0.108693615 0.038927093 0.017984781 0.018200574 0.034629937 0.020386962 0.029563153 0.12249448
-0.07712163 -0.056373954 -0.08181136 0.0075140647 0.035606064 0.04063606 0.028981756 0.10089589
-0.09987859 0.10952773 -0.07576093 0.06917039 0.014831437 0.077351764 0.10572034 -0.047824215
-0.027890848 0.04331826 0.10421287 0.08322234 -0.04202646 0.09882898 0.0548487 -0.09688623
0.07089201 0.042344913 0.117981076 -0.21255682 0.058398683 0.042620488 -0.1275463 -0.04089515
-0.082651004 -0.08636492 -0.099046096 -0.12714492 -0.13768789 -0.16886899 0.02680525 0.01188793
-0.12645258 0.18345737 0.043434665 -0.090419434 -0.18744563 -0.09953242 0.058870092 -0.13964307
0.0036999881 0.040047072 0.036361273 -0.0019353093 -0.076878294 -0.074895024 0.025824131 -0.060090598
-0.05752178 0.010707135 -0.09035801 -0.046749197 0.1564963 -0.054462068 -0.18056817 0.06289589
-0.084445246 -0.008463586 0.14308208 0.06991529 0.085617155 0.052298617 0.10311262 0.0046225265
0.10968239 0.046064716 0.011819 0.15028356 -0.017611185 0.008764949 0.1440285 -0.023659207
-0.034999598 0.016671788 -0.087254815 -0.2564901 -0.01076016 0.028746128 -0.16507779 0.011541442
-0.39643374 -0.19351102 0.09186161 -0.25813234 -0.16440882 -0.17221458 -0.15609631 0.103174835
-0.4085131 -0.281782 0.16750151 -0.07980571 -0.26142028 -0.19451334 0.36583957 0.29794434
0.06361725 0.21732634 -0.11022777 0.11465266 -0.115348786 -0.060242794 0.13795719 0.17867295
-0.37587866 -0.24665338 -0.2520613 0.19653882 0.039647542 0.30828774 0.023886422 -0.20437188
0.1302281 -0.047739003 -0.4952786 0.064600945 0.056008488 -0.11537279 -0.11571584 0.29554564
-0.2616306 0.12038569 0.14118038 0.28690246 -0.057207674 0.393014 0.29722935 0.06044277
0.10612724 0.4749449 -0.3540783 0.14412098 0.19252741 0.18794096 0.11756502 -0.2840074
0.3083124 0.4857802 -0.047091465 -0.36799207 0.0848502 0.050291583 -0.085977525 -0.07382132

lstm.bias_ih_l0 f4 [256]
00000000: 4f61 1b3d 42a2 4bbd 5d69 80bd 619f 943e
00000010: 1e17 4fbd abce 9d3c fd99 a13d 7f61 e2bd
00000020: 8e5d 753e c6d7 bb3d 00f4 513e 14e8 cb3c
00000030: ce64 903d d33a 553e 51a6 f93b 6300 253e
00000040: bd02 853d 68fa 713e ae56 cebd 6b08 c63d
00000050: 9925 57bd 2444 c43c e36a 333d 50d6 8a3d
00000060: 3403 73bc a831 043e 605f ccbd fd8c aabd
00000070: f229 a0bc c9cc aabd 1493 b43d 15b7 c1bd
00000080: 0f9f 583d aed9 4e3d 6d13 c23e 03dc 443e
00000090: c61b b5bc 4de0 65bc d79e b83d 587b 9a3d
000000a0: 961f 41bd daf0 c13d 3909 5dbb a9fc c0bd
000000b0: 7b78 953d 63dc c73d e71e 093e e58f 8c3e
000000c0: af09 51bd 1391 5d3e 3c76 e8bc 3cb7 863c
000000d0: 8160 dabd 556d be3d 3560 253d d097 bfbd
000000e0: 50af 983c fa15 8b3d ac8d 8dbc 290c 0d3f
000000f0: a5c9 303e abbe ba3d 7f79 c73c ea59 88bd
00000100: d0b0 57be 8595 85bd 727e 783d 51ef 2bbe
00000110: 7d53 39bd 19a2 41bc a2a1 943d 64bf 433d
00000120: 4284 eb39 4d6b 9f3d 8d15 f1bd b775 ddbc
00000130: d7df 87bd f61a 86bc 5767 6bbd 6786 b5bd
00000140: 892e 08be 3e35 d53d c222 b73c d280 923d
00000150: 1c3e b03d e496 9cbd 81a2 f73d a2c3 903d
00000160: 2ffe 63bd 0b8c f3bd 073c 5d3d af7b 953b
00000170: d421 7c3b f1d3 04be e970 0d3d 6b4f fcbd
00000180: 286f 843d ec9a 8b3d 2124 ecbd 4dc5 17be
00000190: 03da fdbc 84d4 efbd 77ce 30bd bbad dd3c
000001a0: 5e62 9fbd 0484 57bd f7c1 0bbd 779a ba3d
000001b0: a3e6 c7bd 2e04 f2bd 27b9 233d a32a 22be
000001c0: 3075 6bbd c17d 00be 7463 70bc 3fdf 313c
000001d0: 4808 a5bd ad54 e2bd 187b f93c df78 c7bc
000001e0: 7da5 cd3d 712a 96bd 113b cc3c 3820 73bc
000001f0: 93da 043d 5983 1b3a 6c40 5abd 08e5 90bd
00000200: 5a87 a73d ec08 ecbd 2dee 3cbc 8161 c0bc
00000210: 889c 9f3d 91f6 dabd 8323 edbd 045b 14bd
00000220: 0402 e5bd 1649 3d3d 1d00 88bb b261 40bd
00000230: cf5c a43c 312a d3bd df9e 84bd 7d41 2dbd
00000240: 656c b73d aee1 b9bd 8fce b7bd a521 6c3d
00000250: 7907 95bd e63d 92bc 4ddb fe3d 8478 483b
00000260: 5de4 8cbd 8f09 04be f73e 97bd 8df1 973c
00000270: 3397 a63d 5011 c53d 0ef0 9e3b e29a bbbd
00000280: 6d81 c03d b913 bbbd fe61 893d 08c8 8ebd
00000290: 4400 a63d 6260 88bd 2089 eabd 9c4c a63c
000002a0: 1871 c9bd 81d6 c93d 82f8 b33c 96b0 143d
000002b0: 7a9b f0bc 4abb 19bd f8d0 bf3c b777 bbbd
000002c0: 7365 db3d 40a4 ef3d 9c34 08be 90be a13d
000002d0: fd48 6f3d e669 c93d eeeb 8abc ccf7 2ebd
000002e0: b8ad 32bb 54fe a23c 2e12 d5bd 7117 3bbd
000002f0: 946e e6bc c31a b1bb f3ea 513c 216c 7a3d
00000300: 9da4 ef3d 1729 6cbd 2fa8 8cbd 4595 963e
00000310: 63c1 813a 9288 053e 5a35 9a3d 585b 403c
00000320: 8079 a63d 3376 33bd 2cee 883e 224b 373d
00000330: b21d 63bd 10fb 343e 0eb3 7c3d 1fed 1d3e
00000340: 5f00 00be 07f6 a13e e872 6f3d 0d91 723c
00000350: cc44 e33d 302b 053e a4df b43d 45a9 2a3d
00000360: 3187 0f3d a6e9 aa3d 1270 03be afb3 043d
00000370: 1a89 c5bc 9c99 36bd e18e 76bc bdd0 153e
00000380: 1e26 9e3d 0f18 183e 9bb8 303e b520 743e
00000390: 5fa2 8cbd f641 993d b477 d93d deb0 683d
000003a0: 5f99 45bc 560f 58bd 1f04 b83c b81c cfbd
000003b0: 96ea b63d 0b29 d43d 1718 133e 873f 843e
000003c0: ae5f 913d 39c1 e23d 2715 563c 4322 8dba
000003d0: cdb9 d4bd 5a6b 043e 0e65 013e f6dc 2f3d
000003e0: 6fc4 ff3d 0bfa fa3d 6a61 c8bb 9581 0a3f
000003f0: a3e2 983e 9a4c 6abd 690d 5bbc 8048 603c
0.037934598 -0.049715288 -0.062700965 0.29027846 -0.050559156 0.019263586 0.07890699 -0.11053752
0.2396147 0.09172015 0.20503235 0.024890937 0.07050477 0.20823221 0.0076187034 0.16113429
0.06494663 0.23630679 -0.100751266 0.09669574 -0.05252609 0.023958273 0.043803107 0.06779158
-0.014832307 0.12909567 -0.09979129 -0.08327673 -0.019551251 -0.08339841 0.088171154 -0.09458748
0.052886065 0.050500564 0.37905446 0.19224553 -0.02210797 -0.014030528 0.09014671 0.07543057
-0.047149263 0.09469767 -0.003372742 -0.09423191 0.072983705 0.09758832 0.13390695 0.27453533
-0.051034626 0.21637373 -0.028376691 0.016444795 -0.10662938 0.09298197 0.040374953 -0.09355128
0.018638283 0.06791301 -0.017279468 0.5509668 0.17264421 0.09118398 0.024349926 -0.06657775
-0.21063542 -0.06522659 0.060667463 -0.1679051 -0.045245636 -0.011818432 0.072573915 0.047789946
0.00044921233 0.07784138 -0.117716886 -0.02703367 -0.06634491 -0.016370278 -0.0574716 -0.08863526
-0.13299002 0.10410546 0.022355441 0.07153477 0.086055964 -0.076459676 0.12091542 0.07068564
-0.05566233 -0.118919455 0.054012325 0.0045618634 0.0038472312 -0.12971474 0.034531508 -0.12319835
0.06466514 0.068166584 -0.115303285 -0.14821358 -0.030987745 -0.11710456 -0.04316565 0.02706038
-0.07782434 -0.052616134 -0.034120526 0.09111493 -0.09760787 -0.118172035 0.039971497 -0.15836577
-0.057484806 -0.12547971 -0.014672149 0.010856449 -0.0805822 -0.11051307 0.030454203 -0.024349628
0.1004133 -0.07332314 0.024930509 -0.0148392245 0.03243501 0.0005932353 -0.053284094 -0.07074934
0.08180113 -0.11525139 -0.011531395 -0.023483993 0.07793528 -0.1069156 -0.11579039 -0.03621961
-0.11182025 0.04621228 -0.004150404 -0.04696817 0.020063786 -0.10310782 -0.06475615 -0.042298783
0.089562215 -0.09076248 -0.08974945 0.057649273 -0.07276816 -0.017851781 0.12444172 0.003058941
-0.06879494 -0.12894271 -0.073850565 0.018547798 0.08134308 0.09622443 0.004850394 -0.09160401
0.09399686 -0.09134621 0.06708144 -0.06971747 0.081055194 -0.066590086 -0.11451936 0.020300202
-0.09836024 0.098553665 0.021969084 0.036301218 -0.029371012 -0.03753213 0.023415074 -0.09153693
0.10712709 0.1170125 -0.13301319 0.07897675 0.058419216 0.09834652 -0.016958203 -0.042716786
-0.002726419 0.019896664 -0.10403858 -0.045676652 -0.0281289 -0.0054048016 0.012812364 0.061138276
0.11701319 -0.057656374 -0.06868016 0.2941076 0.0009899553 0.13040379 0.07529707 0.011740528
0.08128643 -0.043813895 0.2674421 0.044749387 -0.05544824 0.17673898 0.061694197 0.15422486
-0.12500142 0.31633016 0.058459193 0.014805091 0.11097106 0.13004756 0.088317186 0.041665334
0.035041038 0.08345346 -0.1283572 0.032397922 -0.024113227 -0.044580087 -0.015048713 0.14630409
0.07722114 0.14852928 0.17257921 0.23840602 -0.06866907 0.07483284 0.10618535 0.0568093
-0.012060492 -0.052749 0.022462903 -0.101128995 0.089314625 0.10359391 0.14364658 0.25829718
0.070983276 0.110720105 0.013066567 -0.0010767657 -0.10387001 0.12931576 0.12636206 0.042935334
0.124886386 0.12254723 -0.0061151283 0.54103976 0.2986041 -0.05720196 -0.013369896 0.01368916

lstm.bias_hh_l0 f4 [256]
00000000: 9219 d33d 4243 dd3c 46c6 ea3c 96aa 403e
00000010: cee0 6f3d 35b5 68bd 31cc cf3d ed6e c9bd
00000020: dcdf 233e 8acf 11bd 38a5 5f3e d411 fbbd
00000030: e01c 563d a59b 623e a2a6 34bd 8ce0 f63d
00000040: c6de dbba 08e4 793e 7a4a c13d c47c d63c
00000050: 9775 973c 616a abba 9c4e ac3d b479 b23d
00000060: 816b 9a3d 329b d13c f7a9 6ebc 5150 d43c
00000070: 73af e53d 0f77 b2bd 6b16 353e b893 9a3d
00000080: f85d 9b3d 913b 003e b6d4 9f3e 0cd7 643e
00000090: 86c9 e13c 82d2 863d 3b38 fe3d 339d d13d
000000a0: c2ef 17bd ee29 5c3d 7a97 88bb 5524 a6bd
000000b0: b276 3d3e 150a dc3d 2ce8 c63d 1157 863e
000000c0: 0817 773d 78fb 033e dd8f 7b3d 49aa b83d
000000d0: d23a 833d c76f e63d 26f4 013e 8b79 31bd
000000e0: d8c8 a7bc 95c4 ce3d 8b7c 173d bb4b 1e3f
000000f0: 3b18 8d3e 3b38 aebd d9fd 143e 876f 01be
00000100: e480 5dbe 5174 b43d b42e dc3d da99 09be
00000110: 6402 ab3d d965 60bd 88b4 aa3d bfed ae3a
00000120: 005f 823c c3b1 abbd 827d 2cbe 686b bc3d
00000130: 589f acbd e500 67bb 734e f6bd b606 023d
00000140: a760 39bd ae90 dd3d 9444 d7bc 7cfa ef3d
00000150: 48ca f33b ebc4 80bc 4345 a93d 1bcb 953b
00000160: 26b9 d7bd 3634 11bd 7b8e afbd 6da8 bb3b
00000170: 1ac7 c7bb 1b01 db3d 5873 1ebe ef8d aa3c
00000180: 682c a13d 48f4 db3d 3780 6ebd cabf fbbc
00000190: 8757 79bd 7a68 e7bd cd09 c3bd e6c1 35bd
000001a0: 6e31 3dbd bef5 1cbe 916e cc3d 4c7c a6bc
000001b0: 455a dcbd 1bdb 1fbd 9d25 55bd 47c5 01be
000001c0: 4779 cb3d 9e25 ddbd b68d 3ebc 6482 b73d
000001d0: 5065 06be e3bb b33d 0d3f 913d bacf 983d
000001e0: 261b d43c 38b7 10be 2086 1bbe 64c0 36bc
000001f0: a639 a4bd ebba 79bd 2dd6 673d 34a3 4c3d
00000200: e792 45bd 9104 5abd 8a3f 703d 3de8 57bd
00000210: c606 a2bd 2d5e fb3d 4344 c1bd 6b2b 693d
00000220: ca45 773d 3396 96bd 71dc 283c 35c1 91bd
00000230: 1fa7 65bd 7ec4 003d 5f90 ed3d 84cd a13d
00000240: a9ea 28bd 3289 e33d 4f75 a4bd b52d 6f3d
00000250: af2f d7bd a602 933c 5c16 983d 8ab4 b23c
00000260: c176 e6bd d126 d1bd 1815 82bd a5d7 c63d
00000270: 8cf7 b63b 4c4a e03d a66c 58bd dc44 a8bd
00000280: 2cdd a0bc d9db 8e3d 481d d4bd a48e da3d
00000290: 1aea 943d 48dd 84bc 7d8d 6e3c fc4f d83c
000002a0: 0fab 133d 8535 b8bc 254d 883d 7ca2 d83d
000002b0: 3208 f13c 9c16 b53d 9418 e23d 893d b83d
000002c0: cb87 e3bc dee2 d5ba e1ff 6fbd e04f c43a
000002d0: b489 bc3d 0123 593c c71b cd3d ec5b f2bc
000002e0: e2fc cc3d a724 ce3d 1aef 013d 3845 3cbd
000002f0: 693f 7a3d a09d 653d 0041 67bc d1b5 dfbd
00000300: 611d 113d 55ca afbc 446b 0e3d 3843 463e
00000310: 6c4f 53bd 5ed8 9bbd 3c11 473c 4dae e2bd
00000320: a9cc 3a3e 2c8d 78bb 9985 523e f37d 0e3d
00000330: 6dff 143e 77a7 603d 9424 94bd e72a 82bc
00000340: a673 fd3c d0a4 493e 3758 37bc d72e f43c
00000350: e513 2ebc 21bc 0bbd 9e80 f73d 177f 53bb
00000360: 6d8d 893d 48b5 b33d 0ecc fc3c fc9b 8bbd
00000370: a701 313e f1c3 c53d 8bb4 0f3e 0bef cbbc
00000380: 746e 96bd d6bc d33d 4c21 2a3e 6af0 7b3e
00000390: 4931 36bd 31ee 403d cdd8 8fbc 96a2 debd
000003a0: 720e b8bd 665d 213d 306f 1d3e b344 c03c
000003b0: 2d46 133e e9a2 8a3d 5c27 103e 37eb 8a3e
000003c0: 53a9 ad3c 489a 733e cfeb be3d 671a f83d
000003d0: 57bc 7c3d 8e98 abbc 0918 4cbd f9de a43d
000003e0: c73c 923d a6f8 103e f49e 04bb 8f58 003f
000003f0: 7524 643e f224 f3ba 4a6b 4a3e c1b4 fabd
0.103076115 0.02700961 0.028658997 0.18815073 0.058564 -0.056813437 0.10146368 -0.098356105
0.16003364 -0.035598315 0.2184037 -0.1225926 0.05227363 0.22129686 -0.044104226 0.12054548
-0.0016774766 0.24403393 0.094380334 0.02618254 0.018488688 -0.0013077968 0.08413431 0.08714619
0.07540036 0.025586698 -0.01456689 0.025917204 0.11215105 -0.08714115 0.17684333 0.07547706
0.075862825 0.12522723 0.31216973 0.22347659 0.027561914 0.0658312 0.12413069 0.102350615
-0.037093885 0.053750925 -0.004168448 -0.081123985 0.1850231 0.107441105 0.09712252 0.262383
0.0603247 0.12888896 0.061416496 0.09016854 0.064077035 0.112517886 0.12690791 -0.043328803
-0.020481512 0.10096089 0.036984008 0.61834306 0.2755755 -0.08506819 0.1454996 -0.126402
-0.21631199 0.08811248 0.107510954 -0.13437596 0.08350065 -0.05478463 0.08335215 0.0013346
0.01591444 -0.08383515 -0.16844752 0.092001736 -0.0842883 -0.0035248336 -0.12026682 0.03174468
-0.04525819 0.10818611 -0.026277818 0.11717698 0.0074398853 -0.015718898 0.08265164 0.004571331
-0.10533361 -0.035450183 -0.08572098 0.005726865 -0.006096733 0.1069357 -0.15473688 0.020819632
0.07869798 0.10739952 -0.058227744 -0.0307311 -0.06087449 -0.11299224 -0.09523354 -0.04437437
-0.046189718 -0.15328118 0.09982026 -0.020322941 -0.10759405 -0.039027315 -0.052037824 -0.12672912
0.09935241 -0.107981905 -0.011630466 0.08960417 -0.13124585 0.08776071 0.07092104 0.07461496
0.025891852 -0.14132392 -0.15187883 -0.011154268 -0.08018808 -0.060969274 0.05660074 0.04996033
-0.0482358 -0.05322701 0.058654346 -0.052711714 -0.07911448 0.12273822 -0.09436848 0.056926172
0.06036929 -0.07352867 0.010306464 -0.071169294 -0.056067582 0.03143739 0.11599802 0.07900527
-0.041239414 0.11110152 -0.08030187 0.0583932 -0.10507142 0.017945599 0.0742614 0.021814603
-0.11253119 -0.10212482 -0.063516796 0.097091 0.005583709 0.10951671 -0.05283799 -0.08216259
-0.019636713 0.06975526 -0.103571475 0.10671738 0.07271214 -0.016218796 0.014560101 0.026405327
0.036051806 -0.022486458 0.06655339 0.105778664 0.029422853 0.08842203 0.11039844 0.08996112
-0.027774712 -0.0016318222 -0.058593635 0.0014977418 0.09205952 0.0132529745 0.10015064 -0.029584847
0.10009171 0.10065585 0.031722166 -0.04596445 0.06109563 0.056058526 -0.014114618 -0.109233506
0.03542841 -0.021458784 0.034770265 0.1936158 -0.051589414 -0.07609628 0.012150105 -0.110684015
0.18242134 -0.0037925942 0.20558776 0.034788083 0.14550562 0.054847207 -0.07233539 -0.015889598
0.030938935 0.19691777 -0.011190466 0.029807491 -0.01062486 -0.03411496 0.12085079 -0.0032271796
0.06716428 0.08774811 0.03085902 -0.06816861 0.17285787 0.096565135 0.14033715 -0.024894258
-0.07345286 0.10338752 0.16614264 0.2460343 -0.044480596 0.047102157 -0.017559433 -0.108708546
-0.0898713 0.039395712 0.15374446 0.023470258 0.14382239 0.06769354 0.14077514 0.2713258
0.021198904 0.23789322 0.09322321 0.12114411 0.061703052 -0.020946767 -0.04982761 0.08050341
0.071404986 0.14157352 -0.0020236345 0.5013513 0.22279532 -0.0018550439 0.1976749 -0.12241507

fc.weight f4 [1, 64]
00000000: fc6a f7bc f272 903c 31ae 863d 97c3 723e
00000010: 618a ce3d 4887 0abe a367 8bbd 7490 dd3d
00000020: 0f90 293e 9262 df3d 982e 91be c0d3 5abd
00000030: 1c8c e9bd d66e 453e 8a80 d3bd a4e7 e6bd
00000040: 40d7 54bd a5c8 493e 0bd3 ffbd bbfa 08be
00000050: 4d6a d6bc 77fb 143e bace 9bbd 470f 05be
00000060: 043a 3b3d ace4 113e 7f68 2ebc 61da e4bd
00000070: 110f 37be 2e68 483d 14f0 e53d 883f d53d
00000080: bdb3 26bd afbe bb3d 70f8 383e 52f9 18be
00000090: 745a a43d e09f d8bd 1aa9 0c3e ea83 b9bd
000000a0: 8eb3 183d 4f39 1dbd 6c91 f0bd 94ef dcbd
000000b0: 3bb2 303e 2302 fbbd 893f 073e b915 893e
000000c0: 4818 623d c2ea 65be d50f aa3d 5132 ee3d
000000d0: 6fce e23d a9b7 19be 378b dd3c ed54 d33d
000000e0: c2af c13d 14ee c3bd f56f be3c 8f6f 4b3e
000000f0: 43b0 67be 5624 18bd 93d8 4ebe 2c04 3fbc
-0.030202381 0.017632935 0.06576193 0.23707424 0.100849874 -0.13528168 -0.068068765 0.10818568
0.1655886 0.10907473 -0.2835586 -0.053424597 -0.11403677 0.19280562 -0.10327251 -0.11274651
-0.05196309 0.19705446 -0.12491425 -0.13376896 -0.026173735 0.14549051 -0.07607789 -0.12994109
0.045709625 0.14247388 -0.010645031 -0.11174465 -0.17876841 0.04892748 0.11227432 0.10412508
-0.040698756 0.091672294 0.18063521 -0.14938858 0.08025065 -0.10577369 0.13736382 -0.09058364
0.03728061 -0.03838473 -0.11746487 -0.107878834 0.1725549 -0.12256267 0.1320783 0.26774386
0.055198938 -0.22452834 0.08303801 0.11630691 0.1107453 -0.15011467 0.027043922 0.10318933
0.09457351 -0.09566894 0.023246745 0.19866775 -0.22625832 -0.037144028 -0.20199804 -0.0116587095
