output/river_level_predictor_ep50_lr0.002_lu4/model.pth (torch, 94779 bytes, 6 tensors)

linear.weight f4 [1, 2]
000000 68 3a 3f bf ca 02 5d bf
       -0.74698496 -0.8633238

lstm.weight_ih_l0 f4 [256, 24]
000000 ba ee b7 3d 7f 40 4e 3d bf 8c 8e 3c 41 75 80 bd
       0.0898108 0.050354477 0.017401097 -0.062723644
000010 d1 c4 cb 3d 29 02 c2 3d 8c c7 48 3d 93 34 8a 3d
       0.09949649 0.09473068 0.049018428 0.06748309
000020 7f d6 b1 3d 2d f0 6d 3d 93 01 e4 bd 1d eb 4d bd
       0.0868349 0.058090378 -0.11133113 -0.05027305
000030 56 cd 24 3e 77 bf da ba f5 49 d8 bd 39 0c bd bd
       0.16093954 -0.0016689141 -0.10560981 -0.09230847
000040 8d 99 82 3d 75 b4 e8 bd d2 8b 91 3e 87 4c 87 bc
       0.06376944 -0.113625444 0.28426987 -0.016515983
000050 49 eb df bd 4c 75 95 3d b3 00 87 3d 85 f0 60 bd
       -0.10933549 0.07297763 0.0659193 -0.054916877
000060 7a da ef 3d ed c9 68 3e c2 46 fe 3d 75 f3 54 3e
       0.11711593 0.22733279 0.1241584 0.20795996
000070 b4 de fd 3d 10 ed a5 be 4c f6 a0 bc 0d e2 dd 3d
       0.12395993 -0.32407427 -0.019648694 0.108341314
000080 af f3 8b 3e fd 0e 21 3e b7 8c 93 3e 8b ff 4f be
       0.27334353 0.15728374 0.28818294 -0.20312326
000090 df 43 13 be 84 9f 0d 3e ae 47 97 3e b5 66 21 3e
       -0.1438136 0.13830382 0.29546875 0.15761836
0000a0 b8 5b 8f 3e 49 99 b0 be f6 80 6b be 91 4b 45 3e
       0.27999663 -0.34491947 -0.22998413 0.19267108
0000b0 54 0f dd 3d 3e 6e 8d 3e f1 d9 35 3e a3 52 17 be
       0.10793939 0.2762317 0.1775892 -0.14777617
0000c0 2c 64 66 3d 68 5d 96 3d e7 8f e2 bd 2d c7 38 bd
       0.056247875 0.073420346 -0.110626034 -0.045111824
0000d0 65 4f 87 3d 96 d2 60 bd f9 0e 25 3e ec 18 f3 bc
       0.0660694 -0.05488833 0.16118993 -0.02967497
0000e0 3a b1 37 bb 1c c7 cd 3d 25 6e f1 bd 17 80 a1 3d
       -0.002802922 0.10047743 -0.117885865 0.07885759
0000f0 04 6a 83 3e 87 64 ec 3c 2c 45 5b bd f3 ec 08 be
       0.2566682 0.028856529 -0.053532764 -0.13371639
000100 48 8d ee 3c 15 be 35 bd 36 24 7f 3e 98 55 8c 3d
       0.029120103 -0.04437073 0.24916157 0.06852263
000110 4d 65 e0 bd e5 74 d7 bc 1b 5e d7 3d 5f a2 e1 bd
       -0.109568216 -0.026300857 0.10515996 -0.11017298
000120 df 85 56 3d 6c 74 fa 3d 43 00 c5 bb 25 73 ed 3b
       0.052373763 0.12229237 -0.006011994 0.0072463923
000130 41 42 20 bd 80 24 a0 3c f2 6e 48 be ba 04 5e 3d
       -0.039125685 0.019548655 -0.19573572 0.054203726
000140 43 04 88 3c c9 9a b6 3d 95 da 94 bd 8c 45 f2 3c
       0.016603595 0.08916242 -0.07268254 0.029574178
000150 c2 e9 7c bd 1b b9 bc 3d 4c 41 ea bd 1b be b0 bd
       -0.061746366 0.092149936 -0.11438236 -0.0863001
000160 a4 1c dc bd b4 14 d4 bd 62 f7 0e be 0e 53 15 3e
       -0.1074765 -0.10355511 -0.13961557 0.14582464
000170 2e f1 f0 bd 6c 25 75 bd ba b7 19 3d 39 4d b1 bd
       -0.117647514 -0.05985014 0.03752873 -0.08657307
000180 41 f5 cd bb b1 77 7b bd 78 b9 a8 bd 5d 3f 6d bd
       -0.00628534 -0.061393443 -0.082385 -0.057921756
000190 df 49 8f 3c 0e 89 c4 bc 54 9c 17 3d e4 6b a2 bd
       0.01749128 -0.023991134 0.03701432 -0.07930735
0001a0 c0 84 98 bd 3f 3b e1 bc d1 7f 02 be fc 2d 0c bd
       -0.07447195 -0.027494071 -0.1274407 -0.03422354
0001b0 5c 55 66 3d 76 33 c3 bd a1 32 b7 bc 44 58 f0 3c
       0.05623375 -0.095313 -0.022363009 0.029338963
0001c0 cd f7 c6 bd be c9 11 be de d2 8e 3e 74 44 c2 bd
       -0.09715233 -0.14237115 0.27895254 -0.09485713
0001d0 b6 e7 12 bc ad d1 b1 3b 15 ad dc 3d e6 55 b1 bd
       -0.008966377 0.0054266066 0.107752 -0.08658962
0001e0 fb 9f 03 3e 17 de ba 3d 82 8f 80 3d 80 fb cf 3d
       0.12853996 0.091243915 0.06277372 0.10155392
0001f0 e5 df e3 3d 9a ee cd 3c 99 5d a8 bd 51 99 3a 3e
       0.11126689 0.025138188 -0.08220977 0.18222548
000200 d6 d0 7c bd 02 df 92 bc 60 e7 91 bc e2 ca 60 bd
       -0.0617226 -0.017928604 -0.017810524 -0.054880984
000210 46 af 80 3e db ff cf 3d d4 63 b0 bd e8 a6 ce bd
       0.25133723 0.101562224 -0.08612791 -0.100904286
000220 65 0f ae bd 8a 19 1f 3d 15 13 56 3e 31 0c c4 3d
       -0.0849903 0.038842715 0.20905717 0.09572638
000230 62 2c f6 3d 9e f9 e4 3d 3a 6e e9 3d a5 f9 f5 b9
       0.12020184 0.11180423 0.11397977 -0.0004691604
000240 41 68 40 be a4 4a db 3b 4d 78 1c bd de 82 fd 3c
       -0.1878977 0.0066922475 -0.038200665 0.030946191
000250 54 5e 5d bd 51 e9 4e bd cc 97 56 be dd 82 c9 3c
       -0.054045036 -0.050515477 -0.20956343 0.024598533
000260 e8 a4 03 bb 8b fa 93 3c 78 c0 3c bd 52 c2 60 bd
       -0.0020087305 0.018063804 -0.04608199 -0.05487282
000270 dc bb a9 bb 43 6a 97 bc 36 fd 34 bd 88 47 13 bd
       -0.0051798653 -0.018483287 -0.044186793 -0.03595689
000280 b1 31 07 3d a2 19 a1 bd a8 73 20 be 7a 05 8c bc
       0.033006374 -0.07866217 -0.1566912 -0.017092455
000290 0e 2d d0 3d 1a 42 11 bd 27 16 ac 3d 13 a8 e6 3c
       0.101648435 -0.03546343 0.08402663 0.028156316
0002a0 ac 4e c5 3d f2 f3 08 3e ab a1 95 bd e5 81 d9 3d
       0.09634146 0.13374308 -0.07306226 0.106204785
0002b0 7f 59 99 3b 12 a5 70 bd ad ca 50 3d 28 c3 09 3e
       0.004679858 -0.058751173 0.050974537 0.13453352
0002c0 9d 11 92 bd 74 79 3b 3e 56 6d cd 3d 86 ed b4 3d
       -0.07132266 0.1830805 0.1003062 0.088343665
0002d0 ce dc 37 3e c6 1c 97 3d 89 69 29 3c 87 ae 19 3d
       0.17955324 0.07378535 0.010340103 0.037519958
0002e0 48 9c 94 3d 4e 62 23 be 58 9b 6c 3e 44 f5 62 3e
       0.07256371 -0.15955469 0.23106134 0.22163874
0002f0 bd 23 8a 3d 62 80 27 3d ff 52 29 3d ef b3 7f 3d
       0.06745098 0.04089392 0.041338917 0.062427457
000300 7c 9a 19 3e 69 6a c3 3d ee ed e7 3d d4 bb 1f bd
       0.15000337 0.095417805 0.11324678 -0.038997486
000310 06 58 27 3d 43 83 7b 3c 61 58 11 bd 32 f3 17 3e
       0.04085543 0.015351119 -0.035484675 0.14838865
000320 ae fe e6 3d 02 69 f3 3d 45 11 9a 3c a5 bc f4 bd
       0.11279045 0.11885263 0.018807063 -0.119500436
000330 f0 15 2f 3e da ba 3c 3e 11 49 0d 3e 62 79 20 3e
       0.17098212 0.18430653 0.13797404 0.15671304
000340 cf 21 55 bd b5 66 ea bd b2 71 fb 3d 9d 67 d6 bc
       -0.052034196 -0.11445371 0.12277545 -0.026172454
000350 e4 b2 ae 3d e7 73 6b 3d d1 a4 e2 3d 69 e3 f2 bd
       0.085302144 0.05748358 0.110665925 -0.11859781
000360 05 ce 71 be 51 e7 ca be 01 22 e5 3d 14 48 34 3d
       -0.23613746 -0.39629605 0.11188126 0.04401405
000370 ec dc a3 3d 4e 1e bc bd 92 21 9d be e3 f4 cc be
       0.08001122 -0.09185468 -0.30689675 -0.40030584
000380 b3 2b f0 bb 3c 18 e9 3d 40 15 5a 3e 29 2a e2 bd
       -0.007329428 0.113815755 0.21297169 -0.11043198
000390 df 6b 23 3d aa c1 85 be 4c 40 13 3e 56 9e c8 3b
       0.039897796 -0.26124316 0.14379996 0.0061223907
0003a0 5b eb d5 3c 57 e8 5a be 10 9e b7 3e 4f cb da be
       0.026113203 -0.21377693 0.3586278 -0.42733237
0003b0 4d ca 66 3e f8 67 ea 3d 59 80 a4 bc c5 9b 44 be
       0.22538109 0.11445612 -0.020080732 -0.19200046
0003c0 d7 78 f9 bc 68 85 b7 3d 14 48 ed 3d 39 07 f1 bc
       -0.030453129 0.08960992 0.115860134 -0.02942239
0003d0 61 29 19 3d dc 47 b0 bd 5f ce dc 3d f0 64 af 3d
       0.037392978 -0.08607456 0.1078155 0.08564174
0003e0 85 3f 54 3b 6c 6e 24 bd ec 9b aa bc 5c a0 76 3d
       0.0032386493 -0.04014437 -0.020826302 0.060211524
0003f0 a4 0a e5 3d 85 fa 06 3e 2d 94 68 bd 13 26 a2 3d
       0.1118367 0.13181503 -0.056781936 0.07917418

lstm.weight_hh_l0 f4 [256, 64]
000000 71 6c 50 3d 64 84 09 3e e1 2a c2 bc 22 22 8b bc
       0.050884668 0.1342941 -0.023702087 -0.01698405
000010 02 42 bf 3d f7 1d e9 bd b2 68 f1 3c d4 13 d8 bc
       0.09338762 -0.113826685 0.029468868 -0.026376642
000020 1e 9e 0a bd a2 30 a8 bd fd 35 cb bd ec 2d de 3d
       -0.0338422 -0.08212401 -0.09922407 0.10848603
000030 46 b5 c1 3d c6 03 dc 3d be 9b e0 3b c8 9b d9 3c
       0.09458403 0.10742907 0.0068545034 0.02656354
000040 c5 42 31 be 5d f6 ec 3d 76 7a 0e 3e 7f 40 20 bd
       -0.17310627 0.115704276 0.13913903 -0.03912401
000050 19 66 fe 3b 58 15 70 3d b7 1e 2f bd 6d 31 e2 3c
       0.007763636 0.058614105 -0.0427539 0.027611459
000060 96 83 b1 bd 56 b0 2b 3d 69 df 5f bc e9 84 bc bd
       -0.08667676 0.041916214 -0.013664105 -0.09205038
000070 c6 b0 48 3d 18 80 2c 3d 8e 64 24 3d 50 f9 e6 bd
       0.04899671 0.042114347 0.04013496 -0.11278021
000080 6f 04 c1 bc e6 18 4c 3d 66 30 d9 bc af 0b 7e 3d
       -0.023561684 0.049828433 -0.026512336 0.06202286
000090 ce 98 14 3d 45 23 11 3d e4 35 92 3c 2e 71 5d 3d
       0.03627854 0.035434026 0.017847963 0.054063015
0000a0 02 4e 77 3c 45 b7 93 bc 03 3e 07 bd 15 08 fc bd
       0.015094282 -0.018031726 -0.033018123 -0.12306229
0000b0 8b 18 01 be c4 14 82 3c a5 73 a1 bd 4a 3e 3c bd
       -0.12607019 0.015879042 -0.078833856 -0.04595784
0000c0 76 54 85 3d 81 c7 eb bb 98 03 86 bd 89 87 e0 3d
       0.0651025 -0.0071954136 -0.06543654 0.10963351
0000d0 67 b6 d9 3d a0 3e 05 be e3 c8 37 bd a7 a2 5f 3d
       0.106304936 -0.13012171 -0.044869315 0.054598477
0000e0 94 03 aa bd 6a cc 1b 3d 61 d8 e0 3d 48 2e ff bc
       -0.08301464 0.03803674 0.10978771 -0.031149998
0000f0 d7 d0 a8 bd bd 16 b9 3c 5b 33 25 bd 9e 6c 17 3c
       -0.08242958 0.02259385 -0.04033218 0.009242205
000100 2f f5 c4 be 6e 5b 97 3e f8 26 ec be 79 b8 a2 3d
       -0.3846831 0.29561943 -0.4612348 0.079453416
000110 2d 01 7b 3e e2 7c 3e 3e 3f 63 0d be 89 17 c5 3e
       0.24512167 0.18602327 -0.1380739 0.38494518
000120 41 41 3b 3e ce 3f 1d 3f ab 55 b4 3e c2 13 06 3d
       0.18286611 0.61425483 0.3522161 0.032733686
000130 b2 d1 e0 3d 6b d1 bf 3e 78 b5 0b be 0f dc 83 be
       0.10977496 0.3746446 -0.13643444 -0.2575383
000140 a3 b9 b0 3e 1e 19 21 3e be 70 28 be 87 1f 7e 3e
       0.3451663 0.15732238 -0.16449258 0.24816714
000150 a0 7c a4 3d ba a5 e2 3e e4 5e 83 3e 55 38 db bd
       0.08031583 0.44267064 0.25658333 -0.10704104
000160 5a f9 97 3e 4b d0 93 3e e4 4b 4f 3e 80 53 e1 bc
       0.29682428 0.28869852 0.20243794 -0.027505636
000170 12 1b 4d 3e b1 6a 07 3e f5 e6 b3 3d e7 a2 e7 3e
       0.20029858 0.13224293 0.08784286 0.45241472
000180 d7 7f 00 bf e0 ff 18 3c e8 4d 6d be ef a2 4e 3e
       -0.5019507 0.009338349 -0.2317425 0.20179342
000190 a8 9f e2 3e dc fb ed bd d2 e7 b5 3d 42 be d9 bd
       0.44262433 -0.11620304 0.08882107 -0.10631992
0001a0 49 04 9f 3e f6 4e 4d bd 0f b6 b9 bc 99 86 05 3e
       0.31057957 -0.05012413 -0.02266982 0.13039626
0001b0 10 74 44 bf ad e5 13 3e a6 76 11 3e d8 7d e3 3d
       -0.767396 0.14443083 0.14205417 0.11107987
0001c0 01 87 ac 3d d0 28 87 3e b6 09 03 bc 32 fd 02 3e
       0.084241875 0.26398325 -0.007997921 0.12791899
0001d0 8a e7 96 be a2 2e 32 3e 38 c9 35 be df 07 2a 3b
       -0.29473525 0.17400602 -0.1775254 0.0025944633
0001e0 41 78 2b be 59 3c 6e be 0b ad a1 3b 81 52 be 3e
       -0.16745092 -0.23265208 0.0049339584 0.3717232
0001f0 92 8f 37 be b1 a9 5c be 2c 57 85 3e 46 a7 75 be
       -0.17925861 -0.21549107 0.2604307 -0.23989591
000200 60 99 01 3e aa 96 3b bc 33 8d 8a 3d a1 66 17 3d
       0.12656164 -0.011449495 0.06765213 0.03696311
000210 11 b7 7e 3d 31 ff 56 3d 30 09 b1 bd f3 c5 21 be
       0.062186304 0.052489463 -0.086443305 -0.15798168
000220 85 8d 5c bb e4 67 46 be be 11 9c bd 6e 89 6c 3d
       -0.0033653688 -0.19375569 -0.076205716 0.05774825
000230 ee 25 6d 3d 23 c5 16 be 98 03 03 3e e7 b0 0a bd
       0.0578975 -0.14723639 0.1279434 -0.033860113
000240 24 68 09 be 8a 15 fb bd 8e 90 cb 3d 29 3e 06 be
       -0.13418633 -0.122599676 0.09939681 -0.1310965
000250 7e b0 01 be 5c d1 a5 3b d7 54 0b 3d 3b 49 b3 3d
       -0.12664983 0.005060358 0.034016456 0.08754202
000260 2d 5c 23 be 6d 2b 83 3d bf 9e 3b 3c 72 54 25 3e
       -0.15953131 0.06404767 0.011451422 0.16145495
000270 cb 81 22 bd 86 fa 5e 3d ff c5 15 be 71 19 2b ba
       -0.03967456 0.054438137 -0.14626311 -0.00065269234
000280 bf 95 f1 3d 81 e6 d2 bd 29 54 3f 3e ed eb f8 3c
       0.1179614 -0.102978714 0.18684448 0.030385936
000290 49 00 82 bd 38 30 a2 3d 2f db a9 bd 8a 27 40 3b
       -0.06347711 0.07919353 -0.08293759 0.0029320442
0002a0 41 4f a3 bd e3 d9 1d 3d 74 58 6b 3d 66 fa d9 bb
       -0.07974101 0.03853787 0.057457402 -0.0066521643
0002b0 47 ae 71 3c c4 f0 d2 bc f6 65 81 bd 22 f2 12 bc
       0.014751024 -0.025749572 -0.06318276 -0.008968862
0002c0 46 65 bf 3a 2b 3b 08 be 81 47 99 bd b4 ae 1e be
       0.0014602325 -0.13303821 -0.074843414 -0.15496331
0002d0 fd a2 f8 3d a5 62 55 3c b9 34 e1 3d cc 0b 71 3d
       0.121404625 0.013024007 0.10996384 0.05884914
0002e0 df be 70 3c c4 38 b7 3c 07 49 bc bc 1b 1e 89 bd
       0.014693945 0.022365935 -0.02298404 -0.06695195
0002f0 3c 57 d3 3b cd 7b b4 bd 7e 6a eb bb dd 75 70 3d
       0.006449608 -0.088126756 -0.0071843257 0.058706153
000300 62 4b d2 bc ac 55 a9 3d 86 ec 70 bd 97 01 71 bc
       -0.025670711 0.08268294 -0.058819316 -0.014709852
000310 84 d0 5b 3d b6 59 de bd 93 a1 b1 3d 06 ef fd 3c
       0.053665653 -0.10856955 0.08673396 0.030997764
000320 7f 4c 5b bd b8 f4 ad bd ab dd 20 be 7f fb 5a 3d
       -0.05353975 -0.08493942 -0.1570956 0.0534625
000330 ea 98 60 bd 0b 0d 32 be 00 4c 51 3d 48 c7 69 3d
       -0.05483333 -0.17387788 0.05109787 0.057074815
000340 7a e6 fa bd 0a 6e 8b 3d a6 d8 63 3e 05 f9 e3 bd
       -0.12250991 0.06808098 0.22250614 -0.11131481
000350 92 47 3d bc 79 77 e5 3c 5f be 22 3e 15 60 8e bd
       -0.011552708 0.02801107 0.15892933 -0.0695192
000360 ab 04 82 3d e5 99 06 be ea 5c c7 3c 15 6a f9 3b
       0.063485466 -0.13144644 0.024336297 0.007611523
000370 9e 7b dd bd b1 eb b4 3c 79 4c 24 be 8c 98 ff bd
       -0.10814594 0.022085043 -0.16044797 -0.12480268
000380 6a 43 35 3e af 2a a0 bd 3f 9a 75 3d dc c5 ff bc
       0.17701498 -0.07820641 0.059961554 -0.031222276
000390 c7 eb cf 3c 66 46 f0 3c b5 7a 31 bd 98 93 73 bc
       0.025380982 0.029330444 -0.043329913 -0.014866732
0003a0 ff ed 95 3d 98 be 85 bd 1a c2 12 bd a1 c5 45 bd
       0.07320785 -0.065304935 -0.03582964 -0.048284177
0003b0 fd 9d 9c be 12 9a ae 3d 3e 1e 82 3b 1f 0e 1f be
       -0.30589285 0.0852548 0.0039708903 -0.1553273
0003c0 86 01 bf 3d 79 08 c5 bd 35 4a 00 bd e8 8b 1a 3d
       0.093264624 -0.09620757 -0.03132077 0.03773108
0003d0 fc a6 43 3e 8e 33 42 be 7d 2a e0 3c 06 37 07 bd
       0.19106668 -0.18964979 0.02736401 -0.03301146
0003e0 7e 63 9b 3d eb 9c 9b bb 54 cd 76 3c 3e 85 81 bd
       0.07587336 -0.0047489307 0.0150636025 -0.06324242
0003f0 0d 97 29 3e 6f 56 1c 3d ef 89 3f be 0f 0e b3 3c
       0.16561528 0.038168367 -0.18704961 0.02185729

lstm.bias_ih_l0 f4 [256]
000000 cb 3e de 3c 36 7c 28 3e f8 1e d8 bd f3 22 81 3c
       0.027129551 0.16453633 -0.10552782 0.015763735
000010 a3 2b 88 3c b3 ae 74 3d 74 51 14 3d ac 37 64 3c
       0.01662237 0.05973692 0.036210492 0.013929289
000020 b4 5e da 3d 5a 9a 0c 3e 9c 80 92 3d a1 78 b0 ba
       0.106625944 0.13730755 0.071534365 -0.0013463685
000030 ef 38 8a bd 66 90 74 bd 85 a7 08 3d 63 f8 b6 3d
       -0.067491405 -0.05970802 0.033362884 0.08934095
000040 19 3d 8d bc e7 e0 e0 bd 92 8a 06 3e e8 4d c2 bc
       -0.017241048 -0.10980397 0.13138798 -0.02371879
000050 b4 13 b6 3c a3 22 88 3d bf 2d 21 3e 26 3b 6f bd
       0.022226192 0.066472314 0.15740107 -0.058406018
000060 6d d1 5f 3d 75 06 94 bd 52 ca 48 bd 60 97 85 3d
       0.054643083 -0.07227794 -0.049021073 0.06523013
000070 c7 33 0c 3e a7 6d 05 3e d0 a2 00 3c bf 6e 45 bd
       0.13691626 0.1303011 0.0078513175 -0.04820132
000080 b4 43 a1 bd cd 89 94 bd 4f 70 83 3c f3 c7 03 3e
       -0.078742415 -0.07252846 0.016044764 0.12869243
000090 6d 05 a8 3e f6 0f c7 bc e7 5f c8 bd ab 86 c3 bb
       0.3281664 -0.024299603 -0.09783917 -0.0059669814
0000a0 b0 c3 d5 3b 15 bd 36 bd a6 a8 5a 3d ca eb 9e 3d
       0.006523572 -0.044613916 0.053383492 0.07759817
0000b0 6b 97 17 3e c7 fa eb bb e4 1c 32 bd ac 93 d2 3c
       0.14803855 -0.007201526 -0.043484583 0.025705181
0000c0 26 1b e8 3b 55 ab 27 3d 01 51 d9 3b bf be 96 3d
       0.0070833145 0.04093488 0.006631971 0.07360601
0000d0 22 fb 76 3c ab ed 4a 3d b7 e2 20 bd fd ad b5 3d
       0.015074523 0.049543064 -0.039278712 0.08871076
0000e0 a3 1f d5 bc 3b 2b 22 3e 1a 03 bc 3d 01 75 d6 bd
       -0.026016062 0.15836804 0.09180279 -0.104715355
0000f0 f7 a2 f2 bd 63 67 59 3d 9b 94 9d bc c5 f5 90 3d
       -0.11847489 0.053077113 -0.0192359 0.07078127
000100 8b a1 50 3d 71 38 52 bd c7 f5 0f 3d 0e 93 4a bd
       0.05093531 -0.051323358 0.0351465 -0.04945665
000110 a1 aa 9b 3d e7 29 4d bd 49 be b8 3c 78 9a f8 3c
       0.07600904 -0.05008879 0.022551673 0.030347094
000120 20 33 89 3c 1b ec fd 3d cb e6 01 3e c7 48 76 ba
       0.016748011 0.12398549 0.12685697 -0.0009395
000130 42 2a 8a 3d 2f d6 91 bd 11 8d 91 bd e1 ea 57 3c
       0.06746341 -0.071209304 -0.071069844 0.013178558
000140 aa 30 07 be c6 b9 9a 3d c1 8e ff bb 52 bf ca 3d
       -0.13202158 0.07554965 -0.007799 0.09899773
000150 da b6 a9 bd 9c e3 2d bc 06 f1 e0 bc 68 61 31 3d
       -0.08286829 -0.010613348 -0.027458679 0.043305784
000160 89 99 04 3d 49 c0 f4 bd 68 d8 2b 3d 6a 1e b1 3d
       0.032372985 -0.11950738 0.041954428 0.08648379
000170 14 82 05 3b ff 81 06 bc 5e 1e b1 3c cf 9c 95 bc
       0.0020371722 -0.008209704 0.021620926 -0.018263249
000180 86 c1 b3 3d 02 11 a7 3d 6d 80 cb 3d a6 31 8d 3c
       0.08777146 0.08157541 0.09936605 0.017235588
000190 e7 95 e5 3d 19 73 b5 bd 95 d9 fa bd cd 69 f1 bc
       0.11210232 -0.08859844 -0.12248532 -0.029469395
0001a0 8e b8 23 bd 54 0b e3 bd da 46 99 3d d4 d3 ba 3c
       -0.039970927 -0.11086145 0.07484217 0.022806086
0001b0 f3 e6 2a 3e 72 5a 93 bd a6 2e 53 bc d2 29 70 bc
       0.16689663 -0.071949854 -0.01288954 -0.014658408
0001c0 12 d0 71 bd 71 17 a6 3d 20 6c 6b bc 06 6a 3f bb
       -0.059036322 0.0810994 -0.014369041 -0.0029207482
0001d0 f8 9c ab bd 84 4e 91 3d dc f8 1c bd 81 69 fd bd
       -0.08379549 0.07095054 -0.03832327 -0.12373639
0001e0 22 77 ba 3d 7c 1d d1 bd f9 ed ec bd 15 fa 9c 3c
       0.09104754 -0.10210702 -0.11568827 0.019162217
0001f0 7e e4 5d bc a9 08 20 3d 27 b7 e1 3d 1e 6b b8 bd
       -0.013543246 0.03907076 0.11021262 -0.09004806
000200 ef aa 95 3d e5 af 6b 3d 2e b6 99 3c a4 d0 37 3c
       0.073079936 0.057540793 0.018763628 0.011219177
000210 49 59 1f 3d 4e ba 95 bd 0d ad 9d 3d 49 99 92 bc
       0.03890351 -0.073109254 0.076990224 -0.017895358
000220 46 87 95 3d 1c e2 21 bd bb c5 fe 3d 31 cf d4 3d
       0.07301192 -0.039522275 0.12440058 0.10391081
000230 4e d0 8e bd d8 87 8f 3d 04 0e 08 bd c7 d5 be bd
       -0.06973325 0.07008332 -0.03321649 -0.093181185
000240 31 fd df 3d 12 80 7b 3d 21 b4 c4 3d 25 fe cd 3d
       0.10936964 0.061401434 0.09604669 0.1005824
000250 c3 b8 11 bd a1 48 64 3d ed e8 c0 3d a5 c3 50 bd
       -0.035576593 0.055733327 0.09419427 -0.05096783
000260 22 ff b3 3c c5 45 60 3d 75 34 b0 3b 3f 76 87 bd
       0.021972243 0.054754037 0.005377347 -0.066143505
000270 01 c3 8f 3d 38 c0 2d 3d fe 8d 0b 3b 55 cc aa 3c
       0.07019616 0.042419642 0.002129435 0.020849386
000280 f1 52 29 3d b9 57 dd bc 96 f2 23 bd f4 b3 d4 3b
       0.041338865 -0.027019368 -0.04002627 0.0064911786
000290 06 2b 16 bd 20 07 9d 3d ce 81 7f 3d 2c 14 d4 bd
       -0.036662124 0.076673746 0.06237965 -0.1035541
0002a0 81 de 1c bc 7d 5b 1a 3d bb fe eb bc 35 1e 77 3d
       -0.009574533 0.037684906 -0.028807988 0.060331542
0002b0 74 27 0f be 97 4d cd 3d 7c f7 ac 3d 5b 37 03 bd
       -0.13979894 0.10024565 0.084456414 -0.032035213
0002c0 af d6 c7 bd e0 0e 70 3c 32 b5 a2 bc c9 c4 6c 3d
       -0.097577445 0.014651984 -0.019861791 0.057804856
0002d0 90 78 a0 3d 90 8a 7f bd f0 b6 17 bd 03 a2 de bd
       0.078354955 -0.062388003 -0.037039697 -0.10870745
0002e0 69 09 3d bd 31 3d 17 3a f3 bb a5 3c d8 a1 16 3d
       -0.046151552 0.0005769311 0.020231223 0.03677544
0002f0 3c bb 41 bd 95 8e 3f bd fa b6 cf 3d ca 10 9e bd
       -0.0472977 -0.046766836 0.10142322 -0.07718046
000300 bb 22 cf bd 98 d6 8d 3e bc 44 0f be a8 6e e2 3c
       -0.10114046 0.27702785 -0.13991064 0.027640656
000310 82 9d 93 bc e4 81 38 3d 6d ae 1a 3e 04 0d 53 3d
       -0.018019442 0.04504575 0.151056 0.051526085
000320 9d df 02 bb 5e ed 41 3d a1 4a 21 bb b5 8d cd bd
       -0.001996971 0.04734551 -0.0024611133 -0.10036794
000330 1a a3 8e 3d ac 74 b1 3d 8a 9e d2 3c 12 de 12 3e
       0.06964703 0.086648315 0.025710363 0.14342526
000340 11 12 0c be 27 a0 ce bb 34 fd d3 3b 2d ae cd bd
       -0.13678767 -0.0063057127 0.006469393 -0.10042987
000350 0a 3e ab bd 50 74 50 3d 20 c6 5d 3e 96 9f bd 3d
       -0.083614424 0.050892174 0.2165761 0.09258954
000360 c1 ae 75 3d 45 74 a4 3d 7d 4e a6 3d 51 b3 f1 3d
       0.05998111 0.08029989 0.08120439 0.1180178
000370 c7 7a dd 3b a1 4f d6 3d 2e b6 26 bd 44 ff 53 bd
       0.006759021 0.10464407 -0.040701084 -0.051757112
000380 5f e9 52 bd c4 24 fd 3c 3d 21 ce bd 34 06 88 bd
       -0.05149209 0.03090132 -0.100649334 -0.06641808
000390 ce d4 d8 3e ca 1c 8f 3d c6 54 b7 3d 14 57 48 3d
       0.42349857 0.06987913 0.08951716 0.04891117
0003a0 9d 5b e8 bb 80 35 a3 3d 2b e9 52 3d 02 ee bd 3d
       -0.0070909993 0.07969189 0.051491898 0.09273912
0003b0 8e d5 31 3e c8 3c c4 3d dd 16 b5 bc 9f 49 8f bd
       0.17366621 0.095819056 -0.022105629 -0.06996464
0003c0 0f 1f d8 bd a5 bb 1d bd 9c 49 25 39 21 ca eb 3d
       -0.10552799 -0.03850903 0.00015763048 0.115131624
0003d0 7a 63 c9 3c f8 a4 8a 3c f8 0b db 3d f0 36 66 bb
       0.024583567 0.016924366 0.10695642 -0.003512796
0003e0 0d 12 6f 3d ca 1e 1d 3e de 42 cb 3c 75 3d 5b 3d
       0.058366824 0.15343776 0.024812158 0.053525407
0003f0 27 cd b5 3d e1 e6 75 3c 83 dd 04 bd 26 8b b6 3b
       0.0887702 0.015008659 -0.032437813 0.005570787

lstm.bias_hh_l0 f4 [256]
000000 bb e3 d8 bd 6a df e1 3d 46 d2 ba 3d 70 62 e7 bd
       -0.10590311 0.11028941 0.09122138 -0.11298072
000010 ad 58 83 bd 8e b4 41 bd 81 f8 93 3c 42 7a 5f bd
       -0.06413398 -0.04729133 0.018062832 -0.054559954
000020 95 ed 10 bd f1 0c 83 3c e8 b0 b1 bd 32 f8 38 bd
       -0.035382826 0.015997382 -0.0867632 -0.045158572
000030 85 40 f3 bc 4a 75 0a 3d 53 af 07 3e 67 b7 83 3d
       -0.029693851 0.03380326 0.13250475 0.064314656
000040 e8 8d 68 3d 96 d4 b4 3c ed b1 1f 3e 4a 1b c4 3c
       0.056775957 0.022074025 0.15595217 0.023938794
000050 27 42 03 3d 69 ee 5a 3e f2 2f 6b 3c f0 c9 ea 3c
       0.03204551 0.21380009 0.014354693 0.028660744
000060 6b a5 0c be 64 17 9b bd 38 01 c6 bc 72 76 f4 3d
       -0.13734977 -0.07572821 -0.024170503 0.11936654
000070 60 e6 44 bd 6b 61 cb bb fc 04 0a 3d 2b 13 f9 bc
       -0.048071265 -0.0062066815 0.03369616 -0.030404648
000080 c0 fc 93 3c a5 cd d2 bd a3 15 31 bd 89 6c ba bd
       0.018064857 -0.1029313 -0.043233525 -0.09102733
000090 6e ae af 3e 38 f5 d8 3c ab bb 9c 3d c3 dc 8a bd
       0.34312767 0.026484117 0.07652982 -0.06780388
0000a0 5e ca 1c bd 27 e3 e2 3d 29 4c ca 3d 18 d6 ae bd
       -0.03827893 0.11078482 0.09877808 -0.08536929
0000b0 0b a4 49 3e 0f 6c 9f bd 3a 26 67 3d 3f ca 03 3e
       0.19691484 -0.077842824 0.05643294 0.1287012
0000c0 62 bf ef bd 8d fa 13 3d fc bf 2e bd 84 c3 15 3e
       -0.11706425 0.036127616 -0.04266356 0.14625365
0000d0 97 90 14 3e e1 db a5 bd b7 31 6f bd 0a 98 72 3d
       0.14508282 -0.08098579 -0.05839702 0.059227027
0000e0 06 e3 d2 bd 0c 33 7d 3d e8 cd 8f 3d 21 1c f0 3d
       -0.102972075 0.06181626 0.070216954 0.11724115
0000f0 81 b2 b2 bd 45 a8 75 3d 56 17 05 3d 1e 57 1c 3e
       -0.08725453 0.059974927 0.032492958 0.15267608
000100 38 28 fa bc 20 eb c5 3c 7e 40 cc bc 9e 6c 85 bd
       -0.030536756 0.024159968 -0.024933096 -0.06514858
000110 20 15 3b 3d 33 bd 20 3c cd e1 7a bd f1 88 91 3d
       0.045674443 0.009810734 -0.061250497 0.071061976
000120 f7 d9 7b 3d 77 16 66 bd 22 e8 f0 bd c1 07 ec bd
       0.061487164 -0.056173768 -0.11763026 -0.115249164
000130 0d 50 6f bc 89 2b e5 3d 0b 8d e6 bd 4d e2 cc 3d
       -0.014606488 0.11189944 -0.112573706 0.10004101
000140 5e 33 05 be 94 e2 83 3c 7d cb 73 3d 67 be 71 bd
       -0.13007876 0.016099252 0.059520233 -0.059019472
000150 ed a0 0e bd 7b 4d ac bd 42 5c 36 bd 3e f0 9e 3d
       -0.03482144 -0.08413216 -0.044521578 0.07760666
000160 97 60 f3 bd 1d 0f c3 3d e3 7e 8b 3d d6 1e 1a bc
       -0.118836574 0.09524367 0.06811311 -0.009406766
000170 22 37 6c 3d 76 10 b6 bd 0a d2 08 3e 47 b2 ab bd
       0.057669766 -0.088898584 0.13361374 -0.08383613
000180 bf f0 bc bd bb f7 26 bc 69 d3 f2 bd 1a b6 90 3d
       -0.09225606 -0.0101908995 -0.118567295 0.07065983
000190 17 95 43 3d fb b4 93 3c 51 4d 18 3d f4 89 7b bd
       0.047749605 0.018030634 0.03718311 -0.06141086
0001a0 69 67 54 bd 69 97 03 be 54 c2 4f 3d 45 47 f0 bc
       -0.051856432 -0.12850727 0.050722435 -0.029330859
0001b0 a1 de bc 3d 4c 1d d6 bd 68 07 00 be 51 bd e2 bd
       0.092221506 -0.10454807 -0.12502825 -0.110712655
0001c0 cd 21 a0 bd 36 1b 0e 3d 79 8e 9e 3d 8c 63 f6 3d
       -0.07818947 0.03469392 0.07742018 0.12030706
0001d0 73 e6 ce bb ce 59 db 3d c8 01 88 bd d6 94 bc 3d
       -0.006314093 0.10710488 -0.06640965 0.09208076
0001e0 fe 79 63 3b 7d ba b5 3c 57 e2 30 3c 0b 64 12 3c
       0.0034710164 0.022183651 0.010796151 0.008934985
0001f0 88 70 9a bd 26 75 e6 bb 8e 44 4f bd 2e 02 f4 bd
       -0.07540995 -0.007033008 -0.05060249 -0.11914478
000200 97 ab e8 bd b1 f7 97 bd db 4e 31 3d 3f 31 79 3d
       -0.11360853 -0.0742029 0.043288093 0.06083798
000210 fb 9d b4 3d a0 9e f7 3d dd 30 3b bd de 32 9e bb
       0.08819195 0.12090802 -0.045700897 -0.004827841
000220 b7 7e e8 bc 6a 27 a6 3c 0a 4a 92 bc e3 da 93 3d
       -0.028380735 0.020282466 -0.01785757 0.07219484
000230 fa 43 d0 bb db 4b 48 bc db e7 b3 3d e9 53 39 3d
       -0.0063557597 -0.012225117 0.08784457 0.04524604
000240 d0 70 85 bd 45 e6 84 3d 65 51 c5 bd 81 58 af 3d
       -0.06515658 0.06489233 -0.096346654 0.08561803
000250 b3 64 57 bb d3 f9 69 bd f9 36 76 3b 4d 04 10 bd
       -0.0032866418 -0.057123017 0.0037569387 -0.03516035
000260 d0 9e 8e 3d d8 bb c6 3d e8 da c9 3c 8f 7c b1 3d
       0.06963885 0.09703797 0.024640515 0.08666336
000270 e1 1b bc bd c5 d3 ba 3d ba 15 00 3d d5 cc 47 bd
       -0.09185005 0.09122423 0.03127072 -0.048779327
000280 ab 52 91 bc e4 34 e3 3d 06 b9 85 3d 63 f5 68 ba
       -0.017739614 0.110940725 0.06529431 -0.0008886663
000290 a2 33 26 3d 1e 85 92 3b 08 24 be 3d 4a f0 2c bd
       0.040576585 0.004471435 0.09284216 -0.042221345
0002a0 8d 96 bb 3c 37 d3 64 39 73 77 ab 3d c7 a7 83 3d
       0.022898937 0.00021822458 0.083723925 0.06428485
0002b0 0f 97 bc 3d 52 ef 3a ba 56 de 9c 3d 6a 5c e0 3d
       0.092085 -0.00071309984 0.07659595 0.109551266
0002c0 49 7c 3a 3d 6b 4e e4 3d 13 59 ef 3b 8c 1a 76 3b
       0.045528684 0.111477695 0.0073043196 0.0037552444
0002d0 fa 91 f2 bd c1 63 8a 3d 16 e7 c1 bd d7 c2 66 3c
       -0.11844249 0.06757308 -0.09467904 0.014084539
0002e0 2d 24 1c bd 79 7a 03 3d 41 b0 b8 3c ea 55 ea 3d
       -0.038120437 0.03209922 0.022544982 0.11442168
0002f0 89 54 8a bd 18 04 7f 3d b9 ff 02 bc 01 53 83 3d
       -0.06754405 0.062259763 -0.007995539 0.06412316
000300 26 b9 15 3d c6 0b e2 3d 5e 8a 98 3d e6 d6 c5 bc
       0.036553524 0.11037402 0.074482664 -0.024150323
000310 49 e8 d0 3d f0 a8 31 3d 82 18 4e bd ea c9 e4 3d
       0.10200555 0.043374002 -0.05031634 0.111713246
000320 5b 4a 8d 3d 45 8e 37 3e a4 10 33 bc ad 35 ad bd
       0.06898948 0.17925365 -0.01092926 -0.084575035
000330 d7 11 73 bc 78 f6 ff bc e3 03 f4 3d 45 49 7c bd
       -0.014835796 -0.031245455 0.11914804 -0.061593313
000340 0c dc ae 3c 49 ac 4a 3d d2 84 a9 3d 7a ce 87 bd
       0.02134516 0.04948071 0.082772866 -0.06631179
000350 7d 96 92 3d e6 76 b3 3d 6e ec 89 3d a0 79 18 bd
       0.071576096 0.087629125 0.067345485 -0.037225366
000360 9f be 64 3c 0b 23 c5 3d 9a f5 3d 3d 38 da 5e bd
       0.013961463 0.096258245 0.046376802 -0.05440733
000370 05 b0 45 bd cb c8 9e bd 7e ce 17 3e 6f c1 5e bd
       -0.04826357 -0.07753142 0.14824864 -0.05438369
000380 37 7a 24 3d 2a d0 38 bd bc d0 b3 bc c5 a7 ba 3c
       0.040155616 -0.045120396 -0.021950118 0.022785077
000390 a1 fc d3 3e 66 3a 74 3c ae 9a e9 bc 0e b2 e5 bd
       0.41403678 0.014906501 -0.02851614 -0.11215602
0003a0 88 92 9d bd 93 4c 87 bd 83 ab c6 3d a3 47 76 bc
       -0.07693964 -0.06606402 0.09700682 -0.015031728
0003b0 e6 ad 93 3e b7 11 37 3d 6f b7 0a 3e 15 51 df 3c
       0.2884361 0.04469463 0.13546537 0.027260343
0003c0 8d 32 bf bc 00 7b fc ba 4d 19 cb bd c5 e2 1f 3b
       -0.023339534 -0.0019262731 -0.09916935 0.002439664
0003d0 04 d9 8a 3d 5b 0c 1b 3e 4f d6 00 be e1 16 94 bd
       0.06779674 0.15141432 -0.12581752 -0.07230926
0003e0 bf f8 cd 3d 11 78 ba bd b1 44 f9 3b 20 98 b2 3d
       0.1005721 -0.09104932 0.0076070656 0.08720422
0003f0 3e c0 24 3d e1 8c 4f 3c d5 f2 5f bc 4f db ee 3d
       0.0402224 0.0126678655 -0.0136687355 0.116629235

fc.weight f4 [1, 64]
000000 ed 5f a3 bd 8d 85 6d be 3b a1 dd bc 58 1c ae 3d
       -0.07977281 -0.23195477 -0.02705442 0.085015
000010 74 c9 fa 3c 26 c4 a2 3d b8 95 a8 bd 5e a6 bd 3d
       0.030613638 0.079475686 -0.082316816 0.09260248
000020 08 d0 d6 3d 1c 53 cb 3d 57 c7 df 3d 3c 51 f6 bd
       0.104888976 0.09927961 0.10926693 -0.12027213
000030 28 35 b8 3d ec 5f 85 3d ef 40 fd bd 4b fe fa bd
       0.08994514 0.06512436 -0.12365901 -0.12255534
000040 6d fa a5 3d e5 11 fa 3d 9c 62 1d be ec ea f2 3d
       0.081044056 0.12210444 -0.15369648 0.11861214
000050 7a c9 e6 3d 33 5a 3b 3e 59 47 00 be e8 21 33 bd
       0.11268897 0.18296127 -0.12527217 -0.043733507
000060 dc 7b 9c 3c 7f 13 52 3d 4a f3 d8 bd 8e dc 98 bd
       0.01910203 0.051288124 -0.10593279 -0.074639425
000070 d4 c5 29 3e 44 66 f9 3d 11 4b 87 3d 62 b2 10 3e
       0.16579372 0.12177709 0.06606115 0.14130548
000080 a0 c5 8c bd 54 d0 ed bd 95 97 0c be b5 43 bc 3d
       -0.068736315 -0.11612001 -0.13729699 0.091926016
000090 75 f9 9d 3e 31 cd 08 be 58 4b c9 bd 5e 49 49 bd
       0.30854383 -0.13359524 -0.09828824 -0.049142234
0000a0 68 5f 40 bd 3a bc ec bd 52 35 a3 bd 9e 9c e0 3c
       -0.046965986 -0.11559339 -0.079691544 0.02741843
0000b0 42 35 23 be 30 f4 5a 3d 9f dc 0e be a5 7b 69 3d
       -0.15938285 0.05345553 -0.13951348 0.057002682
0000c0 a7 19 c6 3c da 58 0f 3e db d2 00 3e da d3 1d 3e
       0.024182154 0.13998738 0.12580435 0.15412846
0000d0 bf 5e 13 be c5 db a5 3d 27 ef d4 bd 2d 7e 18 3d
       -0.14391612 0.08098558 -0.10397177 0.037229706
0000e0 77 86 a7 bc 7e ac 03 be ec bc 3d 3d a3 b9 dc 3d
       -0.02044986 -0.1285877 0.046322748 0.10777595
0000f0 6d 4d aa bd e6 f6 cf 3c a1 78 c7 3d ce 01 d6 3d
       -0.08315549 0.025386285 0.09739805 0.10449563
